models/DPG_Central.pth (torch, 191843 bytes, 18 tensors)

weight f4 [128, 50]
000000 cb 5a e0 bd f3 14 82 bc 34 08 00 3e 05 0f e4 bd
       -0.109548174 -0.01587913 0.12503129 -0.11135677
000010 90 a4 ae 3a 48 bb d8 3c 8c e1 31 bc c6 39 17 be
       0.001332419 0.02645649 -0.010856997 -0.14768133
000020 9a 60 db bc 51 1e 8f 3d 91 28 e4 bd 21 a4 d1 3c
       -0.026779462 0.06988204 -0.1114055 0.025590958
000030 ba 34 fa bd 48 06 72 bd 6f dc cb 3c 9a 83 e3 bc
       -0.12217088 -0.05908802 0.024885384 -0.027772713
000040 98 8f ab bd d4 ee 7b 3d 7a 73 cc 3d ea 59 a8 3d
       -0.08376998 0.06150706 0.09982963 0.08220275
000050 96 00 02 3e 7c fe 14 3d 5d 3a e4 3d d1 6e b5 3c
       0.12695536 0.036375508 0.111439444 0.022147568
000060 b3 47 f4 3d 18 2f f2 bd ee 25 01 3c e6 87 76 3c
       0.11927738 -0.11825389 0.007882578 0.015047049
000070 13 24 a5 bc 59 57 a1 3d 7c 13 9a 3d 3b 48 d3 bd
       -0.020158803 0.07877988 0.075232476 -0.10316511
000080 c0 53 b2 bd 67 7f 40 3d c4 cb b4 3d 26 76 f1 bd
       -0.0870738 0.0469965 0.08827928 -0.11790113
000090 e5 d2 0c 3e 1a 0e 9e bd 5c 63 6b bd 50 6b 7a 3c
       0.13752325 -0.077175334 -0.057467803 0.015284374
0000a0 26 20 91 bd 39 30 d3 3d d8 32 bf 3b 8d 8b 9f bd
       -0.0708621 0.10311932 0.0058349185 -0.07790289
0000b0 20 19 e3 bd df e8 88 3d e3 8d 65 3d 65 a4 f2 bd
       -0.110887766 0.06685042 0.056043517 -0.11847762
0000c0 e4 32 19 3d 8d 49 0c be 44 12 78 bb 84 d2 6e 3d
       0.03740205 -0.13699932 -0.0037852684 0.058306232
0000d0 da 78 7e bc 21 24 3a bd 17 db 6f bc 21 25 0e 3d
       -0.015531743 -0.04544461 -0.014639637 0.034703378
0000e0 2d a6 b3 bd cd 0c a2 bc 44 8b 81 3d 48 29 17 bd
       -0.0877193 -0.019781495 0.06325391 -0.036904603
0000f0 ff af 82 3d 3d c9 19 be d2 47 0d be 45 f1 95 bd
       0.06381225 -0.15018173 -0.13796929 -0.07321409
000100 db ed 7f 3d 4a 92 92 3d 16 db 98 bd 44 f8 70 3d
       0.062482696 0.07156809 -0.07463662 0.058830515
000110 39 2b 89 bc c5 82 58 3d 80 f8 12 3e 94 83 13 be
       -0.016744243 0.052859087 0.14352608 -0.14405662
000120 5f 6c 9e 3c 4c 97 ce 3d cc 7b 98 3c 14 b7 c0 bd
       0.019338785 0.10087451 0.018613718 -0.094099194
000130 1d 66 84 bc 3e 65 87 bd 1b fe 9d 3d 5b 4b e1 3d
       -0.016161973 -0.06611107 0.077144824 0.11000701
000140 48 0b a1 bd 65 cb 2f be 3b e3 de bd 6c c3 73 bb
       -0.0786348 -0.17167433 -0.108831845 -0.0037195338
000150 fa ad e5 3d 04 a6 ff 3d b6 c2 92 3d 21 bc 9b bb
       0.11214824 0.12482837 0.071660444 -0.0047526513
000160 d5 6f 27 be be bc a1 3b 0f 19 50 bd 03 39 1a bc
       -0.16351254 0.00493583 -0.050805148 -0.009413007
000170 5f 9c a4 bd 5f 0a 84 bc 1b 3b 0a 3d 56 4f f6 3d
       -0.08037638 -0.016118227 0.033747774 0.12026851
000180 e0 74 bf 3d 38 2b ca bd 7e 91 35 3d 02 12 5b 3c
       0.09348464 -0.098715246 0.044328205 0.013370993
000190 a5 77 21 3d 89 60 e0 3d bb 51 81 bc 6b 03 48 bd
       0.039420743 0.109559126 -0.015786042 -0.048831385
0001a0 82 47 02 be c6 0b a7 bd 5d 65 b3 3a 5d 60 22 be
       -0.1272259 -0.081565425 0.0013686825 -0.15857072
0001b0 e9 7b d0 bc 06 56 bc bd 51 12 16 be 90 16 eb bc
       -0.02544971 -0.09196095 -0.14655425 -0.028697282
0001c0 a6 84 4f bd 5e 12 0e 3e 00 f4 84 bd 16 f2 1c 3e
       -0.050663613 0.13874194 -0.06491852 0.15326723
0001d0 1c 2b 9d 3d fb 8e e9 3d b4 61 35 3c 89 d8 8d bc
       0.07674238 0.114042245 0.0110706575 -0.017315166
0001e0 a8 2d 07 be 09 ec 5f 3d dc 07 85 3d b6 a6 2e 3c
       -0.1320101 0.05466846 0.0649564 0.010659864
0001f0 e1 45 b1 bc 28 e3 84 bc 73 a2 80 3d 66 52 9a bd
       -0.021639766 -0.016221598 0.06280985 -0.075352475
000200 94 18 7d bc 2a 30 d9 bc 98 df 21 3c ec d1 79 3d
       -0.015447754 -0.026512224 0.009879969 0.060991213
000210 9a a4 48 be 94 d5 0a 3e 65 e0 cc 3c 9a 07 1d bd
       -0.1959404 0.13558036 0.025009343 -0.038337328
000220 2a 06 64 bd d7 1a 64 bd 0d d9 d7 bd d3 38 03 be
       -0.05566994 -0.05568966 -0.10539446 -0.12814645
000230 0b 9c 49 bb a7 8a 81 3d aa cc fc 3d dc b9 bd 3a
       -0.0030763175 0.06325274 0.12343724 0.0014474946
000240 8e 50 f0 bd 14 04 8a bd bb a6 34 bd ae 03 c2 bb
       -0.117341146 -0.06739059 -0.04410432 -0.005920849
000250 6b 92 4a bd c5 3e 0d be 95 1b 16 3d eb 1e 04 3e
       -0.04945604 -0.13793476 0.036647398 0.1290242
000260 ec 99 b5 bd ab 6b f8 bc 7d f6 97 bd be 77 3c bd
       -0.08867249 -0.030324778 -0.07420061 -0.046012633
000270 24 65 11 3e bc 7b a0 3d 7b 26 15 3c 48 04 64 3c
       0.14198738 0.078361005 0.009103413 0.013917036
000280 d0 8e 0b 3e 6d 70 76 3d 11 8f 0e bc 07 9c 39 3d
       0.13628697 0.06016581 -0.008701102 0.045314815
000290 fb 25 06 bc 8c e8 c3 3c 7f 2d 9a bd 2c fd 65 bc
       -0.008187766 0.023914598 -0.07528209 -0.014037412
0002a0 1c c7 96 bd 26 0a af 3d 71 e9 89 bd a2 d0 2a 3d
       -0.07362196 0.085468575 -0.067339785 0.041702874
0002b0 49 0c 77 bd 37 16 f4 3c 2d d8 ac bc 86 44 b2 3d
       -0.06031445 0.02979575 -0.021099174 0.08704476
0002c0 c5 4e 13 3e 8e 18 77 bd 50 85 98 bd 98 7e 9a 3d
       0.14385517 -0.06032615 -0.07447302 0.07543677
0002d0 1f 60 11 3e eb fe 33 3e a1 ea 71 bd 29 13 c4 3d
       0.14196824 0.17577712 -0.05906165 0.09573967
0002e0 be 1e 2a bc 6a ff 15 bd bb ab b1 3c dc c9 c4 bc
       -0.010383306 -0.036620535 0.021688333 -0.024022035
0002f0 54 65 a2 3c 13 3f 03 3c f7 86 aa bd 27 ee cc bd
       0.019823708 0.008010644 -0.08326524 -0.100063615
000300 a7 b2 7f 3d c7 10 18 b9 70 72 a4 3c d7 d7 8b 3d
       0.062426236 -0.000145021 0.0200741 0.068282776
000310 d0 58 b0 3d ea f2 6c bd 7c f4 a6 bc 6b 7d ce bd
       0.0861069 -0.05784885 -0.020380251 -0.10082515
000320 62 25 8b bc 7f d6 b0 bc 10 0a a5 3d 4f 7e fd 3c
       -0.016985599 -0.021586655 0.0805856 0.030944018
000330 03 19 86 bd dd 4e 97 3d cd 25 5e bd a2 96 12 bd
       -0.06547739 0.07388089 -0.05423527 -0.035788186
000340 46 fd d1 bd 11 73 8e 3d 9f 91 2b bd d4 92 97 3d
       -0.10253386 0.06955541 -0.041886922 0.07401052
000350 46 0f 02 be 21 f9 01 3e bc f9 eb 3d d7 39 f8 bd
       -0.12701139 0.12692691 0.115222424 -0.12120407
000360 57 f7 32 3e 88 ea aa 3d d1 48 d6 3c a5 ee c2 3d
       0.17477165 0.083455145 0.026157768 0.09518174
000370 23 9e 29 bd c7 a8 dc 3d 8b 8d 11 be 18 05 02 be
       -0.041410577 0.10774379 -0.1421415 -0.12697256
000380 cf 3b f6 3d c8 2d 9a bd 80 28 d1 bd 2d 9d 13 3d
       0.12023126 -0.07528263 -0.10212803 0.036038566
000390 3c 14 da bc bf 86 91 3d 6e 24 2e bd 5a b8 c7 3d
       -0.026620977 0.07105779 -0.04251521 0.09751959
0003a0 15 f1 bc 3c 80 28 c1 3d d2 6e 9f bd e1 9c e5 3d
       0.023064176 0.09431553 -0.07784809 0.11211563
0003b0 5f 3c 5e bd d8 e3 c2 bb 3d 67 93 bd b0 f5 17 bd
       -0.054256793 -0.0059475712 -0.071974255 -0.03709954
0003c0 26 cf c3 3d f6 4d d0 3d c4 0b a4 bd 0c 4c e3 bb
       0.09560995 0.1017112 -0.080100566 -0.0069365557
0003d0 94 86 92 bd c8 84 86 bd 34 e5 21 bc 76 06 24 bc
       -0.07154575 -0.06568295 -0.009881306 -0.010011306
0003e0 89 a7 7f bd f3 04 30 bd 54 1c 00 be 51 91 8a 3c
       -0.062415633 -0.04297347 -0.12510806 0.016914995
0003f0 a8 fc 04 3d a5 5f de 3d ba 30 fe 3d 7b 2e 15 be
       0.032467514 0.108580865 0.124116376 -0.14568512

bias f4 [128]
000000 1c 40 3d 3e c0 61 2e 3e cb 22 00 3e af 3d d3 bc
       0.18481487 0.17029476 0.12513272 -0.025786249
000010 ab b6 db bd 61 12 82 3d 80 33 39 3d 63 66 e1 3d
       -0.107282005 0.06351162 0.04521513 0.11005857
000020 75 51 b8 bd b1 8c 81 3d 11 d6 0b be 4b 2d 5a 3d
       -0.08999912 0.06325663 -0.13655879 0.05326585
000030 09 26 35 3e df 27 47 3e d5 ae 21 bd 5a f7 a5 3d
       0.1769029 0.19448803 -0.039473373 0.08103819
000040 48 7f 25 3e 21 d1 4b 3e 6a 02 d8 3d f2 55 04 bc
       0.16161835 0.19903995 0.105473354 -0.008077132
000050 f1 b8 96 3d 93 e8 b8 3d 8e 41 d6 bc 49 d2 31 3e
       0.073594935 0.09028735 -0.026154306 0.17365374
000060 68 dd 2e bd 1e b1 74 3a 07 a2 a6 bd 8b d3 06 3c
       -0.04269162 0.0009334254 -0.08136373 0.008229147
000070 12 e1 b5 bd fb 33 2e be 08 54 7b 3d d4 96 4a 3d
       -0.088808194 -0.17012016 0.061359435 0.049460247
000080 95 7c cd 3d cd 0a 07 3c c2 b8 39 3c 0b 48 dc bc
       0.10033528 0.008242321 0.011335554 -0.026889822
000090 73 fb 06 be 9b 9f 08 3d 62 43 7c 3d 46 6a 1e be
       -0.13181858 0.033355337 0.0615877 -0.15470228
0000a0 cf 0a 66 3c 0e 3f 92 3d 4e 6a 48 3d 84 03 d3 3d
       0.014040663 0.07140933 0.048929505 0.10303405
0000b0 91 f4 aa bd b5 59 b4 3c 0d 94 c5 3d f7 65 03 be
       -0.083474286 0.022015432 0.09647379 -0.12831865
0000c0 61 67 ac bd 57 80 ea bc ab e7 6f bc b5 0f ce bc
       -0.084181555 -0.02862565 -0.014642636 -0.025153974
0000d0 38 cd b8 3c fe e0 9f bc 88 95 59 3e 79 51 b6 bc
       0.022558793 -0.019516464 0.21248448 -0.022255646
0000e0 c0 5e 1b 3e 66 e1 e4 bd b5 ad f9 3d 70 31 08 be
       0.15172863 -0.11175804 0.12191335 -0.13300109
0000f0 1e 20 3e 3e 6a af 2e bd 71 29 66 bc 97 90 53 3a
       0.18566939 -0.042647757 -0.014047966 0.0008070557
000100 fa bf 13 3b 67 ca 0c be cf d9 b5 3d 75 ce 8a 3e
       0.0022544847 -0.13749085 0.08879434 0.2711064
000110 5e 08 8b bd 6b 23 a5 3d 69 ad 5f 3d de 69 95 3d
       -0.06788705 0.08063396 0.054608736 0.07295583
000120 1d 98 c4 bc 16 01 bc 3d 4e d9 1e bd 65 d6 65 3e
       -0.023998315 0.091798946 -0.038781457 0.22445066
000130 04 89 da bc c2 b0 92 bd b9 9f 12 3e f8 62 e6 bd
       -0.026676662 -0.0716262 0.14318742 -0.112493455
000140 f8 d3 41 3d 1d d5 e6 3d 8d 6a 6e 3e cc d5 c7 bc
       0.04732129 0.11271117 0.23282833 -0.024393938
000150 ed 14 6b 3d 56 5c de 3d 18 fe f1 3b 9e fc 19 3d
       0.057393003 0.108574554 0.0073850267 0.03759443
000160 65 c9 45 3d 30 2e f9 3d 30 a9 49 3d 07 44 0c bd
       0.048287768 0.12167013 0.049233615 -0.034244563
000170 79 4d 13 3e b0 c8 a4 bb 01 c9 f5 3c 9e 40 a7 bc
       0.14385022 -0.0050288066 0.030003073 -0.020416554
000180 17 2e a4 3d f3 70 87 3d ee 06 d4 3c 4c 2b e8 bd
       0.080166034 0.0661334 0.02588221 -0.11336383
000190 af d7 08 3d ea 6d 36 3e 8c 1f 60 3d ab cb 06 3e
       0.033408817 0.17815366 0.054717585 0.1316363
0001a0 f2 42 a0 bc ba 71 f1 bd 14 25 c1 3c dc a1 b6 3d
       -0.019563172 -0.1178927 0.02357725 0.08917591
0001b0 d7 ec c2 3c b6 ae 41 3e dc 3a 6e 3d 81 9b 21 3e
       0.023794575 0.18914303 0.0581616 0.15781976
0001c0 c0 a6 4d 3d ca 11 af bb 11 f0 b3 3d da 45 24 3b
       0.050207853 -0.005342697 0.087860234 0.002506605
0001d0 50 78 44 3e 20 5b 1c bd 73 9b 05 3e a8 43 2c bd
       0.1918652 -0.03817284 0.1304758 -0.04205671
0001e0 64 71 28 bd 4e 80 8e 3d 0d dd f8 3c 06 b7 3b 3e
       -0.041123763 0.06958066 0.030378843 0.18331537
0001f0 73 53 1c bc 51 ee c4 3d 77 2b 41 3e 66 33 1a be
       -0.00954138 0.09615768 0.18864237 -0.1505867

weight f4 [64, 128]
000000 ff d6 ed bc 9c cc 09 bd 5f e4 f3 3b 79 d9 69 3d
       -0.029033182 -0.033642396 0.0074429954 0.057092164
000010 e9 04 68 3c 19 c8 b0 bc 6e a0 29 bd 90 fd 09 3c
       0.014161327 -0.021579789 -0.041412763 0.00842227
000020 52 b5 b8 3d f6 27 20 bd 5e b1 8d 3d 50 6e e4 bb
       0.09018959 -0.03910061 0.06918596 -0.006971158
000030 16 ca f6 bc 04 c8 42 bc cd f0 57 3d 6c b1 34 bd
       -0.030125659 -0.011888508 0.05271988 -0.044114515
000040 a0 56 a9 3c 68 3d 3c bd 9a 4d 9e 3d c2 d5 83 3c
       0.020671189 -0.045957 0.07729645 0.016093139
000050 32 31 4f bc b3 e5 87 3d 8f 2c d4 3a 06 84 c4 bc
       -0.012646006 0.066356085 0.0016187596 -0.023988735
000060 62 86 1a bd 0a b2 e0 bd ea 88 70 3d 89 ab a2 3d
       -0.037725814 -0.10971458 0.05872432 0.07942874
000070 fa cd ae bc 5f 58 5b bc aa 68 93 3d ce 5f 0a bd
       -0.021338452 -0.0133877685 0.071976975 -0.033782773
000080 54 83 e4 3d 34 37 5d bd b3 c5 56 39 10 e8 20 3d
       0.11157861 -0.054007724 0.00020482279 0.039283812
000090 02 ae 3c 3c 6b 61 5c 3c d5 e9 28 bc 57 c4 5e bc
       0.011516096 0.013450961 -0.010309656 -0.013596616
0000a0 0e f0 4a bb a2 af f0 bc d4 1e 2c bc 26 78 9f 3d
       -0.0030965838 -0.029380623 -0.010505397 0.07786588
0000b0 7c e3 4e 3d 55 5f 8f 3d ac 7c be bc 77 bb a5 3c
       0.050509915 0.07000605 -0.023252808 0.020230992
0000c0 4b 7f 82 bc d7 73 5e 3d 2b b0 fb bc 60 a6 b9 3d
       -0.015929839 0.054309692 -0.030723652 0.09064937
0000d0 3b 6c 82 3d d1 59 6c 3d 9a 5f d4 bd b7 04 92 3d
       0.063682996 0.057702843 -0.10369797 0.071298055
0000e0 d2 42 4a bd b1 b2 be 3d 9e 4d b0 bc d2 f4 88 3d
       -0.04938013 0.093114264 -0.021521386 0.06687321
0000f0 c3 65 81 3d b4 20 d6 3c 82 98 fe 3b b0 9c ab bd
       0.06318238 0.026138641 0.007769645 -0.08379495
000100 cb 1f 87 bd e9 7b 56 3d 2c f0 eb 3d d9 59 a2 bd
       -0.06597861 0.052364264 0.115204185 -0.07927293
000110 86 0c 92 bd a6 7b 60 bc 5a ae 61 3d be 4c 6a 3c
       -0.07131295 -0.013701355 0.055097915 0.014300523
000120 b9 7d 9b 3d 21 b3 9a 3d 71 6b 78 bd d8 87 f0 ba
       0.07592339 0.075536974 -0.06064934 -0.0018351031
000130 64 8f 80 3d 65 a1 f2 3c 00 0d 03 39 af 5a eb bc
       0.062773496 0.029617975 0.00012497976 -0.028729765
000140 f6 e8 7a 3d 0c 71 19 bc cd 66 df bd 64 c9 da 3d
       0.061257325 -0.009365331 -0.109082796 0.106829435
000150 bc 40 3e bc 86 de 7e bc 61 85 24 bd df 4a be 3b
       -0.011612114 -0.015555983 -0.040166263 0.005807265
000160 98 d9 39 bc b1 b6 a0 bc ed bb 3d bc 2b b1 10 3d
       -0.011343382 -0.019618364 -0.0115804495 0.03532521
000170 90 f7 0a 3d 0c 5d fc bc 62 1c 1b bd 46 86 3b bc
       0.0339275 -0.030806087 -0.037868865 -0.0114455875
000180 ff c2 c5 3c 32 55 e7 3c b4 22 60 3d 18 96 88 bc
       0.024140833 0.028238866 0.054720595 -0.016673133
000190 fb 8b 07 3d 76 91 9e bc 3b 80 57 bc c8 7c 3d 3d
       0.03309248 -0.01935647 -0.013153131 0.04626158
0001a0 a8 3e 55 bd e8 0c 14 3d d7 2c 8e 3d f8 01 a1 bc
       -0.052061707 0.03614512 0.06942146 -0.01965426
0001b0 6c 85 99 bc 36 1f a1 bd cb 9e 1f 3d 93 73 75 3d
       -0.018740378 -0.07867281 0.038969796 0.059924673
0001c0 d2 01 02 bd c3 a6 49 3d ba dd 0d bb f5 6f a9 3d
       -0.031740017 0.049231302 -0.0021647052 0.08273307
0001d0 8a 59 30 3d 82 bb 45 bd ac 83 ce 3d 32 7a c8 3d
       0.04305414 -0.048274525 0.10083708 0.09788932
0001e0 61 cb 20 3d a8 cb f4 3d f8 d3 35 bd 37 e7 0c bd
       0.039256457 0.11952907 -0.044391602 -0.03440019
0001f0 f6 94 95 3d 2e 35 5e bb c7 28 be bb d2 56 3e 3d
       0.07303803 -0.003390621 -0.005803201 0.046469517
000200 17 63 de bc 36 0f 61 3c ce 85 e2 3d b4 95 b0 3d
       -0.02714686 0.013736537 0.110606775 0.086223036
000210 93 e4 0b bd 5e 6f 8f 3d a5 e9 33 3d 7c db 6c bd
       -0.034153532 0.070036635 0.043923993 -0.057826504
000220 8a 7f 37 3d 45 71 6b 3d f5 d5 ac bd 46 c8 92 bb
       0.044799365 0.05748107 -0.084392466 -0.004479441
000230 d2 c2 9d 3d d8 c7 4a 3d 79 46 c0 3c da 18 c9 ba
       0.07703175 0.049506992 0.023471104 -0.0015342489
000240 f5 13 74 3d 27 29 09 bd 58 c5 9b bd bc 56 14 bd
       0.059589345 -0.03348651 -0.07606 -0.03621553
000250 b2 83 a8 3d a7 6c 5e 3d 9a 47 f8 bc 07 08 82 3d
       0.08228244 0.054302838 -0.03030758 0.06349187
000260 98 a9 97 3d 9f 17 87 3d 9d 6f 19 bd a8 7b 9f 3c
       0.07405394 0.06596302 -0.03745996 0.019468144
000270 2b f3 47 bd 21 ba 91 3d 7c ee 35 3c 72 21 27 bd
       -0.048815887 0.071155794 0.011104222 -0.04080338
000280 3c 8f d7 3c 74 3d a5 bd e3 c4 bd 3c 61 42 91 3c
       0.026313417 -0.08068362 0.023165172 0.017731847
000290 66 23 91 bd e0 9e 94 3d 19 8d af bd 42 c0 ec bc
       -0.0708683 0.072568655 -0.08571834 -0.02890027
0002a0 9b f6 42 3b 3c 74 15 bd 61 ca d9 bc 6d c7 12 bd
       0.002974904 -0.036487803 -0.02658576 -0.03583472
0002b0 6c 96 83 3d 30 d7 86 bc dd 3b 81 3d 6e da a4 bd
       0.06425175 -0.016460031 0.06310246 -0.08049475
0002c0 e0 2a 94 3d 3d 4e bb 3d fd 64 31 3d 58 4a 80 bd
       0.0723474 0.09145782 0.0433092 -0.0626418
0002d0 08 11 00 bd af c2 be bd 99 7c 92 3d c1 0e 67 bd
       -0.031266242 -0.09314477 0.07152671 -0.056410555
0002e0 d7 f0 26 bc 67 72 7c 3c 95 1d 61 bd b9 08 84 bd
       -0.010189257 0.015408135 -0.054959852 -0.06446976
0002f0 62 0d 16 bd d0 c5 9f 3c 1c d6 59 3d ad 91 35 3b
       -0.036633857 0.019503504 0.053182706 0.0027705238
000300 1f 18 08 3c 69 c1 72 3d 4c a4 a5 bb cf 19 97 3d
       0.008306532 0.05926648 -0.005054986 0.073779695
000310 a1 1a 7e bd 8a 92 99 bd 19 0a 3d bd ea d2 73 bd
       -0.062037114 -0.07498653 -0.046152208 -0.059527315
000320 fa 30 2b bd 42 fc b8 3d c2 fb 9a 3c c8 bd 34 bd
       -0.041794755 0.09032489 0.018918876 -0.044126302
000330 f5 76 11 bd 26 8e fa 3a d4 9f 7a 3d b1 de 47 bd
       -0.035513837 0.001911585 0.06118758 -0.04879636
000340 9b a0 e7 bb 03 f8 19 39 cd c4 53 ba 2d dc 16 bc
       -0.007068706 0.00014683609 -0.0008078337 -0.009207767
000350 f4 d8 1c bd e8 43 13 3c 8e a5 84 3c ac 08 a2 3d
       -0.03829284 0.008988358 0.016192224 0.0791181
000360 94 d0 2e bd 2e 15 85 bb 69 79 5d 3d 60 d7 89 3d
       -0.042679384 -0.0040613627 0.054070864 0.06730533
000370 a5 8a 0e 3d a0 4b 81 3d 4b 98 72 bc 66 23 3d 3d
       0.03480019 0.063132524 -0.014806817 0.046176337
000380 57 b5 96 bd 88 e0 b8 3d 75 0c 00 3d 95 1c 09 3c
       -0.073588066 0.09027201 0.03126188 0.008368631
000390 a7 c2 6a bc 58 cf 96 3c 70 9e 15 bc d2 63 42 3c
       -0.014328635 0.018409416 -0.009132013 0.011864619
0003a0 e8 b5 4a bd ec bf 85 bc 16 3b 41 bc 73 35 c8 bc
       -0.049489886 -0.016326867 -0.011793872 -0.02443955
0003b0 07 fc ba 3c 12 67 aa 3c 7c ee 91 bd 1b e3 a6 3b
       0.022825254 0.0208011 -0.071255654 0.005092991
0003c0 6e b8 a0 3d 33 fa 9c 3d 20 84 0e 3d e1 73 75 3d
       0.07847677 0.07664909 0.034793973 0.059924964
0003d0 b4 1c d5 bc 1d ad 4e bd 63 df 88 3b 88 dc 83 3d
       -0.026014663 -0.050458062 0.0041770204 0.064385474
0003e0 b8 7f de 3c b4 d2 ee bc c1 f0 88 bc ea 71 1c 3c
       0.02716051 -0.029153205 -0.016716363 0.009548644
0003f0 08 2e dd bc bb a7 86 3a 1c e0 cc 3c e6 aa 50 bd
       -0.026999488 0.0010273376 0.025009207 -0.05094423

bias f4 [64]
000000 07 cd a1 3c 24 4f ee 3d e3 21 84 3c 65 b6 3c 3c
       0.019751085 0.116361886 0.01612944 0.011518096
000010 a1 8c 81 bd 41 02 f0 bc 3f 5d 35 3e 0b 7d 9e 3c
       -0.06325651 -0.02929795 0.17711352 0.019346735
000020 a1 8e 17 3d 5b cd 82 bc 1f 86 20 3d 72 9f 0a 3e
       0.037001256 -0.015967062 0.039190408 0.13537386
000030 26 4c 7d 3d bf a9 b3 bd 94 1f 38 3e 40 4d 00 3e
       0.0618402 -0.08772611 0.17980796 0.12529469
000040 cd d5 25 bc ad 1d ad 3d ed 09 81 3d c2 64 83 3d
       -0.010121775 0.08452926 0.06300721 0.064157024
000050 6a f0 af 3b bf 83 b5 3d e1 f2 d2 3d f6 cf 0d 3e
       0.0053692358 0.08863019 0.10300232 0.13848862
000060 ca e7 72 bd 1a 8c 4e 3d 6e 68 db 3d cc e7 ac bd
       -0.059303083 0.05042658 0.10713278 -0.08442649
000070 f2 06 8d bc 55 8d b7 3d 43 89 62 3d 73 30 9e bd
       -0.017215226 0.08962504 0.055306684 -0.07724085
000080 44 59 4c 3d 5f 6b a0 bd 5b 6b 07 3e 42 33 a0 bd
       0.049889818 -0.078329794 0.13224547 -0.07822277
000090 b8 6f ab 3d 2c f4 39 bc ab 7c b6 bd 29 d8 fe 3d
       0.08370918 -0.011349719 -0.08910497 0.12443573
0000a0 48 bb b9 3d 31 cf 91 3d 12 c8 f1 3c df 23 d1 b9
       0.09068924 0.07119597 0.029514346 -0.00039890312
0000b0 ce 5a de 3c 58 69 c9 3d c7 ca ce bd 41 86 8f 3d
       0.027142908 0.09834546 -0.100972705 0.07008029
0000c0 bd b8 de 3d ce b9 ba bd f4 72 4d 3d 43 41 6e 3a
       0.1087508 -0.09117471 0.050158456 0.0009088704
0000d0 cb e1 3c bc 13 89 c7 bc 06 3a 0b 3e 6a 16 34 bd
       -0.011528443 -0.024357354 0.13596353 -0.04396669
0000e0 d0 f5 b7 3d 18 88 b1 bc 80 fe 59 bd a7 62 e4 3d
       0.08982432 -0.02167134 -0.053221226 0.11151629
0000f0 f0 3f 04 bb 87 4f cb bc 4d 02 b3 bd d2 82 d6 bb
       -0.0020179711 -0.024818195 -0.08740673 -0.0065463567

weight f4 [10, 64]
000000 2f f0 eb 3d b2 98 b1 3b 35 69 15 3e 8f a0 2d bd
       0.11520421 0.005419814 0.14590915 -0.04238945
000010 81 47 e4 3d b3 53 36 bd f2 29 05 bc f4 e7 f8 3d
       0.11146451 -0.044513416 -0.008127676 0.121536165
000020 67 2a 77 bd 4b ed b2 bd 2c 83 1c be 78 3d 08 be
       -0.060343172 -0.08736666 -0.15284413 -0.13304698
000030 62 59 b9 3d 63 00 ce 3d b5 9f 76 3d 9e 37 bd bc
       0.090502515 0.100586675 0.060210902 -0.02309781
000040 4f 85 d1 3c 63 5c 08 bd c7 af 41 bd 8d b3 be 3d
       0.025576262 -0.03329123 -0.047286775 0.0931159
000050 77 d1 9d bd ca cd 3f be 20 83 f2 3d f8 9a b9 bd
       -0.07705968 -0.18730846 0.11841416 -0.09062761
000060 5f 8b 09 bd 01 02 20 be 5f a3 0f be 9d 67 57 bd
       -0.03358018 -0.15625764 -0.14027165 -0.052589048
000070 2d 34 1c 3e 48 f4 43 3b 0c e5 01 bd 4b 22 bb 3d
       0.15254278 0.0029900242 -0.031712577 0.091374
000080 29 da 27 3e 8e 9e 03 3e b1 92 13 be 4b 4f fe 3d
       0.16391815 0.12853453 -0.14411427 0.12417468
000090 d4 a5 7d bd 5f 0b fc 3d 24 d2 8e 3d 84 6a e4 3b
       -0.061925724 0.12306856 0.06973675 0.0069707055
0000a0 aa 41 f2 3c 4c e0 27 be aa 0e 07 3d 15 3f 1f 3e
       0.029572327 -0.16394156 0.03297297 0.15551408
0000b0 e9 60 c7 bd 4b 89 fe bd 52 b1 dd bd 58 13 0d be
       -0.09735281 -0.1242853 -0.10824837 -0.1377691
0000c0 5c 5d 04 3e 80 12 a1 3d 02 13 61 bd d0 e3 04 3e
       0.12926239 0.07864857 -0.054949768 0.12977529
0000d0 2b 96 04 be fe d1 da 3d d4 07 bf bb cc 80 0b 3d
       -0.1294791 0.10684584 -0.0058297906 0.034058377
0000e0 03 5a 94 bd a3 61 d5 3d 06 83 d6 bc dd 8f 12 be
       -0.07243731 0.10419013 -0.026185524 -0.14312692
0000f0 d3 6b 99 3d 42 06 76 3d e2 b2 06 3e c8 7e 38 3d
       0.07491269 0.06006456 0.13154176 0.045042783
000100 e1 07 9f 3d 31 94 d0 bb 3d f1 77 3d ec 4d dd bd
       0.07765175 -0.006365322 0.060532797 -0.10805878
000110 ff 0f 88 3d cd 6a 73 bd 70 f7 e7 bd 1d 96 54 bd
       0.06643676 -0.059428025 -0.11326492 -0.05190097
000120 41 56 e6 bd f2 ab 36 bc 2a af 7b 3d a9 ae 14 be
       -0.112469204 -0.011149393 0.061446346 -0.14519753
000130 aa 51 e9 bd a6 b9 b7 bd 72 17 e5 bd 9d 4e 31 3c
       -0.11392529 -0.089709565 -0.111861125 0.0108219655
000140 94 8e bc 3a 37 ed 63 3d c7 36 c0 bd ac bf fe bc
       0.0014385753 0.055646148 -0.09385448 -0.031097256
000150 bd 1f c9 bd 4a 30 e4 bd 2a 2e 16 be 8f 33 fe bd
       -0.09820507 -0.11142023 -0.14666048 -0.12412178
000160 e7 c2 7b 3d 9c 80 3f 3b 92 e2 04 3d 8d 17 a4 3d
       0.06146517 0.0029220944 0.032442637 0.080123045
000170 46 41 2b 3d 2e 23 d9 bd 21 5b e5 3c 3d ff 77 bd
       0.041810296 -0.10602413 0.027997555 -0.06054615
000180 44 99 b3 3d e7 c9 fc bd c3 fe a1 3c ea d0 e8 3b
       0.087694675 -0.12343197 0.0197748 0.0071049826
000190 5e 3a 2d 3d 39 30 63 3d 6e 41 ff bd 2e 06 ad bd
       0.04229199 0.05546591 -0.124636516 -0.08448444
0001a0 f3 e6 96 bb 78 c0 94 3b 0a 92 ad 3c e6 b3 45 bd
       -0.004605168 0.0045395456 0.0211878 -0.048267268
0001b0 37 56 91 3d 92 c3 d1 bd 10 91 b3 3d cf 8e 1f be
       0.07096522 -0.1024238 0.08767903 -0.15581821
0001c0 7e cf 15 be 70 7c 87 3d fa ce 89 bd 0b 19 77 3d
       -0.14629933 0.066155314 -0.06728931 0.060326617
0001d0 f0 0e f1 bd f0 a9 6c bd bd 39 9a bc 88 03 0b be
       -0.11770427 -0.057779253 -0.01882636 -0.13575566
0001e0 df 89 25 be a1 03 91 3d b3 5b 35 3c 08 49 ed 3c
       -0.16165875 0.0708077 0.011069226 0.028965488
0001f0 33 e0 95 3d 64 b3 1c be 06 05 37 bd cd fc 0d be
       0.07318153 -0.15302807 -0.044682525 -0.13865967
000200 b9 17 aa bd e7 ea ca bd 72 42 08 3d 6d 53 d7 bd
       -0.08305306 -0.09908085 0.033266492 -0.10513959
000210 90 95 11 be a2 2c ae bd 75 d7 0e be 5a 3d ab bd
       -0.1421721 -0.08504607 -0.13949378 -0.08361311
000220 99 94 c6 bd 2d 0b f3 3c d8 e7 d3 3d 32 d6 01 be
       -0.096963115 0.029668415 0.10346955 -0.12679365
000230 ce 06 10 be e9 e2 da 3c 36 7f dd 3c e9 87 6b bd
       -0.14065096 0.026719527 0.027038198 -0.05750266
000240 5b 17 b4 bc c4 fc 8c 3d 4e 19 10 bd 43 f6 39 3c
       -0.021983793 0.06884149 -0.035180382 0.011350217
000250 65 54 3c bd 67 06 1b be e6 f1 bb bd fa 84 b0 ba
       -0.045978922 -0.15139161 -0.09176998 -0.0013467364
000260 45 1a a6 3d 67 f1 20 3d 53 4c 33 3d 8d 7e a2 3a
       0.08110479 0.03929272 0.04377396 0.0012397334
000270 70 86 93 3d 2f bc ab bd e7 d2 67 bd 66 22 88 bc
       0.07203376 -0.083855025 -0.056597617 -0.016617965
000280 cd 6c be 3d 32 0e 51 ba 3d a5 2e bd 46 b7 70 3d
       0.09298096 -0.00079748326 -0.042638052 0.058768533
000290 7b a0 ee 3c fb 4d b5 bd a1 1c d6 3d 57 2c 9f bd
       0.029129257 -0.08852764 0.10454679 -0.07772129
0002a0 55 8e c6 3d 90 ba 75 3d 40 f2 40 bd 96 0d 0d bd
       0.096951164 0.059992373 -0.047106028 -0.034436785
0002b0 a1 95 b7 bc 60 fa 86 bd 27 6b 7d 3d c4 9b 0c be
       -0.022410216 -0.06590724 0.061869767 -0.13731295
0002c0 5e 1a 80 3d cb 8e f1 bd e4 28 e8 ba a4 15 98 3d
       0.06255029 -0.11794814 -0.0017712382 0.074260026
0002d0 33 3a a6 3d b1 d5 49 bd 54 42 ab bd 30 94 87 3d
       0.08116569 -0.049276058 -0.083622605 0.066200614
0002e0 63 6d 80 3c 70 26 d4 bd b1 c4 ba bd a4 a5 98 3d
       0.01567716 -0.10358894 -0.09119547 0.074534684
0002f0 48 cc 13 bd d0 91 d5 bd 75 c5 ae bd d7 99 17 3d
       -0.03608349 -0.10428202 -0.08533756 0.037011947
000300 ec 2a 80 3d d7 14 77 bc 50 01 88 bd 29 17 ef bd
       0.06258187 -0.015080652 -0.06640875 -0.11674339
000310 c7 fa 94 bd f7 cd 63 3b 86 3d c2 bd a9 a3 13 3d
       -0.072743945 0.0034760216 -0.09484391 0.03604475
000320 0b 92 67 bd 81 cf 56 bd 68 68 e2 bc d2 31 08 3d
       -0.05653576 -0.052443985 -0.027637675 0.033250637
000330 0d bc 12 be 0d 40 97 bd f6 3d 87 bd 48 14 ab b8
       -0.14329548 -0.073852636 -0.06603615 -8.157693e-05
000340 e5 fb e4 3c 3b 2d fa 3c b4 b6 d9 bc 32 c1 32 3d
       0.027952144 0.030539146 -0.026576377 0.043641277
000350 3b 2a d3 3d fa 6e 96 3d af 52 be bd f5 38 43 3d
       0.10310789 0.07345386 -0.092931144 0.04766174
000360 76 28 84 3d c4 44 26 bd 0f f2 52 bc 18 81 96 3b
       0.0645303 -0.040592924 -0.012875094 0.004593026
000370 e5 85 eb bd 93 3a 9b bc f7 c0 c8 bd 7c 8e f0 bd
       -0.11500148 -0.018948829 -0.0980243 -0.11745927
000380 4d dc 35 3d 5e 9a bd bd 44 69 ff 38 a1 cc d3 3d
       0.04439955 -0.09257959 0.00012178955 0.10341764
000390 22 df bd 3d ba e6 3a 3c 96 26 2c 3d 47 79 fd bd
       0.09271075 0.011407549 0.042028986 -0.123766474
0003a0 ee 8e 0a bb b4 26 1a 3d 25 7a 72 bd 3a f7 ce 3c
       -0.0021142322 0.037634566 -0.059198517 0.025264371
0003b0 0b 43 fc bc bd a6 57 bd 20 bc cd bd ff 4b e3 3c
       -0.030793687 -0.05264925 -0.100456476 0.027746199
0003c0 a0 c8 b5 bd db f6 bf 3d 64 6d 65 3c 6c d5 a7 bd
       -0.08876157 0.09373256 0.014003132 -0.08195004
0003d0 dc 2f 5e bd ab b0 9f 3c 49 45 8a 3d 0e 91 03 be
       -0.05424486 0.019493422 0.06751496 -0.12848303
0003e0 66 48 82 3d b4 c0 ba 3d 66 6a c4 3d 85 2c 48 3d
       0.06361465 0.091187865 0.095906064 0.048870582
0003f0 ae 3e 74 bd df 04 1f bd 8b 36 e3 3d eb dd 22 be
       -0.05963009 -0.038823005 0.110943876 -0.15904967

bias f4 [10]
000000 93 21 d4 3d 17 17 60 bb 6b d6 de bd 10 95 2c bd
       0.10357966 -0.003419345 -0.10880741 -0.042134345
000010 ca 24 86 bd 5f 93 4b 3d f0 66 8b bd 0a fc 07 be
       -0.06549986 0.04970109 -0.06806743 -0.13279739
000020 84 83 ad bd a9 06 10 3e
       -0.0847235 0.1406504

exp_avg f4 [128, 50]
000000 29 67 cd 34 9c b1 49 36 3f 23 a8 36 24 83 d6 36
       3.8259284e-07 3.0054716e-06 5.0108933e-06 6.3929638e-06
000010 b3 3c ca 36 63 4e 82 37 df 22 00 38 ab 57 93 38
       6.0271354e-06 1.553371e-05 3.0550054e-05 7.025836e-05
000020 d7 fa ec 38 64 38 0f 39 ff e7 60 39 a2 85 88 37
       0.000113000795 0.0001365855 0.0002144873 1.6274691e-05
000030 8a 2a 02 3a 0c 1e 85 b9 28 17 d9 ba 02 b9 f1 ba
       0.0004965445 -0.00025390123 -0.0016562687 -0.0018441977
000040 85 d9 29 bb 22 fc 19 bb 2c 8b ab ba 74 c4 db 39
       -0.0025917005 -0.002349623 -0.0013087741 0.00041917304
000050 ab f5 c0 ba 88 9c 44 bb 85 dd 49 bb 08 c9 a9 bb
       -0.0014721652 -0.0030000526 -0.0030802202 -0.0051814355
000060 b7 6e c6 bb 74 19 05 bb 53 b1 09 bc cb ac 8d 3a
       -0.0060556787 -0.002030936 -0.008404094 0.0010808943
000070 5c 5f 58 ba 3e d6 93 bb 01 bf 6a bb e9 a6 bf bb
       -0.0008253956 -0.0045116236 -0.0035819414 -0.0058487547
000080 d4 8a 35 bb 63 aa eb b9 5a ba 92 ba a0 48 76 3a
       -0.0027701156 -0.0004494964 -0.0011194453 0.0009394977
000090 6d 65 74 ba 47 cf 92 3a f8 21 b0 ba 40 07 cc bb
       -0.0009322975 0.001120069 -0.0013437858 -0.00622645
0000a0 bf 3d 66 ba e3 bc 1b bc f8 54 dd 3a f4 47 1d bb
       -0.00087830046 -0.009505483 0.0016886285 -0.0023999186
0000b0 50 22 25 3a d3 b0 90 bb 27 81 34 bb a3 81 59 bb
       0.00062993634 -0.0044156103 -0.00275428 -0.0033188842
0000c0 40 04 57 bb 86 5b c2 ba e4 0a 2f 36 2e 29 5e 36
       -0.003280893 -0.0014828302 2.6083371e-06 3.3104548e-06
0000d0 64 f7 5e 36 e8 de 0d 36 55 da db 36 2a 0c ac 36
       3.3224578e-06 2.1140386e-06 6.552126e-06 5.1274155e-06
0000e0 02 32 5f 36 df 04 7a b7 9b eb 19 b8 78 50 c4 b7
       3.3258698e-06 -1.4902295e-05 -3.6697467e-05 -2.3402492e-05
0000f0 d9 ca 1e b8 7c 70 69 b9 32 a8 2e 3a 75 27 42 3a
       -3.7859052e-05 -0.00022262515 0.00066626363 0.0007406392
000100 09 90 62 3a 44 a1 b5 3a 81 10 7b 3a bb 8a 43 39
       0.0008642679 0.0013857265 0.00095773494 0.0001864833
000110 b3 e9 68 ba 95 d1 b3 b9 ae 23 7a 39 78 d2 27 b9
       -0.00088849216 -0.0003429769 0.0002385515 -0.00016004767
000120 35 13 b4 39 b4 bc 98 3a be a8 90 39 8e 1d bb 39
       0.00034346586 0.0011652918 0.00027591543 0.0003568944
000130 55 fb 64 38 ef 50 cf b9 5d cb b5 3a 21 9d 2a ba
       5.4593507e-05 -0.00039542417 0.0013869811 -0.00065083994
000140 7f 86 bb b9 12 77 aa 39 9d af c6 3a ae 93 21 39
       -0.00035767627 0.0003251364 0.0015158538 0.00015409171
000150 a1 e3 42 3a 54 83 ac 38 a1 68 73 b9 ae cb 8c 3a
       0.0007434432 8.226061e-05 -0.00023213263 0.0010741854
000160 93 ca 7f 39 a5 71 27 3a ae e4 88 3a 2f a4 44 3a
       0.0002439416 0.0006387479 0.0010444128 0.0007501272
000170 e2 48 11 3a e0 51 2a 3a 49 f4 e9 b9 c3 b1 7f 3a
       0.00055421714 0.00064971857 -0.0004462323 0.00097539666
000180 ab 2c 1b ba 15 37 6f 38 b4 1a d7 39 86 ea 90 3a
       -0.0005919437 5.703334e-05 0.0004102789 0.0011056222
000190 83 34 59 37 89 4e c4 37 24 34 d5 37 ac ab fd b6
       1.2946434e-05 2.3401592e-05 2.5415859e-05 -7.559973e-06
0001a0 25 e9 03 38 fb a6 31 37 f3 d9 3e 38 fb 3b c2 38
       3.1449967e-05 1.05889e-05 4.550251e-05 9.261813e-05
0001b0 41 38 84 36 3e 09 f6 b8 56 bc 97 b9 3f 52 44 bb
       3.9404554e-06 -0.000117319156 -0.00028941286 -0.002995625
0001c0 8e 9e 93 bb b2 bb 0c bc 0c 47 90 bc bd bf ae bb
       -0.004504985 -0.008589672 -0.017612003 -0.0053329156
0001d0 f7 b6 d5 bb 8e 00 86 bb 0c 92 13 bc 0f b6 bb bb
       -0.0065220552 -0.0040894216 -0.009006988 -0.00572849
0001e0 ec 47 d2 3b d1 36 37 bc 1c fe 24 3c 30 76 3e bc
       0.006417265 -0.011182503 0.01007035 -0.011624858
0001f0 1b fc 99 ba d3 ae 2e ba 9b 73 0d bc 92 4b dc bb
       -0.0011748107 -0.0006663624 -0.0086335195 -0.006722876
000200 9b f9 39 3c 35 41 1c bc ec 07 c6 bb a6 f3 f5 bb
       0.0113510145 -0.009537031 -0.006043425 -0.007505852
000210 68 be 0b 3b a2 b1 07 bb f3 bb 01 3b 82 f2 33 bc
       0.0021323208 -0.0020705243 0.0019795864 -0.010983111
000220 25 1f 94 bb e4 40 48 3c 95 d5 98 bb ca 76 3b 3c
       -0.0045203143 0.012222502 -0.004664133 0.011441896
000230 b9 ed 9e ba 77 3c 1f bc 2e 51 dd 3a 64 06 ef 3a
       -0.001212529 -0.009719006 0.0016885155 0.0018236157
000240 28 01 02 bc 57 1c 2c 3b 8c 54 f1 bb a7 7d e9 bb
       -0.007934846 0.002626201 -0.007364815 -0.0071255746
000250 db 33 f1 ba 20 80 bb 3a 92 b0 1c 35 80 ec b2 b5
       -0.0018402295 0.0014305152 5.837147e-07 -1.3330864e-06
000260 58 f6 08 b6 e4 d9 1c 36 59 7e c7 b6 d4 4f b8 b5
       -2.040897e-06 2.337264e-06 -5.945371e-06 -1.3732301e-06
000270 c4 79 9e b7 dd 79 8c b8 b6 47 8c b8 45 c6 9b 37
       -1.889177e-05 -6.698419e-05 -6.6890774e-05 1.8569766e-05
000280 80 08 f4 38 63 ee 5f 3a 5e b6 37 3b 59 b3 7e 3b
       0.0001163641 0.00085422973 0.0028032283 0.0038864224
000290 83 d7 d5 3b a1 92 23 3c 32 6a b5 3a 94 78 0c 3b
       0.006525935 0.0099836895 0.0013840853 0.0021434175
0002a0 49 fb 69 3b 6e 59 6f 3a 8a 03 39 38 b7 2c c0 3a
       0.0035702756 0.00091304525 4.4110733e-05 0.0014661764
0002b0 86 ba 6a 39 76 6a ad 3b 8f fa 06 3a fa 5d a7 3a
       0.00022385464 0.005292232 0.00051490305 0.0012769096
0002c0 35 1b e4 3a 0c 53 cc 3a 9e 7d b8 39 d3 7e 29 3a
       0.0017403128 0.0015588715 0.00035188807 0.00064657367
0002d0 59 e0 58 3b 38 b0 12 3b a2 80 fa 38 bd c5 94 39
       0.0033092706 0.0022382867 0.00011944889 0.00028376086
0002e0 12 7a 9b 3a 2c ee 7f 3b 16 2a b8 3a 4a a0 f8 b9
       0.0011861941 0.0039051874 0.0014050629 -0.0004742167
0002f0 56 40 a1 3a a8 65 11 3a 6d 9c 1d 3b 4c 60 00 3b
       0.0012302499 0.0005546459 0.0024049536 0.0019588647
000300 7b f6 ae 3a d9 21 8e 3a db 48 dd 3a c5 ed af 3a
       0.0013348603 0.0010843828 0.0016882675 0.0013422301
000310 54 17 40 3a fa 71 5b 3b 5c 80 31 3b ea ba f7 39
       0.0007327695 0.0033484683 0.0027084565 0.00047250773
000320 2e 2f 21 b5 dc 68 20 b5 9c 92 93 b5 6d 9f 47 b6
       -6.004583e-07 -5.9757235e-07 -1.0995022e-06 -2.9746109e-06
000330 24 b9 93 b6 33 b6 14 b7 5c 00 40 b7 9e a5 08 b7
       -4.4024946e-06 -8.863909e-06 -1.14441755e-05 -8.144792e-06
000340 b0 49 45 b7 7c 75 8a b7 0b 8e 02 b7 eb 83 c9 b9
       -1.1759272e-05 -1.650559e-05 -7.781676e-06 -0.00038435994
000350 34 f9 23 ba 48 1c ac ba 01 85 e0 ba 89 71 14 bb
       -0.00062550907 -0.0013130987 -0.0017129482 -0.002265068
000360 80 b5 78 38 1d b1 5f 3a ed f0 3c ba 98 b9 c5 ba
       5.9296843e-05 0.0008533167 -0.00072075316 -0.0015085218
000370 94 9a 0d 3a 68 0e 4e ba be 33 06 ba 17 bd ea ba
       0.0005401757 -0.0007860423 -0.00051194045 -0.0017909136
000380 fa 77 85 b9 3e 43 a8 39 37 e8 b5 b9 f0 96 16 39
       -0.00025457126 0.00032093556 -0.00034696024 0.00014361343
000390 e2 fb 16 39 a7 27 1b ba da 5a 41 b9 91 be 74 ba
       0.00014398948 -0.00059186894 -0.00018439759 -0.0009336258
0003a0 ab bb 84 3a 2b 8a 84 39 be 8d 0b 3a b2 f2 c5 ba
       0.001012673 0.00025279945 0.00053235504 -0.0015102236
0003b0 c0 08 02 bb 3e 25 e7 39 cf 65 a4 b9 44 b8 33 ba
       -0.0019841641 0.000440875 -0.0003135637 -0.0006855766
0003c0 91 79 01 bb 97 25 ee 38 53 39 c9 39 72 f7 e6 39
       -0.0019756297 0.00011355726 0.00038380417 0.0004405338
0003d0 de 26 79 b8 1c 4b 1c ba 13 b2 86 b8 2a 7b 58 ba
       -5.9402424e-05 -0.000596212 -6.422787e-05 -0.0008258099
0003e0 0d 50 59 39 1b 49 05 3b 95 65 26 b4 87 ee e0 b4
       0.00020724554 0.0020337764 -1.549691e-07 -4.1896803e-07
0003f0 73 c5 0f b4 84 45 c8 b5 57 64 0a b5 c1 15 a3 b5
       -1.3389744e-07 -1.4921393e-06 -5.155502e-07 -1.2150778e-06

exp_avg_sq f4 [128, 50]
000000 d3 f3 11 34 56 59 2d 34 a6 a4 53 34 3a b1 85 34
       1.359288e-07 1.6144381e-07 1.9710805e-07 2.490213e-07
000010 ff b9 b4 34 3c f5 f7 34 68 da 42 35 95 40 ab 35
       3.3662943e-07 4.6185767e-07 7.2588455e-07 1.2759289e-06
000020 d0 dd 29 36 d3 f7 a8 36 e2 ad 42 37 15 4e fd 37
       2.5312074e-06 5.0356407e-06 1.1603786e-05 3.019631e-05
000030 c3 63 b1 38 e4 9f 85 39 68 d1 56 3a a8 6e 3e 3b
       8.4586e-05 0.00025486865 0.0008194656 0.0029057655
000040 63 cc fb 39 a2 6e e0 39 5d 84 cd 39 fe 22 14 3a
       0.0004802673 0.00042807037 0.00039199265 0.0005650966
000050 95 4e cd 39 c2 68 c2 39 ff 61 f2 39 f5 f6 a3 39
       0.00039159195 0.00037080614 0.0004623085 0.0003127378
000060 41 15 08 3a 61 d3 88 39 ea 9a ac 39 0d 9e 99 39
       0.00051911554 0.0002609743 0.00032921816 0.0002930019
000070 71 09 e1 39 6e c7 06 3a c0 28 d7 39 a5 24 cc 39
       0.0004292238 0.00051414117 0.00041038357 0.00038937214
000080 a2 64 92 39 7c 78 33 37 00 77 07 3a 19 e0 a0 39
       0.00027922267 1.0697284e-05 0.00051675737 0.00030684544
000090 40 77 42 3a fb 13 b3 39 36 3d a7 39 a7 92 02 3a
       0.00074182823 0.00034156427 0.00031898328 0.00049809593
0000a0 d3 8f 93 39 83 90 1b 3a 60 d9 8e 39 cd c3 87 39
       0.00028145182 0.00059343147 0.00027246308 0.0002589509
0000b0 6c 46 71 39 fd 90 04 3a d2 35 14 3a 39 12 b0 39
       0.00023009785 0.00050570053 0.0005653772 0.00033582913
0000c0 08 01 c0 39 64 4d 97 38 b1 e4 e6 34 d4 65 03 35
       0.00036621862 7.214656e-05 4.3007233e-07 4.894948e-07
0000d0 1c 5f 16 35 b4 ca 2b 35 c0 c1 50 35 05 b9 87 35
       5.6017757e-07 6.3997436e-07 7.776798e-07 1.0112132e-06
0000e0 da 44 b6 35 b2 85 04 36 cc 77 5e 36 22 76 c9 36
       1.3580095e-06 1.9747354e-06 3.3150309e-06 6.0040193e-06
0000f0 b5 e1 4d 37 8c 87 de 37 d9 0f 90 38 51 cb 36 39
       1.2271504e-05 2.6527581e-05 6.869407e-05 0.00017432614
000100 e5 6d 06 3a 77 2e d6 3a 54 fc fa 38 d3 6d dc 38
       0.000512807 0.0016340752 0.00011967929 0.00010510874
000110 a4 66 de 38 1b 9b d7 38 2a d7 c4 38 1d 25 42 38
       0.00010604903 0.000102808895 9.386086e-05 4.628777e-05
000120 07 29 b3 38 d4 23 c2 38 a1 7b 89 38 fa 8a 69 38
       8.543027e-05 9.2573144e-05 6.555697e-05 5.568096e-05
000130 84 77 9c 38 2a 73 8c 38 71 ba d8 38 5e a8 a8 38
       7.460921e-05 6.697171e-05 0.0001033441 8.042225e-05
000140 86 50 83 38 31 10 75 38 c4 1e 48 38 44 1c 39 36
       6.2615654e-05 5.842763e-05 4.771237e-05 2.75836e-06
000150 99 34 09 39 f5 3f 02 39 da 45 f8 38 eb 10 c5 38
       0.00013084932 0.00012421592 0.000118385724 9.396843e-05
000160 ec bc 00 38 0a fd bb 38 1b f9 b0 38 02 02 8e 38
       3.0693525e-05 8.963987e-05 8.4387335e-05 6.7714616e-05
000170 34 b0 49 38 24 f0 8e 38 f8 60 99 38 05 e5 fa 38
       4.8086236e-05 6.815817e-05 7.31367e-05 0.00011963587
000180 b4 70 96 38 b6 41 47 38 a4 e1 3f 38 c5 db b0 37
       7.17355e-05 4.7506495e-05 4.5748093e-05 2.1083173e-05
000190 73 55 17 35 6c 31 59 35 a4 e1 a3 35 5f f1 00 36
       5.637623e-07 8.091072e-07 1.2210116e-06 1.9213983e-06
0001a0 c5 69 5a 36 5c 39 c3 36 26 44 33 37 f6 aa b0 37
       3.2546097e-06 5.8181304e-06 1.06850985e-05 2.1060445e-05
0001b0 43 5b 43 38 e3 96 d3 38 65 20 72 39 b7 a6 12 3a
       4.6576617e-05 0.00010089369 0.00023090986 0.00055943005
0001c0 f8 4a ce 3a b9 9b 7c 3b 7f 4e 26 3c be 96 08 3d
       0.0015738895 0.0038544966 0.010150551 0.033346884
0001d0 2c 6a 31 3b a1 fc d6 3a 9f f7 d8 3a a6 aa c7 3a
       0.002707134 0.0016402194 0.0016553289 0.0015233352
0001e0 c1 d4 a9 3a 48 be de 3a 90 bb b9 3a bd 11 f6 3a
       0.0012957082 0.0016993964 0.0014170278 0.0018773597
0001f0 f9 91 ab 3a 6a 53 e3 3a 52 65 d9 3a 82 91 94 3a
       0.0013089768 0.0017343585 0.0016585982 0.0011334869
000200 83 24 b9 3a 3d 30 ae 3a a5 7a b1 3a 21 5f b2 3a
       0.0014125261 0.0013289523 0.0013540579 0.0013608673
000210 47 d7 13 3a 4b 8d 6f 38 bc 94 f3 3a 80 08 ef 3a
       0.0005639684 5.711363e-05 0.0018583755 0.0018236786
000220 98 dd c5 3a 66 6f a4 3a 33 d7 cb 3a 08 c1 b8 3a
       0.0015095947 0.0012545406 0.0015551805 0.0014095614
000230 db 08 13 3b be 92 bb 3a 26 78 04 3b fb 6e e6 3a
       0.0022435698 0.00143107 0.0020213216 0.0017580682
000240 12 bc 84 3a a6 be b1 3a fc 34 a0 3a 37 88 9d 3a
       0.001012685 0.0013560846 0.0012222822 0.0012018745
000250 66 64 72 3a 40 ab f6 38 db fa 2d 35 49 9e 49 35
       0.0009246528 0.00011762092 6.4812565e-07 7.510867e-07
000260 34 2c 6d 35 13 18 8b 35 27 71 ab 35 cc 6b d5 35
       8.8353704e-07 1.0363314e-06 1.2773424e-06 1.590111e-06
000270 94 af 04 36 59 fb 38 36 14 a6 82 36 1c eb d5 36
       1.9771733e-06 2.756444e-06 3.893636e-06 6.375265e-06
000280 3c ec 42 37 3f 6a bd 37 3b c3 5a 38 73 fa fa 38
       1.1618304e-05 2.258003e-05 5.2157073e-05 0.00011967579
000290 0b 58 99 39 07 34 81 3a c2 2f b4 38 5c e3 6a 38
       0.0002924803 0.0009857424 8.5919644e-05 5.6001692e-05
0002a0 d4 7d 6e 38 41 f8 c1 38 4f 36 60 38 a1 9e 97 38
       5.686081e-05 9.249198e-05 5.345634e-05 7.229788e-05
0002b0 97 84 5b 38 88 50 8e 38 53 7e 2d 38 fd b4 a6 38
       5.2337153e-05 6.786088e-05 4.1364063e-05 7.9492085e-05
0002c0 79 87 b3 38 87 ad 60 38 df d4 8f 38 da 07 a5 38
       8.560619e-05 5.356737e-05 6.858422e-05 7.8692756e-05
0002d0 f8 f5 b5 38 8d 9f d6 38 a2 6c 0f 38 3e 1d 2b 36
       8.676568e-05 0.00010234034 3.419503e-05 2.5498007e-06
0002e0 2d 72 59 38 29 9e 53 38 2d 5a c4 38 f9 bd 3f 38
       5.1843166e-05 5.045362e-05 9.362805e-05 4.5714874e-05
0002f0 2f 0d a6 38 72 28 55 38 e9 65 81 38 66 f8 f3 37
       7.9179525e-05 5.0820825e-05 6.1701816e-05 2.9083527e-05
000300 58 e1 a6 38 93 b3 b1 38 6c f5 6a 38 d8 36 a0 38
       7.9574704e-05 8.473466e-05 5.6018514e-05 7.63961e-05
000310 c5 8f a5 38 3d 04 92 38 28 11 a9 38 46 e8 1b 37
       7.894592e-05 6.962612e-05 8.0617436e-05 9.2928e-06
000320 7c 23 68 34 0a 99 84 34 a7 6f 97 34 7a 9b b2 34
       2.1619593e-07 2.4698267e-07 2.820718e-07 3.3268208e-07
000330 b0 b4 d5 34 44 43 05 35 a6 4c 2e 35 c5 48 70 35
       3.980581e-07 4.9644245e-07 6.493159e-07 8.951286e-07
000340 bc 2b c2 35 d1 6a 27 36 67 e5 9b 36 a3 c2 30 37
       1.4466855e-06 2.4947115e-06 4.646066e-06 1.0535735e-05
000350 08 7b d8 37 11 54 98 38 d5 29 3d 39 62 35 cd 39
       2.5806497e-05 7.2635834e-05 0.00018040028 0.0003914042
000360 a3 14 71 38 1c 42 f1 37 59 f8 33 38 70 91 14 38
       5.7478097e-05 2.8760223e-05 4.2908217e-05 3.54214e-05
000370 c9 3a aa 37 45 31 f3 37 54 c5 48 37 58 95 f3 37
       2.0292953e-05 2.89908e-05 1.1966873e-05 2.9037401e-05
000380 f9 e3 04 38 25 16 88 37 1f 30 5b 37 d9 cf c4 37
       3.168357e-05 1.6222775e-05 1.3064621e-05 2.3461807e-05
000390 6b 77 ad 37 59 85 d7 37 52 81 87 37 e5 38 f6 37
       2.0678815e-05 2.5692092e-05 1.6153474e-05 2.9351979e-05
0003a0 38 8b e3 37 f2 18 e1 35 1d 51 a5 37 4f dc 73 38
       2.7125338e-05 1.6771066e-06 1.9707304e-05 5.8140893e-05
0003b0 2b 1a f8 37 77 97 a0 37 86 16 a1 37 0f 8a 1d 37
       2.957609e-05 1.9144018e-05 1.9203184e-05 9.3900735e-06
0003c0 b4 9c 2d 38 9d e8 14 38 b7 f2 15 37 0d be 27 37
       4.1392355e-05 3.5502588e-05 8.9376035e-06 9.998225e-06
0003d0 17 63 ad 37 9a 8d 68 37 72 59 b3 37 39 b5 57 37
       2.066935e-05 1.3861247e-05 2.1380114e-05 1.2857193e-05
0003e0 6c ce 8d 37 f5 28 55 37 5f 0e 35 35 c8 09 4c 35
       1.6904633e-05 1.2705325e-05 6.7448667e-07 7.6010156e-07
0003f0 74 92 67 35 f5 e1 81 35 e8 0f 90 35 c8 ce a5 35
       8.6267323e-07 9.677011e-07 1.0733465e-06 1.2353639e-06

exp_avg f4 [128]
000000 9f a0 c7 ba e5 23 8f 39 db a2 4a bb 37 68 c6 3a
       -0.0015230364 0.0002730183 -0.0030919823 0.001513726
000010 8b be d0 b8 b2 b3 bf b9 27 9f 1f 3b cf 22 22 ba
       -9.953704e-05 -0.00036564242 0.0024356337 -0.00061849965
000020 c4 82 e8 b7 02 02 6d 3b 36 a4 02 3a 3b 42 4b 3b
       -2.7717448e-05 0.0036164527 0.0004983576 0.0031014818
000030 89 19 89 3a fd 2c bb bb 9b 18 37 b7 ed 95 a4 b9
       0.001045988 -0.00571215 -1.0913379e-05 -0.0003139222
000040 2c 1d 84 ba 54 fe 55 bb 87 a2 85 ba f2 56 bd 3b
       -0.0010079495 -0.0032652812 -0.0010195532 0.005778187
000050 f8 9b 10 3b 35 24 68 bb 82 77 40 3b 0d c5 b4 bb
       0.002206562 -0.0035421972 0.0029368107 -0.0055166543
000060 67 04 b1 3a e6 dc 46 3a 23 e2 aa 3b 75 9d 36 3a
       0.001350534 0.0007586017 0.005214946 0.0006966212
000070 7b ce 78 3a 61 b1 98 3a 55 ed 82 bb c9 62 7f ba
       0.0009491217 0.0011649543 -0.0039955773 -0.0009742198
000080 1d 85 b8 3a c3 be f5 39 00 86 09 ba 55 ab 70 3b
       0.0014077757 0.0004687217 -0.0005246103 0.0036723216
000090 98 2a 94 3b ed 15 4f 3b 8a 42 0f 3b 79 65 3c 3a
       0.004521679 0.0031598762 0.0021859729 0.00071867515
0000a0 92 c0 0f 3b 0c 8c 8a 3b be da b6 bb 5e 32 6c ba
       0.002193485 0.0042281207 -0.0055802753 -0.0009010191
0000b0 60 0c f4 3a fd ef 68 3a c7 35 de ba d2 6f 22 3b
       0.0018619411 0.00088858587 -0.0016953283 0.0024785888
0000c0 a7 13 14 39 4a fd 84 38 81 eb 05 bc 00 cb 84 3b
       0.00014121701 6.341429e-05 -0.008173824 0.00405252
0000d0 66 1f 1e bb 95 57 92 3b 82 42 a2 bb 17 3c dd 3a
       -0.0024127602 0.004466007 -0.004951776 0.001687887
0000e0 cd 95 14 bb 34 7e 02 3b 70 28 15 3a d5 5c f8 38
       -0.0022672296 0.0019911649 0.00056899246 0.00011842853
0000f0 ad 3f f9 3a 3a c1 ae ba c8 d3 c6 ba d7 4e bb bb
       0.0019016169 -0.0013332732 -0.0015169317 -0.0057161856
000100 d7 5e a4 b9 11 d3 aa 3a fc 70 00 3b 56 a8 96 bb
       -0.0003135118 0.0013032873 0.0019598594 -0.004597704
000110 06 15 3d bb 4a bb 62 b8 96 0c d0 3b a2 82 67 b9
       -0.0028851642 -5.4057025e-05 0.0063491566 -0.00022078541
000120 87 ae 18 38 b9 95 11 bc 8e b3 50 38 05 0c 2c bb
       3.6402165e-05 -0.008885794 4.9758288e-05 -0.0026252281
000130 e4 1c bb b9 bb 8b 36 3a ae c9 67 bb 03 aa 04 3b
       -0.00035688945 0.00069635705 -0.0035368013 0.0020242936
000140 5a 63 aa bb ec e6 f4 b9 6a 91 ba bb 28 45 a1 39
       -0.005199832 -0.00046711357 -0.0056936042 0.00030759838
000150 f4 a7 8f 35 e1 02 1f bb 88 bb 1a bb c7 1d 46 ba
       1.0703211e-06 -0.002426319 -0.0023610312 -0.0007557538
000160 08 54 08 b9 cf a5 ae bb fa db 45 3b 61 a2 fe b8
       -0.00013001275 -0.0053298245 0.003019093 -0.00012141909
000170 fd 8f 31 bb 75 12 81 ba a6 ee 94 3b 13 6a 88 3b
       -0.002709388 -0.000984742 0.0045450507 0.0041630357
000180 30 94 f9 b9 12 a7 72 ba 91 3d 3b 39 08 3f ce 3b
       -0.0004760339 -0.0009256463 0.00017856645 0.006294135
000190 4e 66 26 bb 55 78 c3 38 d0 22 1c bb ac 97 24 bb
       -0.0025390568 9.320738e-05 -0.002382446 -0.0025114818
0001a0 1a 44 08 bb 3a 43 c0 b9 8a a5 47 3b 95 f7 28 39
       -0.0020792545 -0.0003667118 0.003046366 0.0001611396
0001b0 85 1e 0e bb db 36 94 ba 25 8d 1a 3b c8 aa 3d bb
       -0.0021685672 -0.0011307852 0.0023582664 -0.0028940905
0001c0 6c 69 b7 39 1a 8e 31 3b 1e ef 12 bc ac 13 f3 b9
       0.00034983025 0.0027092756 -0.008968143 -0.00046363228
0001d0 7a 87 28 ba 31 a4 30 b9 c6 44 75 b8 52 4e 80 3b
       -0.0006428879 -0.00016845834 -5.8476602e-05 0.0039155865
0001e0 1d 17 e3 39 8e 27 32 bb 09 42 92 3a bd c8 67 bb
       0.00043314035 -0.002718422 0.0011158596 -0.0035367452
0001f0 83 bb 6c 3b 76 61 08 bc 0c f2 e7 ba b9 77 8e 3b
       0.0036122508 -0.008324018 -0.0017696037 0.004347768

exp_avg_sq f4 [128]
000000 76 7c 17 38 35 47 15 37 ef 28 2d 39 26 ce 0b 37
       3.611712e-05 8.897671e-06 0.00016513815 8.333043e-06
000010 a4 be 40 36 2f 7e c3 37 9c da 1d 39 38 91 b5 37
       2.8721197e-06 2.330457e-05 0.00015054125 2.1644504e-05
000020 9e 8e b9 36 e9 a8 c6 38 4a 49 58 36 d3 37 c0 38
       5.5300325e-06 9.472838e-05 3.2229168e-06 9.1656715e-05
000030 a2 8b 98 36 68 aa e9 39 27 14 94 37 22 ba 53 38
       4.5462084e-06 0.00044568186 1.7652359e-05 5.047967e-05
000040 8f a2 e1 37 16 e0 5b 39 85 48 d7 37 32 38 eb 39
       2.6897787e-05 0.00020968946 2.5663767e-05 0.00044864562
000050 f1 ef ed 38 e5 b7 08 39 b9 0a 47 39 7c 4d 32 3a
       0.00011345733 0.00013038477 0.00018982113 0.0006801707
000060 73 89 8f 37 f2 43 4d 37 55 1b 34 39 01 cf 2a 37
       1.7110933e-05 1.2234772e-05 0.0001717632 1.01809865e-05
000070 21 da ee 36 04 5f 97 37 c2 1c 84 39 af 7f 73 38
       7.1183463e-06 1.8044848e-05 0.00025198428 5.805463e-05
000080 b9 aa dd 37 fb 7c 18 37 20 91 5a 36 91 e7 4d 39
       2.6424752e-05 9.089005e-06 3.2569005e-06 0.00019636589
000090 4d 2e 9f 39 34 4d ac 38 db 4f ff 37 f8 37 01 36
       0.0003036134 8.215979e-05 3.0435554e-05 1.9255076e-06
0000a0 ec 34 3a 38 56 16 6c 39 f1 f6 2e 3a 5d 2c 22 38
       4.4395143e-05 0.00022515035 0.00066743704 3.8665126e-05
0000b0 e2 ec e1 37 74 c0 a9 37 96 4a 51 39 15 2e c6 37
       2.6932397e-05 2.0235988e-05 0.00019959579 2.3624898e-05
0000c0 82 b9 43 37 62 cd f3 34 86 dd f1 39 8c b6 e2 38
       1.1666098e-05 4.5411713e-07 0.0004613215 0.00010810522
0000d0 74 3c ac 38 98 8c 4e 39 05 aa cd 39 0d f8 5f 37
       8.2128594e-05 0.00019698066 0.0003922732 1.334959e-05
0000e0 fd cd a5 38 17 e4 80 38 65 8b ff 37 a1 e0 18 36
       7.9061814e-05 6.146001e-05 3.046328e-05 2.2780516e-06
0000f0 3d 41 ca 39 22 d9 22 39 76 ed a4 38 b7 2f 50 39
       0.0003857705 0.00015530412 7.86436e-05 0.00019854201
000100 6b 9b 99 36 c8 e3 06 37 44 a6 1d 38 3e 4b 96 39
       4.5778484e-06 8.040057e-06 3.7586564e-05 0.0002866629
000110 15 82 e1 38 e1 01 c9 37 33 73 ec 39 e0 64 11 38
       0.00010753066 2.3961942e-05 0.00045099258 3.466464e-05
000120 a1 71 f1 36 f6 2b d5 39 13 26 d0 37 3c c9 be 38
       7.195588e-06 0.0004065928 2.4813262e-05 9.097389e-05
000130 bc c0 cb 35 1c 53 23 37 ac af 14 39 1a 07 73 37
       1.5180772e-06 9.7349075e-06 0.00014179823 1.4485582e-05
000140 bb 08 81 39 46 43 65 39 ab 83 05 3a b1 b4 d3 36
       0.00024611302 0.00021864203 0.00050931674 6.3093253e-06
000150 1c fa a2 37 f1 0b 89 38 57 24 ae 38 dd 21 ab 37
       1.9428371e-05 6.534893e-05 8.3037354e-05 2.0400557e-05
000160 49 cf 8f 37 7a 96 91 39 82 8f c0 37 27 96 00 38
       1.7143453e-05 0.0002776867 2.295501e-05 3.065742e-05
000170 e6 55 79 39 3a ff 1d 38 08 95 e7 39 97 41 93 38
       0.0002377849 3.7669415e-05 0.0004417079 7.021723e-05
000180 69 04 e3 36 89 44 b9 38 42 ee 0e 37 61 f9 1b 3a
       6.7656406e-06 8.834253e-05 8.519333e-06 0.0005949941
000190 62 83 30 38 1a 2d 6c 36 39 da 9d 38 fd db cb 38
       4.208403e-05 3.5192993e-06 7.5269905e-05 9.72077e-05
0001a0 66 6b 5e 39 4b 40 a9 37 9d d5 83 38 be 22 69 38
       0.00021211579 2.0176309e-05 6.286355e-05 5.5583885e-05
0001b0 ee 25 e4 38 1b ba 63 37 31 06 0c 38 3e 33 9e 38
       0.00010878952 1.3573585e-05 3.3384367e-05 7.543572e-05
0001c0 e0 b2 42 38 0f 83 ae 38 f6 7f 0c 3a 55 36 10 39
       4.6419795e-05 8.321378e-05 0.0005359644 0.0001375315
0001d0 43 18 bf 37 98 21 98 38 52 ca 1f 36 d1 48 c8 39
       2.2780272e-05 7.254182e-05 2.3810612e-06 0.00038201225
0001e0 7e 5f 81 37 17 19 90 38 3c d4 19 37 3f 91 0e 3a
       1.5422465e-05 6.8711284e-05 9.168925e-06 0.00054385135
0001f0 8d 9d 48 39 30 ee c2 3a 4e e4 3a 39 41 22 ab 39
       0.00019132179 0.0014872011 0.00017823392 0.00032641183
