models/DPG_Fed_AggPer_100.pth (torch, 65067 bytes, 6 tensors)

weight f4 [128, 50]
000000 c1 15 53 3b 73 2b 83 3c b1 e8 38 3d b8 03 08 3d
       0.0032209011 0.01601193 0.045143787 0.03320667
000010 f6 c3 0d 3d 78 bd 75 3d a4 af 39 3d 28 0d 3c 3c
       0.03461071 0.059995145 0.04533352 0.011477746
000020 6a 95 39 3d 4e 9b 2a 3d 9a 4e 5f 3d 13 0a 8e 3d
       0.045308508 0.041652016 0.05451832 0.06935515
000030 fc 6f 09 3d b4 45 83 3d bc 12 b2 3d 86 2f 34 3d
       0.033554062 0.06409779 0.086949795 0.043990634
000040 8a f7 7f 3a 38 16 d1 ba fe 28 04 3b 61 e4 6c 3c
       0.0009764364 -0.0015952056 0.0020166035 0.014458747
000050 f8 e4 61 3c 36 0e e6 3c ed b3 80 ba d7 01 b1 3c
       0.013787501 0.028082948 -0.0009819247 0.021607323
000060 6e 69 e2 ba ca 0a b0 3c 12 c0 aa bc d3 16 9f 3c
       -0.0017273852 0.02148952 -0.02084354 0.019420063
000070 21 b2 0b 3d 31 08 78 3c 1f 5a 58 3d a4 ed 70 3d
       0.034105424 0.015138672 0.05282032 0.05882038
000080 86 cf c8 3d 01 2f de bd 64 63 6b bb 98 48 2b 3c
       0.09805207 -0.10848809 -0.0035917396 0.010454319
000090 ed 8a 85 3c a6 98 09 3d 73 30 86 3c 7f e6 31 3c
       0.016301597 0.033592843 0.016380524 0.010858177
0000a0 22 1f 0b 3d 40 f7 72 3c ef a5 8a bc 4e 97 7b 3c
       0.033965237 0.014829457 -0.016924826 0.015355898
0000b0 00 9e 15 3d 1a 82 80 bc 4a cd a0 ba 54 a4 0c bc
       0.036527634 -0.015687037 -0.0012268212 -0.008584101
0000c0 52 00 2d 3d 26 2c 24 3d 1a 08 45 bb cf 2f fd bc
       0.042236634 0.040081166 -0.0030064643 -0.030906586
0000d0 9f f2 fb 3c e3 38 99 bc 8f 0d d3 bc 40 60 f3 bc
       0.03075534 -0.018703884 -0.025763301 -0.029708982
0000e0 f1 ec 03 bd 46 a0 27 bd 1a 4f f2 bc e4 91 f1 bc
       -0.032208387 -0.040924333 -0.029578734 -0.029488511
0000f0 46 f0 38 bb 49 34 43 bd ef 49 f9 bb 89 83 16 bd
       -0.0028219386 -0.047657285 -0.0076076905 -0.036746535
000100 f7 fd 41 bc f3 60 3d 3b d7 16 e4 3c 44 1e f4 3c
       -0.011840335 0.0028896898 0.027842922 0.029799588
000110 ba 0d c6 3a ce 86 bb 3c 6a 6a 29 3b 9d 82 33 3c
       0.0015110292 0.022891428 0.0025850781 0.010956434
000120 55 54 93 3b 7b 8d af 3c ac 64 08 3d 43 51 4e 3c
       0.004496137 0.021429768 0.033299133 0.0125926165
000130 bb a3 06 3d e1 79 94 3c f8 39 2c 3c 5d 29 10 3d
       0.03287099 0.018124523 0.010511868 0.035195697
000140 0e 68 84 3a 71 96 23 3c 76 57 d2 bc 69 4b 13 3e
       0.0010101811 0.0099845985 -0.02567647 0.14384235
000150 df 63 cc 3c 43 b5 17 3c 06 68 af 3c d2 3f 39 3d
       0.024949966 0.009259525 0.021411907 0.04522688
000160 a9 12 97 3c df f4 18 bc b8 67 97 3a 54 0f dd bc
       0.018441515 -0.009335726 0.0011551296 -0.026984848
000170 f8 96 53 3d 2e 83 d1 3b dc 0d 53 3c 0e 81 ba 3b
       0.051657647 0.0063938117 0.012881722 0.005691654
000180 be 58 21 3b 6a 9f 98 3c 58 7a af bc 8a 7a 07 bd
       0.0024619545 0.018630702 -0.021420643 -0.033075847
000190 98 00 5a 3c 98 24 00 3b cd fc b1 3c f4 cc 18 3d
       0.013305806 0.0019553062 0.02172699 0.037304834
0001a0 25 f4 f2 3b ec e2 f1 3c 76 da 26 3c 4d 8f cb 3c
       0.007414358 0.02952715 0.010183921 0.024848605
0001b0 5c 74 a9 3c b6 81 1e 3d 1f d2 35 3d d8 35 48 3d
       0.020685367 0.03869792 0.04438984 0.048879474
0001c0 e5 ec 81 3d e4 22 6f 3d 69 94 a1 3c e3 9d e2 3c
       0.06344012 0.058382884 0.019724088 0.027663177
0001d0 39 bb 8d bc ca e9 95 3c ad b0 2b 3c 8a ed fd 3c
       -0.017301189 0.018299956 0.0104791345 0.030997057
0001e0 8f 97 30 3d 8f 48 a9 3c e5 ee cf 3c 83 2d c0 3c
       0.043113288 0.020664481 0.025382468 0.023459202
0001f0 da 29 7e bb c3 88 08 3d f2 c4 f0 3b 61 86 75 3c
       -0.003878227 0.03333355 0.0073476965 0.014985652
000200 bd 34 2e 3d 43 3b bd 3b 78 7a 71 3d ee bc 30 3d
       0.042530764 0.005774887 0.058954686 0.043148927
000210 80 01 cf 3c f4 9b 07 be 04 3d 8f 3c da 34 9f 3c
       0.02526927 -0.13243085 0.01748515 0.019434381
000220 7d 86 ad 3c c5 09 3e 3c a3 98 bc bc dc 0b 2c 3c
       0.021182293 0.011599009 -0.023022002 0.010500874
000230 1e 15 10 bc 4f 12 7f 3c 5c ae 3d 3c 86 f4 22 3b
       -0.008794097 0.01556833 0.011577215 0.0024864986
000240 d7 83 d4 3c 98 9f 5b 3c 89 41 1c bb 0f 37 00 3c
       0.025941772 0.013404749 -0.0023842773 0.007825627
000250 ba 44 17 3d d4 93 0f 3d 94 b2 6a 3c 4a b4 3f 3c
       0.036930777 0.03505309 0.014324803 0.011700699
000260 0e 1f d0 3b 48 49 a6 bc f6 34 94 bc 32 53 49 bc
       0.0063513583 -0.020298615 -0.01809166 -0.012287902
000270 e3 0c 0a bd ad 18 40 bc fa 9c 0b bc 2a 46 92 bc
       -0.033703696 -0.011724633 -0.008521313 -0.017855722
000280 f7 60 18 bd f2 19 e1 bb ec 22 2d bc fb 1f b3 bc
       -0.037201848 -0.006869548 -0.010567408 -0.021865835
000290 c3 ad 2d bd 48 0b 0a bc 69 f6 48 3d 7d 08 e6 3c
       -0.04240204 -0.008425541 0.04906312 0.02808022
0002a0 8f 4d 1a 3d b4 f6 02 3d 39 c3 11 3d 3b cf 62 3b
       0.037671622 0.031973556 0.03558657 0.0034608382
0002b0 26 be 1f 3d 93 44 4f bb b3 44 69 3c f1 ec 99 ba
       0.0389997 -0.0031626567 0.014237571 -0.0011743588
0002c0 a2 99 06 3d 6c 17 39 3d b4 90 3e 3d 13 5d 10 3c
       0.03286136 0.045188352 0.04652472 0.008811253
0002d0 cc d5 51 3c 17 a7 a7 3c 73 18 74 bc 0f 51 13 3e
       0.012807321 0.020465417 -0.014898407 0.1438639
0002e0 b1 1a 34 3d cf 67 c2 3b a4 bf b6 3c e4 a8 e0 3b
       0.043970767 0.005932785 0.022308178 0.006856071
0002f0 58 a2 50 3c 6e 56 0d 3c ee 20 b1 bb 88 da 1e 3d
       0.012734018 0.0086265635 -0.005405537 0.038782626
000300 4f 36 f4 3c d2 a9 4b bc 74 4f 27 3d 01 6f a5 3c
       0.029811053 -0.012430625 0.040847257 0.020194532
000310 17 75 1d 3c 2a fb 2b 3d 2c c9 3a bc cd 07 26 bd
       0.009610436 0.041987576 -0.011400502 -0.040534783
000320 0f 8b 06 3c be bb 8f bc 26 a5 04 bc da 75 75 3b
       0.008211865 -0.017545577 -0.008096015 0.0037454278
000330 6c 6a 9b bc 73 55 d8 bb 34 ec 08 3b 83 d1 bb ba
       -0.018971644 -0.006601983 0.002089274 -0.0014329407
000340 45 53 0b bc d8 79 1b 3c 8c 0a ae 3b f8 08 03 3d
       -0.00850374 0.009489499 0.005311316 0.031990975
000350 13 f6 94 3b f3 88 1f bc 3c 46 da 3c c8 5d e6 3b
       0.004545936 -0.009737241 0.026644818 0.0070302226
000360 61 b4 c0 bb 72 33 ba bb 21 f4 19 bc 88 2a 89 3c
       -0.005880878 -0.0056824023 -0.009396584 0.016743913
000370 91 69 ed 3c 98 a0 94 3c b8 d1 1a 3a 26 50 01 3d
       0.028981002 0.018142983 0.00059058843 0.031570576
000380 6f d4 71 3c 13 91 63 bc f6 f6 5f 3c 6e 3c e4 3b
       0.014760121 -0.013889569 0.01366972 0.0069652116
000390 58 8e 99 3c 37 3f ca bc 69 a5 b6 3c e7 4d 84 bc
       0.018744633 -0.024688346 0.02229567 -0.016150428
0003a0 d6 41 ce 3c f6 56 21 3d 9c 5f 24 bd 20 9b 00 bc
       0.025177877 0.039389573 -0.040130243 -0.007849485
0003b0 61 ac bc 3b 76 9f e2 3a 08 44 9f 3c e0 0b 5b 3c
       0.005757854 0.0017289955 0.01944162 0.01336953
0003c0 4a 72 e1 3a 61 ec b5 3c 4a d6 ab 3a 3b a3 5c ba
       0.0017200198 0.02220744 0.0013110128 -0.0008416657
0003d0 64 f1 ab bb fc 75 96 bc 40 98 07 3d fe 65 02 3a
       -0.005247282 -0.018366806 0.03310418 0.00049743045
0003e0 68 4d 3d 3a 9c 0a 08 3d a9 1c b1 bb 60 81 cc bc
       0.0007221312 0.033213243 -0.005405028 -0.024964035
0003f0 ac f4 db bc b8 cf 9e bb ed 41 f4 bc 24 cb c9 bc
       -0.026850067 -0.0048465393 -0.029816592 -0.024632998

bias f4 [128]
000000 92 ea d3 bc ee c6 73 3d c3 61 05 3d b2 4c 97 3d
       -0.025868688 0.059515886 0.032563936 0.07387675
000010 dc 67 16 bc 73 64 85 3d f7 85 f9 3c 7b da 75 3d
       -0.009180035 0.065133 0.030459387 0.060022812
000020 76 bf 32 3d 86 dc 81 bc d1 c1 5f 3d a0 b3 85 3d
       0.043639623 -0.015852224 0.054628197 0.065284014
000030 87 70 13 3d 4d 1e 25 3b bf c9 ed 3d 5f 92 83 3d
       0.035995986 0.0025195063 0.11610746 0.064244024
000040 54 6d 41 3d 31 8d 7d 3d b8 f7 b0 3d c6 29 8b 3d
       0.047223404 0.06190223 0.086409986 0.06795077
000050 26 8b f1 bc a5 37 93 3d d2 0e b9 3d 31 09 90 3d
       -0.029485296 0.07188348 0.0903603 0.07033003
000060 9b ec 9e 3c 97 75 9c 3d 29 bc d8 bb f8 d3 ff bc
       0.019399932 0.07639616 -0.0066142273 -0.031229004
000070 71 53 0a bc e1 c0 e8 3c 0c 0a c4 3c bc 74 7e 3d
       -0.008442746 0.028412284 0.023930572 0.062123045
000080 0d e4 a5 3d 2f cf 0a 3c da e0 47 bc d0 b7 02 3d
       0.08100138 0.008472248 -0.012199605 0.03191358
000090 cc 19 d0 3c 88 d9 c0 3d 23 c9 af 3d ad 09 29 3d
       0.025402926 0.09416491 0.08583286 0.041268993
0000a0 02 9d 0f 3c 7a d9 b0 3d d4 7f 59 3d ea 52 65 3d
       0.008765461 0.0863523 0.053100422 0.055987276
0000b0 54 f8 a2 3d 29 80 87 3d f6 8b 70 3d b8 d6 6a 3d
       0.07957521 0.066162415 0.058727227 0.057333678
0000c0 98 d6 0e 3d 9f d4 85 3d 92 a8 c6 3d d2 c2 f0 bc
       0.03487262 0.06534695 0.09700121 -0.029389773
0000d0 12 51 dc 3d 25 44 af bc 6c 57 a4 3d 3b 25 1e bd
       0.107576504 -0.021394799 0.08024487 -0.038609724
0000e0 0f 6d 2b 3d a1 54 dc 3c da a1 e7 b9 a4 e5 b7 3d
       0.041852053 0.026895823 -0.00044180342 0.08979347
0000f0 5c 20 50 3d 51 9e 87 3d 65 ef 9e 3c 8d 18 01 3e
       0.05081211 0.06621993 0.019401262 0.12607022
000100 33 0c c2 3c 98 15 c0 3b 31 39 a6 3d 48 e6 ab 3d
       0.023687458 0.005861949 0.08116377 0.08393532
000110 5c b8 42 3d 84 a3 e3 bc 38 60 4f 3d ee 81 53 3d
       0.0475391 -0.027787931 0.05062887 0.051637582
000120 43 9c 41 3d c3 3b a6 3d b2 e1 01 bc 94 e4 5e 3d
       0.047268163 0.081168674 -0.007927345 0.054417208
000130 e3 6a b2 3c 44 1f 4d bc e9 4d e0 3d 8b 39 93 bc
       0.021779483 -0.012519661 0.1095236 -0.017971775
000140 6c aa a8 3d 3a fa 99 3c 73 0b 01 3c 94 81 84 3d
       0.082356304 0.018796075 0.007876265 0.064700276
000150 b6 f4 5b 3d b8 6e ce bc 76 a8 42 bc 31 a9 c6 3d
       0.05370017 -0.02519928 -0.0118809845 0.097002394
000160 df c4 16 3d 6c 9c 76 3d 00 3c 40 3c 72 7a 99 bc
       0.036808845 0.06020777 0.011733055 -0.018735144
000170 fb 08 47 3c 7d 42 ef 3d 58 50 8c 3d 93 51 df 3d
       0.012148137 0.116826035 0.06851262 0.10904231
000180 2c 03 b8 3c 74 9f 96 3c 1b 22 9b 3d 73 39 cf 3c
       0.02246245 0.01838658 0.075748645 0.025295949
000190 5e bb 8e 3d 83 75 d9 3d 6c 71 6d 3d 66 ad a1 bc
       0.06969331 0.10618117 0.057969496 -0.019736003
0001a0 51 ea 87 bb d6 d2 49 3b 40 1a 52 bc d2 e6 ad 3d
       -0.0041478057 0.0030795834 -0.012823641 0.08491291
0001b0 1b a0 bf 3c 08 d3 44 bb 4e a0 06 bc a3 b8 0c 3d
       0.023391774 -0.003003301 -0.008216931 0.03435577
0001c0 cc bc f7 bc cf 19 6b bc 44 28 90 3d 45 4c b9 3d
       -0.030241393 -0.014349415 0.0703893 0.090477504
0001d0 17 71 28 3d 60 37 da 3d 65 b2 bf 3d 0a 01 4f 3d
       0.041123476 0.10655093 0.09360198 0.0505381
0001e0 09 9c 53 3d 45 5b ab 3d 1c d4 0b 3d c9 a9 88 3d
       0.05166248 0.08367018 0.03413783 0.06673009
0001f0 9f 63 4b 3d 3b 46 bf bc 74 08 14 3a d7 89 ac 3d
       0.049655553 -0.023348918 0.00056470116 0.08424728

weight f4 [64, 128]
000000 9f 16 aa 3b 83 2d d5 bb 4e 45 32 3a fb db 59 bc
       0.005190685 -0.0065056696 0.00068004883 -0.013297076
000010 a4 aa 2c bb 36 f6 e2 bb e4 12 d4 3a 86 02 56 3b
       -0.0026346827 -0.0069263233 0.0016179946 0.0032655313
000020 5c 1b 80 3b b6 18 b9 3b ee cd 7a bc 20 30 38 bb
       0.0039095115 0.0056486977 -0.0153078865 -0.0028104857
000030 6f a0 b0 3c ca 6f f8 ba 14 42 f9 3b d8 33 d3 bc
       0.021560876 -0.0018954214 0.007606754 -0.025781557
000040 5f d1 7f bc df 63 a2 bb e1 c3 28 bb 4a 71 0e 39
       -0.015613883 -0.004955753 -0.0025751519 0.00013584379
000050 15 dd 04 3c c3 50 85 3a ca 72 f1 bb 23 7e 2e 3c
       0.008109351 0.0010171164 -0.0073684203 0.0106501905
000060 48 7f 0b 3c d3 db 5f bb 71 e5 a0 3a 3b 33 a0 3b
       0.008514233 -0.0034158125 0.001227541 0.0048889196
000070 53 44 20 bc 45 13 67 bb dd 7e a4 3b c3 b5 ff bb
       -0.009781915 -0.0035259288 0.005020006 -0.00780365
000080 b7 61 a0 bc 2c 0a 09 ba 8c 0f ad 3c 5a 37 7c ba
       -0.019577844 -0.0005227651 0.021125577 -0.0009621285
000090 c8 80 16 bc e9 0e b2 3b d3 3c 87 bb f8 56 4d bc
       -0.009185977 0.0054339063 -0.004127124 -0.012532942
0000a0 dd 26 82 ba 43 55 57 bc 0c 28 de 3b 60 e8 83 bc
       -0.0009929795 -0.013142887 0.0067796763 -0.016102016
0000b0 c0 b8 0d 3c 00 95 54 3b df 6d 05 3c fa 15 a3 3b
       0.008650005 0.0032437444 0.008143871 0.004976985
0000c0 16 27 65 bc ef 89 66 bb 06 bd 6d bb 85 b6 9d bc
       -0.01398637 -0.003517743 -0.0036275997 -0.019252071
0000d0 bc 13 ca ba 31 85 84 bb 7d e1 9f bb 6f f4 1b 3c
       -0.0015417258 -0.004044198 -0.004879175 0.009518727
0000e0 9d 2e 83 3c 66 c2 9a bc a5 39 a6 3b f8 b2 2e bc
       0.016013438 -0.018891525 0.0050727897 -0.010662787
0000f0 69 a2 5e bc 32 c5 52 3c 7a 3d e8 3b b4 e1 c3 bb
       -0.013588526 0.012864398 0.0070874067 -0.0059778336
000100 26 74 2d bc 1b 4c b5 bc 31 92 60 bc a1 60 8d bc
       -0.010586774 -0.022131016 -0.01370673 -0.01725799
000110 c5 a5 85 3c 3a 0a 75 bc 7c 52 db 3a d0 f5 9b bc
       0.016314397 -0.0149560515 0.0016732956 -0.019038111
000120 ef 44 24 3c 43 05 54 bc 11 06 43 bb c3 3c c0 ba
       0.010026201 -0.012940708 -0.0029758255 -0.0014666546
000130 af c2 9a 3c 17 9c 38 bb fb 84 b4 bb e3 55 71 bb
       0.01889166 -0.0028169209 -0.0055090166 -0.0036824874
000140 97 5e e6 bc 40 46 64 ba 61 28 99 3b 98 d4 95 bc
       -0.028121276 -0.0008707978 0.004674003 -0.01828985
000150 2e 18 bf b9 63 1d ba bb ca a2 ba 3b e9 8a a3 39
       -0.00036448374 -0.0056797727 0.0056956755 0.0003119328
000160 bc da 92 3b 53 9a 82 bc 00 1a 3b bb 4e 91 99 bb
       0.0044816416 -0.015942728 -0.0028549433 -0.004686511
000170 da b6 64 bc f2 3a 70 3c 52 d7 84 3b 85 17 64 bc
       -0.013959611 0.014662491 0.0040539885 -0.013921623
000180 e9 ca 36 3b 7b d6 be ba 25 57 6b 3a ae 8c 65 3c
       0.002789194 -0.001455977 0.0008977524 0.014010591
000190 a0 e9 83 bb 5d 8a 9a 3c 60 a2 0e 3a 46 4a 81 bc
       -0.004025653 0.018864805 0.0005441066 -0.015782487
0001a0 6b 03 08 3c 5a 92 aa bb ec 09 68 b9 36 53 78 3b
       0.008301596 -0.0052054347 -0.0002212894 0.0037891394
0001b0 28 b3 d4 bb f2 c4 ac 3b 38 20 c2 3b d6 a6 18 bc
       -0.0064910837 0.005272501 0.005924251 -0.009317121
0001c0 3b cb 98 bc 9d 26 b8 3a fb cb 21 3c 85 79 33 3c
       -0.018651595 0.0014049594 0.009875293 0.0109542655
0001d0 fa ca d4 bc 1a a3 9b bc 64 a2 1d bc a2 db 19 bc
       -0.025975693 -0.018998671 -0.0096212365 -0.009390743
0001e0 84 cf 1f bc 1d 7a ec bb 1c 6b 4c 3c a1 3d 14 ba
       -0.009754065 -0.0072167055 0.012476709 -0.00056549354
0001f0 d7 9a 2e 3c 23 cc 92 3b 37 e6 10 bc 4b 46 22 bb
       0.010657034 0.0044799014 -0.00884395 -0.0024761136
000200 86 58 13 3d fa 10 c7 bc 03 65 cf 3c 44 c7 83 b9
       0.035973094 -0.024300087 0.02531672 -0.00025134732
000210 86 ac 0f 3c 1f 22 6d bb 71 d2 01 bd a0 0c 12 bd
       0.00876916 -0.0036183668 -0.031694833 -0.03565657
000220 26 23 0b 3b c3 c9 22 3d ad 52 e7 39 b1 af 25 bc
       0.0021230667 0.039743196 0.00044121352 -0.010112689
000230 96 06 28 3d 00 30 68 3d b7 7f 3e 3c 7b 6e cc bb
       0.041021906 0.0566864 0.011627129 -0.0062387562
000240 9a 04 81 bb 73 7f 38 3b 44 f7 32 3c e6 b7 cd bc
       -0.003937316 0.0028152138 0.0109232105 -0.025112104
000250 3d 33 54 3d 33 89 f3 37 d7 76 65 3c ab 53 0a 3d
       0.051806677 2.9031746e-05 0.014005384 0.0337712
000260 21 bd b0 3c 1b 65 17 3c d3 4d 1b 3d c1 a1 2b 3d
       0.021574559 0.009240414 0.037916016 0.041902307
000270 c3 17 0e 3d 97 a0 1e 3d 6c 7c 6a bc bb e2 b9 3a
       0.03469063 0.03872737 -0.014311891 0.0014181951
000280 98 91 5e 3c 29 8b 65 3d ee d2 b1 3c 78 46 aa 3b
       0.013584517 0.056040917 0.021707024 0.005196389
000290 7d a7 b3 3c c4 52 67 3a 08 36 44 bb 25 a9 6c bc
       0.02193045 0.0008824284 -0.0029939432 -0.014444624
0002a0 69 73 5e 3d 48 3a 97 3b 00 94 4d 3d 2c ef 3f bb
       0.054309282 0.004615102 0.050189972 -0.0029286845
0002b0 f1 22 86 3c 68 fb 91 b9 b6 6d aa 3b 62 0d 05 3c
       0.016374083 -0.00027843867 0.005201067 0.0081208665
0002c0 56 2f b0 bc b7 18 94 3c ae 49 71 bc 83 5e e6 3c
       -0.021506947 0.018078191 -0.014727039 0.028121239
0002d0 38 4f fe 3b 7d 01 36 3d 40 8c aa bb 0c b8 7d 3d
       0.0077609085 0.044435013 -0.0052047074 0.0619431
0002e0 9f f5 cc 3c b3 51 3d 3d 14 4c 0d 3d 6e a4 ae bb
       0.025019465 0.046220493 0.034496382 -0.00532966
0002f0 bc 30 aa 3c f1 21 dd bc d2 e3 c7 3c 06 3f 1e bc
       0.020775191 -0.026993724 0.024400625 -0.009658581
000300 0a 9d 34 3d 0c 69 1d 3d 1a 69 05 3c ba f3 46 3b
       0.044095077 0.03843026 0.008142734 0.0030357675
000310 9b e5 29 3c 1f d4 61 3d d2 d4 f3 bc 8d cf 30 bd
       0.010369684 0.055133935 -0.029764567 -0.043166686
000320 65 dc 1e 3d ee 55 22 3c a7 3b 1c 3d 1d 18 83 bc
       0.038784403 0.009908183 0.038142826 -0.016002709
000330 60 7b 4c 3d 17 0b 28 3d e6 43 1a 3b d8 19 49 3d
       0.049922347 0.0410262 0.0023539006 0.049096912
000340 d8 84 94 3b 06 e9 4d 3d 6c 1f 39 3d 4e 18 4d bc
       0.004532438 0.050271057 0.04519598 -0.012518002
000350 69 71 50 3c a8 90 0a 3d d7 6f 5b 3d 0f d9 5e 3c
       0.012722352 0.03382936 0.053573456 0.0136015555
000360 9f 6b bb bb 85 cf a7 3c 1c 27 27 3d 32 41 29 3d
       -0.0057196165 0.020484695 0.040808782 0.04132194
000370 7c fb be 3c 80 63 92 3b e6 48 14 bc fc 48 7e bc
       0.023313276 0.0044674277 -0.0090505835 -0.0155203305
000380 e3 b9 ef 3b 43 53 d1 3b 6e 2c 75 3c cd 31 01 3c
       0.0073158606 0.0063880994 0.014964206 0.007885409
000390 92 52 90 bc 01 86 d0 ba 80 d3 e3 3a 4a 90 49 3d
       -0.017617498 -0.0015909077 0.0017381757 0.04920987
0003a0 66 7f 2b 3d 7c 84 06 3d db 06 3c 3d 66 9c 13 3b
       0.041869543 0.03284119 0.045904975 0.002252364
0003b0 3c 69 3c 3d 97 30 5d 3d e8 07 07 3d 31 f7 ff bc
       0.045998797 0.054001417 0.032966524 -0.0312458
0003c0 5c 30 2b 3d 8e 9a 2a 3d 92 35 bd 3c 3c 4f f1 bc
       0.041794166 0.0416513 0.023096833 -0.029456727
0003d0 5a 86 fb bb d5 3d 91 bb 83 e0 86 b9 88 1e ac 3a
       -0.007675928 -0.00443242 -0.00025725746 0.0013131658
0003e0 1c 3e 9d bc d7 5e ad 3c e4 5a ce 3c 6e 45 20 3c
       -0.019194655 0.021163387 0.025189824 0.009782178
0003f0 b6 67 ce bb 03 7a c5 3c 4a 9a c9 3c d2 56 6b bc
       -0.0062989844 0.024106031 0.024609704 -0.014363961

bias f4 [64]
000000 c5 8d a5 bb 1f ed 72 3c ac 85 88 bc 73 8c 2f 3d
       -0.0050523006 0.014827042 -0.016665302 0.042858552
000010 8a e3 f5 3c 01 86 63 3c 89 06 81 3d 0f bd e8 ba
       0.030015726 0.0138869295 0.063000746 -0.0017756539
000020 9a ca bb bc 77 5e 33 3c 2c 5a 44 3d 03 73 41 3b
       -0.022923756 0.010947815 0.047937557 0.0029518015
000030 04 79 0e 3d 01 bd 25 3d 7f 73 86 3c 5f 33 1d 3d
       0.03478338 0.04046345 0.016412495 0.03837907
000040 fd 95 b6 3c 0a 1b ab bb f6 ce f5 3b 65 95 f4 3a
       0.022288317 -0.005221729 0.0075014783 0.0018660246
000050 91 93 5e ba 78 e9 0c 3c 17 8b 28 3d 5c 44 5f 3d
       -0.0008490617 0.008600585 0.04114827 0.054508552
000060 17 f4 84 bb 01 ea 8e 3c 3f c8 1e 3d 61 c8 47 3d
       -0.004057418 0.017445566 0.03876519 0.04877508
000070 b3 13 6e 3c 1f c6 89 bb 9d d4 d7 3c 8f 19 d5 3a
       0.014531064 -0.004204526 0.0263465 0.0016258227
000080 17 cc 39 3d db e5 7f 3d 03 0b 33 3d f8 dd 71 3d
       0.04536065 0.062475067 0.043711673 0.059049577
000090 c9 b4 24 3d 0d 1e 10 3d 14 3b 6d 3d d3 6b a5 3c
       0.040211473 0.03518491 0.05791767 0.020193016
0000a0 24 bb d5 3c 5c 6e d2 3c 41 bc 91 3c aa ab 34 3d
       0.026090212 0.02568739 0.017789962 0.044109024
0000b0 37 70 67 3c 6f ea 4f bc e8 b9 db 3b 91 b6 20 bb
       0.014125875 -0.012690171 0.0067055114 -0.002452288
0000c0 2e f6 64 3d 26 dd 17 bc 08 d4 43 bc 43 d7 59 3d
       0.055898838 -0.0092690345 -0.011952408 0.053183805
0000d0 fd 52 a1 3c e1 98 36 3d 5a 0f f6 3c 0a f1 8e 3c
       0.019692892 0.04457939 0.030036617 0.01744892
0000e0 92 cd 68 bc 23 70 49 3d 12 af 5c 3b 2a 1a be bc
       -0.014209168 0.049179208 0.0033673686 -0.023205835
0000f0 7b 36 57 bb 09 af 3d 3d 6a 7b 9a 3c 05 a3 9d ba
       -0.003283887 0.046309505 0.018857677 -0.0012026733

weight f4 [10, 64]
000000 fd 1b e5 b9 60 2b 5a 3d 0d 06 5b 3d f3 b9 56 bd
       -0.00043699137 0.053264022 0.053472567 -0.05242343
000010 68 48 27 bb 66 f8 78 3d 29 81 28 bd bf 76 b7 3c
       -0.0025525335 0.060783766 -0.0411388 0.02239549
000020 c3 46 a4 bb bc 9b 22 bb 43 6f b5 bc ce 70 4d 3d
       -0.0050133183 -0.0024812063 -0.02214778 0.050156407
000030 5b ac 1c bc 20 b9 06 bd ff ec 28 bc 80 ae 78 bc
       -0.009562577 -0.032891393 -0.0103104105 -0.015178323
000040 66 ba 26 3d c1 5a ea b8 a6 eb 44 3d 74 80 5a 3d
       0.040705107 -0.00011174894 0.048076294 0.05334516
000050 1f 75 a4 3c 5c 04 03 3d 72 96 65 bd c6 7a 0d bd
       0.020075379 0.03198658 -0.05605168 -0.034540914
000060 86 3d 45 3d a1 8a 5b 3d da 79 f9 bc 06 71 f3 bc
       0.048154376 0.053599004 -0.030453611 -0.02971698
000070 6e 74 59 3d 33 33 5e 3d da 22 ef bc 91 97 61 bc
       0.05308955 0.054248046 -0.029191423 -0.013769046
000080 74 76 d7 3a 88 dd 24 bd 12 ee 07 bd da ba b5 bb
       0.00164385 -0.04025033 -0.033186026 -0.005545956
000090 07 ff 85 3b 40 f0 f5 bc f8 7a 53 bd bf d4 3e 3d
       0.0040892395 -0.030021787 -0.051630944 0.04658961
0000a0 72 2f 13 3d 63 de bb 3b cf 19 70 3d 73 9e 38 bd
       0.03593392 0.0057332977 0.058618363 -0.045072984
0000b0 33 40 45 3d 85 70 b6 3b 8d 5a 3a 3d 5d 6e 89 ba
       0.04815693 0.0055676126 0.045496512 -0.0010485161
0000c0 d3 32 55 bd 91 34 45 3c 7d fe 20 3c d4 56 92 bc
       -0.052050423 0.012036459 0.0098263 -0.017863669
0000d0 73 67 9b 3d 56 4f b2 bc 8a ce 6e 3d 28 f2 8f bc
       0.07588091 -0.021766346 0.05830244 -0.017571524
0000e0 ff 7b f9 3b e8 75 2e bd a9 91 61 3d cf 14 87 3c
       0.0076136584 -0.042592913 0.055070553 0.016489414
0000f0 a6 e4 20 3a 5c 68 15 bd 0a 37 50 3d 29 21 4f 3d
       0.0006137587 -0.036476478 0.05083374 0.050568733
000100 a4 16 b1 bb c0 1a f1 bc 1f b7 01 bb 8f 11 e7 bc
       -0.0054043103 -0.0294317 -0.0019792987 -0.028206615
000110 2f 38 14 bd 9b 5e 68 3c 5f f5 3b bd 31 31 37 bc
       -0.036186393 0.014182712 -0.0458883 -0.011181162
000120 2f c8 8e bb 33 ec b7 bc fb 3e 5d bd 2f cb 40 bc
       -0.00435736 -0.022451496 -0.05401514 -0.011767193
000130 48 b0 65 bd 41 18 a3 bc 56 27 26 bc 14 32 08 bc
       -0.056076318 -0.019909026 -0.010141214 -0.008312721
000140 4c fa dd 3b 12 20 fd 3c e6 64 63 3b c3 b5 4f 3c
       0.0067742225 0.030899081 0.0034697591 0.012677613
000150 3b e0 cf bc 04 79 09 bb aa ed 0e bd b1 f5 a9 bc
       -0.025375476 -0.0020976672 -0.034894623 -0.020747038
000160 14 ed 41 3b 71 13 d7 3c 1f f5 b7 bc 3c ff cc bc
       0.0029590772 0.026254388 -0.02245575 -0.025024049
000170 33 3c 6a 3b 3d b2 cc 3c 85 51 51 bd 7d 96 8a 3b
       0.0035741448 0.024987334 -0.051103134 0.0042293654
000180 e9 8f 39 bd 4f ef be bc 00 72 e6 bc b6 20 6f bd
       -0.04530326 -0.02330747 -0.028130531 -0.058380805
000190 26 d2 5b bd 83 9e 53 bd 66 8a 42 bd b4 3f 27 bb
       -0.05366721 -0.05166484 -0.04749527 -0.0025520148
0001a0 c5 b2 c3 bc a8 d1 fd bc 5b 10 25 3c 68 90 8f bc
       -0.023888955 -0.030983761 0.0100747 -0.017524913
0001b0 6f 50 51 3a b6 71 38 bc 85 9b d8 b9 b1 19 a5 bb
       0.0007984703 -0.01125758 -0.00041314602 -0.005038463
0001c0 60 a4 65 bd 60 ff 6c 3c aa 60 92 bc e0 72 5d bd
       -0.056064963 0.014465183 -0.017868359 -0.05406463
0001d0 89 7b 0e bd c0 fd 6a 3b 83 a2 ce b8 88 c8 93 bc
       -0.03478578 0.0035856813 -9.8531156e-05 -0.018039957
0001e0 1f d5 9f bc b3 28 04 bd 80 b2 ad 3b 4a aa 28 bb
       -0.019510804 -0.032265376 0.00530082 -0.0025736266
0001f0 01 51 e2 3b 7b 32 34 bd 76 7c 4f bc 54 10 02 bc
       0.006906629 -0.043993454 -0.012663951 -0.007938463
000200 a4 7a f8 bc 30 5f a1 3b 20 b8 a3 3c 03 ec d6 bc
       -0.030331917 0.0049246773 0.019985259 -0.026235586
000210 e9 bc 51 bd cf 3a 28 3b 7d 4d 6a bd fa 47 20 3c
       -0.05120555 0.0025669818 -0.057202805 0.009782786
000220 5f 84 ce bb ea d4 85 bc 63 8f bb bc 6c 87 7a 3c
       -0.006302401 -0.016336877 -0.02289552 0.015291076
000230 81 8c c8 bc e0 e4 05 bd ef a9 81 bc 44 5e 95 bc
       -0.02448106 -0.032688975 -0.015828101 -0.018233426
000240 ef aa d6 ba 01 6b 19 3c 80 26 98 bb ee 02 ea b9
       -0.0016377846 0.009363891 -0.0046432614 -0.0004463414
000250 fd c2 a5 3b cd fe ab bc 0a c5 54 bc 29 b3 6d bd
       0.005058645 -0.020995522 -0.012986431 -0.05803219
000260 3c a5 d8 3a 04 30 51 3b 94 d6 ec bc b7 18 3f bc
       0.0016528736 0.0031919489 -0.028910913 -0.011663607
000270 ef 0f 5f 3c d2 14 8d bc e8 cc 23 bd 76 8e 63 3a
       0.013614639 -0.017221842 -0.039990336 0.0008680591
000280 b8 75 b8 bc 46 05 0f bd e8 97 31 bd a8 68 d4 bc
       -0.02251707 -0.03491714 -0.04335776 -0.02592881
000290 9d b2 34 bd ff 0d 2f bb da b4 33 bd 71 6d bc 3b
       -0.04411565 -0.0026711223 -0.043873645 0.005750351
0002a0 61 8b b4 3b d4 c1 db bb 83 c3 09 bd 56 93 dc bc
       0.0055097793 -0.0067064557 -0.03363372 -0.026925724
0002b0 53 7f 4f 3c 76 fb a2 bc 31 61 13 3d d1 cd 28 3c
       0.012664634 -0.019895297 0.03598136 0.010302977
0002c0 58 97 1b bd 8f fb 1d 3c fd 81 d1 bb 69 42 df bc
       -0.03798613 0.009642496 -0.0063936696 -0.027253347
0002d0 88 5f 9d bc 74 a7 53 bc 83 07 f3 bc b1 f4 2e bc
       -0.019210592 -0.012918342 -0.029666668 -0.010678456
0002e0 6e 2d fa 3b a1 11 e1 bc 31 da 3d 3c 49 89 02 3d
       0.00763481 -0.027474226 0.011587665 0.031869207
0002f0 45 ab d9 ba 94 32 27 bc 91 73 0b bc ba 1c ef 3b
       -0.0016606828 -0.01020493 -0.00851144 0.0072971256
000300 76 41 81 3b 21 1c d2 3b 26 63 b1 bc b3 66 e1 bc
       0.003944571 0.0064120446 -0.021653723 -0.027514791
000310 d3 76 22 bd cf 55 5d bb ba e3 b9 bc d6 6b 9f 3c
       -0.0396641 -0.003377307 -0.022691596 0.0194606
000320 0f a0 a9 bb f1 37 3b bd 7d 9f 09 bd 25 e6 93 3a
       -0.005176551 -0.045707647 -0.033599366 0.0011283798
000330 20 a3 f6 bc 78 8f 45 bc 4d 0e 61 bc dd 5e 33 bc
       -0.030107081 -0.012058131 -0.01373632 -0.01094791
000340 f2 d2 e8 ba 91 8e c7 ba 18 06 df 3c 0e 22 84 3c
       -0.0017763062 -0.0015224983 0.027224585 0.01612952
000350 d9 3d 8b 3c 29 5a 4d bd 08 5c a8 bc b3 eb 50 bd
       0.016997265 -0.05013481 -0.020551696 -0.05100603
000360 52 df 19 3c 32 3b 61 3c 33 31 eb bc aa dd fa bc
       0.009391623 0.013747023 -0.028709983 -0.030623276
000370 e6 50 8f bc ba 65 5f 3c 18 f3 80 bd 5f bf d1 bc
       -0.01749463 0.013635093 -0.062963665 -0.025603948
000380 29 09 4a bb bd d0 3a bd 78 56 0a bd ed 33 58 bc
       -0.0030828214 -0.045609225 -0.03377387 -0.013195974
000390 23 9f fc bc 0c a4 2e bd 93 fe 01 bd 6c 7c d0 3b
       -0.030837601 -0.042636916 -0.03173692 0.0063624885
0003a0 61 d2 9a bc a3 34 c6 bc 4b d5 8f bb d2 bb 28 bd
       -0.018899145 -0.024195021 -0.00438944 -0.041194744
0003b0 0a 1b 44 3b 47 e8 84 bc f1 be a2 3c 8f a6 7a bc
       0.0029923343 -0.01622404 0.019866439 -0.0152985
0003c0 76 1d 39 bd 3d 97 01 bc dc 5b 4d 3c ec 38 c1 bc
       -0.04519411 -0.007909593 0.012534108 -0.023586713
0003d0 79 ef 22 bc a4 34 e9 bc 6e f7 4d bc ee f3 ae bc
       -0.00994479 -0.028467484 -0.012571199 -0.02135655
0003e0 bf 3a b7 bc 12 74 e4 bc 4c 2b 1c 3c 01 92 1e bc
       -0.02236688 -0.027887378 0.009531807 -0.009678365
0003f0 71 94 d2 3c 7f 20 5c bc 28 b6 1e bd 77 2a b1 bb
       0.025705548 -0.013435482 -0.038747936 -0.0054066735

bias f4 [10]
000000 cf 62 6a 3c 17 97 fc bc 71 30 17 bd 66 b2 ae 3b
       0.014305784 -0.030833764 -0.03691143 0.0053313253
000010 b9 4b 11 3d 18 bd e9 bb 33 4e c5 bb fc e8 11 3d
       0.035472605 -0.0071331374 -0.006021285 0.03562258
000020 d3 77 4d 3c e3 52 5f 3d
       0.012540775 0.054522406
