models/DPG_Fed_AggPer_1000.pth (torch, 65067 bytes, 6 tensors)

weight f4 [128, 50]
0	0x3b5e51a0	0.0033923164
1	0x3c84f3e9	0.016229587
2	0x3d3a0ff8	0.045425385
3	0x3d0a3a9d	0.033747304
4	0x3d12366d	0.035696436
5	0x3d7ad229	0.06123558
6	0x3d3d46ce	0.046210103
7	0x3c567069	0.013088324
8	0x3d405dd8	0.046964496
9	0x3d37271c	0.044715032
10	0x3d6d3c5b	0.057918888
11	0x3d9798ec	0.074022144
12	0x3d1a1e7d	0.037626732
13	0x3d924c6e	0.07143484
14	0x3dbdc1aa	0.09265454
15	0x3d57a573	0.05264802
16	0xbb33204c	-0.0027332483
17	0xbb13ebe2	-0.0022571017
18	0xbb67cc7b	-0.0035369683
19	0x3c4e11c8	0.012577482
20	0x3c6abee1	0.014327736
21	0x3cac7b7d	0.021054978
22	0xbbe31b09	-0.006930713
23	0x3c97b874	0.018520571
24	0x3c0e650c	0.008691084
25	0x3c3768cd	0.01119442
26	0xbcbabfce	-0.022796538
27	0x3c6f918a	0.014622102
28	0x3d11734c	0.035510346
29	0x3c5de89c	0.013544228
30	0x3d1d96c4	0.03847386
31	0x3d59926c	0.053118154
32	0x3dc4ebac	0.09615263
33	0xbded7440	-0.115944386
34	0x3a1f3adb	0.0006074139
35	0x3be7bf6d	0.0070723803
36	0x3c339c48	0.010962553
37	0x3d140e5a	0.0361465
38	0x3c24cbfc	0.010058399
39	0x3c64ca1c	0.013964202
40	0x3ce640bd	0.028107041
41	0x3cdeecbd	0.027212495
42	0xbc3d0fdd	-0.011539427
43	0x3c57e7ae	0.013177795
44	0x3cfb127d	0.030648464
45	0xbc9ab81a	-0.018886615
46	0xbb7d08da	-0.0038610012
47	0xbbf4f852	-0.007475891
48	0x3d0f3a22	0.03496755
49	0x3d0f12a4	0.034929886
50	0xbc016864	-0.007898424
51	0xbd13440a	-0.03595356
52	0x3cc9719b	0.024590304
53	0xbcd32960	-0.025776565
54	0xbd088f14	-0.033339575
55	0xbd2c7dd4	-0.042112187
56	0xbd2fc192	-0.042909212
57	0xbd5c695b	-0.053811412
58	0xbd2fa188	-0.042878658
59	0xbd33c165	-0.043885607
60	0xbc8e2540	-0.017351747
61	0xbd834888	-0.064103186
62	0xbcb0e9e1	-0.021595897
63	0xbd4aeb4f	-0.049540814
64	0xbcce4de8	-0.025183633
65	0xbc5a49fb	-0.013323302
66	0x3d22fb1f	0.03979027
67	0x3d0f15c2	0.03493286
68	0x3c16926b	0.009190182
69	0x3ce30094	0.027710237
70	0x3c1e8df6	0.009677401
71	0x3cb01636	0.021494966
72	0x3c323038	0.010875754
73	0x3ceb8797	0.028751178
74	0x3cf01948	0.02930893
75	0x3cf10686	0.029422056
76	0x3d2261ff	0.039644238
77	0x3cd049dc	0.025425844
78	0x3c03fa4b	0.00805528
79	0x3d2c56a9	0.042074833
80	0x3c53def6	0.012931576
81	0x3c88da4f	0.01670566
82	0xbce6e5e8	-0.0281858
83	0x3e2b368c	0.16720027
84	0x3cc57db2	0.024107788
85	0x3c9b5cd9	0.018965172
86	0x3cd8981f	0.026439724
87	0x3d3ce0e9	0.04611293
88	0x3cd347f1	0.02579114
89	0xbc0d034b	-0.008606742
90	0x3b9b9808	0.004748348
91	0xbd28f8e8	-0.041253
92	0x3d5866b1	0.05283231
93	0x3bf99e85	0.007617774
94	0x3c934dcb	0.01798143
95	0x3b061973	0.0020461946
96	0x3b4cbd1a	0.0031240643
97	0x3c8a196a	0.016857821
98	0xbc7b255a	-0.0153287295
99	0xbd1159d8	-0.035486072
100	0x3be05064	0.006845521
101	0xbba59383	-0.005052985
102	0x3c6bc4cc	0.014390182
103	0x3cf555a9	0.029948073
104	0x388bd348	6.667391e-05
105	0x3ca60c48	0.020269528
106	0xbad20052	-0.0016021824
107	0x3c3dd917	0.011587403
108	0x3bbd2464	0.0057721604
109	0x3cc5199f	0.024060069
110	0x3ce1794f	0.027523665
111	0x3cf76ef6	0.030204277
112	0x3d335fae	0.04379242
113	0x3d2349f5	0.039865453
114	0x3a8537ce	0.0010163726
115	0x3c819b1a	0.015821029
116	0xba851766	-0.0010154068
117	0x3c156ecc	0.009120654
118	0x3ba5231c	0.0050395858
119	0x3d04e2bc	0.032442793
120	0x3d4364e4	0.04770364
121	0x3c3105c5	0.010804598
122	0x3c7bc705	0.015367274
123	0x3c7a40a1	0.015274198
124	0x3beeb3bb	0.007284609
125	0x3cd37845	0.025814185
126	0x3b27d438	0.002560867
127	0x3c0f70c1	0.00875491
128	0x3cfe3c38	0.031034574
129	0xbb1d68f3	-0.0024018853
130	0x3d255e72	0.040373273
131	0x3d1178e9	0.0355157
132	0x3b529faf	0.0032138636
133	0xbd49faf4	-0.049311593
134	0x3cb054a6	0.021524739
135	0x3cab01ee	0.020874944
136	0x3c861c11	0.016370805
137	0x3c966bc2	0.01836193
138	0xbd0b26f9	-0.033972714
139	0x3c0f2a64	0.008738134
140	0xbc6543df	-0.0139932325
141	0x3cbe52ec	0.0232329
142	0x3c4fe3ff	0.012688636
143	0xbbd68ed7	-0.0065477896
144	0x3c94d4b2	0.018167827
145	0x3c7631a6	0.015026486
146	0xbc3497e0	-0.011022538
147	0x3bc3f0e0	0.0059796423
148	0x3d0564c1	0.03256679
149	0x3ca52b92	0.020162378
150	0x3c0db218	0.008648418
151	0x3bbb6393	0.0057186573
152	0xba94f32d	-0.0011363976
153	0xbce4448a	-0.027864713
154	0xbcd86e94	-0.026419915
155	0xbcbf809a	-0.023376752
156	0xbd32db76	-0.043666326
157	0xbcbd4ccf	-0.023107914
158	0xbcaa781b	-0.020809224
159	0xbcf878a9	-0.030330973
160	0xbd4e8b12	-0.050425597
161	0xbcb9d8d2	-0.022686396
162	0xbcb90bd3	-0.022588646
163	0xbd0df3b2	-0.034656234
164	0xbd6839a5	-0.0566956
165	0xbcd78785	-0.026309738
166	0x3d6710bb	0.05641244
167	0x3cd3c13d	0.02584898
168	0x3d15375b	0.036429744
169	0x3d095a09	0.03353313
170	0x3d2f49b6	0.042794906
171	0x3bc9856c	0.0061499383
172	0x3d2b1c76	0.04177519
173	0xbaf45396	-0.0018640633
174	0x3bd1d729	0.006403823
175	0x3b922ca2	0.004460887
176	0x3d1db3ff	0.038501736
177	0x3d317c4a	0.043331422
178	0x3d33c106	0.043885253
179	0x3c277c04	0.010222439
180	0x3c6e0c92	0.014529364
181	0x3ccaeab1	0.024770113
182	0xbc45b681	-0.012067438
183	0x3e26ff37	0.16308294
184	0x3d0f9619	0.035055254
185	0x3c8b50f3	0.017006373
186	0x3cb28a36	0.02179442
187	0x3c4153ee	0.011799796
188	0x3c965ca7	0.018354727
189	0x3c75bc17	0.014998457
190	0x3b322b6a	0.0027186521
191	0x3cfa01a1	0.030518355
192	0x3cd9eb26	0.026601385
193	0xbc1a91ad	-0.009434146
194	0x3d24a984	0.040200725
195	0x3c6e8269	0.014557459
196	0x3c6d6e04	0.014491562
197	0x3d0fab84	0.03507568
198	0xbb3913b6	-0.0028240508
199	0xbd09c37a	-0.033633687
200	0x3c981ac5	0.018567452
201	0xbbc5eb20	-0.006039992
202	0x3b57c6f6	0.0032924986
203	0x3c713d4f	0.01472409
204	0xbc05ce00	-0.00816679
205	0x3ae69be0	0.0017594062
206	0x3c07988e	0.008276118
207	0x3b952a24	0.0045521427
208	0xbb74b117	-0.0037337
209	0x3c753158	0.014965378
210	0x3c1d8dc8	0.009616323
211	0x3d1b2a88	0.037882358
212	0x3c42616f	0.01186405
213	0x3a7dc6b4	0.0009680793
214	0x3d08b1a8	0.03337255
215	0x3c50b3a8	0.012738146
216	0xbc21ddf0	-0.009879574
217	0x3b7673f7	0.0037605742
218	0xbae68b13	-0.0017589055
219	0x3c2759bb	0.0102142645
220	0x3d0fa3fd	0.0350685
221	0x3c9254ff	0.017862795
222	0x3bb22334	0.0054363254
223	0x3cfb10ed	0.03064772
224	0x3ca678d3	0.020321285
225	0xbbc98c03	-0.006150724
226	0x3ce53200	0.027977943
227	0x3b8f035c	0.004364414
228	0x3cf79212	0.030221019
229	0xbcaa6064	-0.020797916
230	0x3cb18cb4	0.021673538
231	0x3b4aaf01	0.0030927064
232	0x3d4e722d	0.050401855
233	0xbd00b76a	-0.031424917
234	0xbd056212	-0.03256423
235	0xbc047e84	-0.008086804
236	0xbb5de5d2	-0.0033858907
237	0x39cc728c	0.00038995256
238	0x3c547fbd	0.012969908
239	0x3ca08ba7	0.019597841
240	0x39f7ab73	0.0004723925
241	0x3cad4594	0.021151341
242	0x3c508dbb	0.012729104
243	0x3b9cc3a5	0.004784065
244	0xbbac59ea	-0.005259742
245	0xbc1a7311	-0.009426848
246	0x3cf71518	0.030161425
247	0x3b09fea3	0.0021056316
248	0x3c126e64	0.008937452
249	0x3d504b45	0.050853033
250	0xbc0c973a	-0.008580977
251	0xbcea672d	-0.028613651
252	0xbcfbc3f6	-0.03073309
253	0xbc0dc520	-0.008652955
254	0xbd0a3ad2	-0.0337475
255	0xbd013900	-0.0315485

bias f4 [128]
0	0xbcdb724f	-0.026787905
1	0x3d817498	0.063210666
2	0x3d397923	0.04528154
3	0x3d934d64	0.071924955
4	0xbc9155ea	-0.017741162
5	0x3d839eb8	0.064267576
6	0xbc793354	-0.0152099915
7	0x3d5de488	0.054173023
8	0x3d3ee1fc	0.046602234
9	0xbc6be101	-0.014396907
10	0x3d614394	0.05499609
11	0x3d754f52	0.0598901
12	0x3cf637b8	0.030055866
13	0x3bca34d8	0.0061708502
14	0x3def2c88	0.116784155
15	0x3d5f8294	0.05456789
16	0x3d36e91f	0.044655915
17	0x3d787d7c	0.060666546
18	0x3db31716	0.08744638
19	0x3d688480	0.056766987
20	0xbd07eed8	-0.033186764
21	0x3d9dc60a	0.077037886
22	0x3db4e524	0.088327676
23	0x3d8766f2	0.06611432
24	0x3c6c4597	0.014420888
25	0x3d9dbcd1	0.077020295
26	0xbb940ad1	-0.004517891
27	0xbcfc69a1	-0.030812087
28	0xbba96c8a	-0.0051704096
29	0x3bfcbf8c	0.007713264
30	0x3cc40157	0.02392642
31	0x3d656f49	0.056014333
32	0x3d98702f	0.07443272
33	0x3bb382d8	0.0054782443
34	0xbbd30f81	-0.006441057
35	0x3c5dcb1a	0.013537193
36	0x3ce74364	0.028230377
37	0x3db78163	0.089602254
38	0x3db9f12c	0.09079203
39	0xbb6df11a	-0.0036307038
40	0x3c0b67d1	0.0085086385
41	0x3db0175f	0.08598208
42	0x3d262d09	0.040570293
43	0x3d55dd7b	0.052213173
44	0x3da21e5d	0.079159476
45	0x3d727bfb	0.05920027
46	0x3d599900	0.053124428
47	0x3d3b9a3d	0.04580139
48	0x3d041d77	0.032254662
49	0x3d8caa7e	0.06868456
50	0x3dc6187f	0.09672641
51	0xbcee5c93	-0.029096877
52	0x3ddc6758	0.10761899
53	0xbca8975f	-0.020579992
54	0x3d40a3e5	0.047031302
55	0xbd0b2c54	-0.03397782
56	0x3d2007a5	0.03906979
57	0x3c6ac21f	0.014328509
58	0x39be0bbf	0.00036248376
59	0x3dbfb5dc	0.09360859
60	0x3d478dae	0.0487191
61	0x3d7832bd	0.060595263
62	0x3c8e5ad6	0.017377298
63	0x3dfa30e4	0.122163564
64	0x3c56a35a	0.0131004695
65	0xbbdbf1b4	-0.006712163
66	0x3da7f5a3	0.08201148
67	0x3da4c65b	0.08045646
68	0x3d36c0b8	0.044617385
69	0xbcd4b4bb	-0.025965085
70	0x3d542c85	0.05180027
71	0x3d42784c	0.047478005
72	0x3d8cbdec	0.06872162
73	0x3da6f5c0	0.08152342
74	0xbbefa95c	-0.0073138904
75	0x3d71733b	0.058947783
76	0x3cbc0f92	0.022956643
77	0xbc088278	-0.008331887
78	0x3de380d2	0.11108555
79	0xbc4bf69b	-0.012448932
80	0x3da36929	0.07979042
81	0x3c749a37	0.014929346
82	0x3c1c9387	0.009556658
83	0x3d7a5cc1	0.061123613
84	0x3d42b66a	0.047537245
85	0xbcda743b	-0.026666751
86	0xbbfebc73	-0.0077739297
87	0x3dc6d3df	0.0970838
88	0x3d02fbb6	0.03197833
89	0x3d524605	0.051336307
90	0x3c3070ca	0.0107690785
91	0xbc5d141d	-0.013493565
92	0x3c49fb21	0.01232794
93	0x3de1f6ad	0.11033378
94	0x3d874d25	0.06606511
95	0x3dd9b997	0.106311016
96	0xbc1d83d3	-0.009613949
97	0x3c0a1cdd	0.008429733
98	0x3d8d5c82	0.0690241
99	0x3cf037c0	0.029323459
100	0x3d889cbb	0.06670519
101	0x3dd90dc8	0.10598332
102	0x3d5c4234	0.053774074
103	0xbc764229	-0.015030422
104	0x3ca9c32a	0.020722944
105	0x3b57f4a6	0.0032952218
106	0xbc59b992	-0.013288872
107	0x3da6f004	0.08151248
108	0x3d20a374	0.03921838
109	0x3b094d1c	0.0020950502
110	0x3be46717	0.006970297
111	0x3cc67ec0	0.024230361
112	0xbcb9f28f	-0.022698669
113	0xbc78cf5a	-0.015186155
114	0x3d870e63	0.06594541
115	0x3da03625	0.07822827
116	0x3d1e9d0b	0.038723987
117	0x3ddca6db	0.10774013
118	0x3dbd4e54	0.092434555
119	0x3d3e0f8a	0.046401538
120	0x3d31c860	0.043403983
121	0x3d97a2b4	0.0740408
122	0x3cfba03b	0.030716052
123	0x3d658d77	0.056043115
124	0x3d4c6238	0.049898356
125	0x3bdb29f8	0.0066883527
126	0x3c22ec8a	0.009944091
127	0x3dae8be3	0.08522775

weight f4 [64, 128]
0	0x3d3710b8	0.04469368
1	0xbcd92764	-0.02650804
2	0x3d0518d9	0.0324944
3	0xbc97da01	-0.01853657
4	0x3cde70d4	0.02715341
5	0xbca6187b	-0.020275345
6	0x3d20bd78	0.03924319
7	0xbc85580d	-0.016277337
8	0xba82eadd	-0.0009988208
9	0x3d365aaf	0.044520076
10	0xbcccc25c	-0.024995022
11	0xbbf59bbb	-0.007495371
12	0x3d4145f4	0.047185853
13	0x3d242e28	0.04008308
14	0xbc18c1a2	-0.009323509
15	0xbd12a24d	-0.035799313
16	0xbcb55592	-0.02213553
17	0xbc22c6b2	-0.009935068
18	0xbc89746d	-0.016779149
19	0xbc6b0e26	-0.014346635
20	0x3d4b71ad	0.049668957
21	0xbc340c4a	-0.010989258
22	0xbc833dae	-0.016020622
23	0x3ca8bdf4	0.02059839
24	0x3cce2b03	0.025166994
25	0xbbe303a6	-0.006927925
26	0x3d216136	0.03939935
27	0x3d39d363	0.04536761
28	0x3cf0f161	0.029411973
29	0x3d22f348	0.039782792
30	0x3c960bb3	0.018316125
31	0xbc09b98e	-0.008406056
32	0xbc5c4eb8	-0.013446502
33	0x3d31dc1d	0.043422807
34	0x3d8150ff	0.06314277
35	0x3b9a9865	0.004717874
36	0x3d091646	0.033468507
37	0xba745f05	-0.00093220203
38	0xbc2eeedc	-0.010677066
39	0x3c2b42bc	0.010452922
40	0x3d19f654	0.037588432
41	0xbcaf309a	-0.02138548
42	0x3cc9a0ac	0.024612747
43	0xbcf26be1	-0.029592456
44	0x3b7b6369	0.0038358814
45	0xb99b5680	-0.0002962835
46	0xbaad4b3f	-0.0013221278
47	0x3958ca66	0.00020674765
48	0xbc998a6f	-0.018742768
49	0xbc336b78	-0.0109509155
50	0xbcc29380	-0.023751974
51	0x3cbdee60	0.023184955
52	0xbc274ada	-0.010210717
53	0x3d147a8a	0.036249675
54	0x3ce3371a	0.027736235
55	0x3d4d9864	0.05019416
56	0x3d64e580	0.05588293
57	0x3cb2c389	0.021821754
58	0x3d38f005	0.045150775
59	0xbcb7956c	-0.022410117
60	0xbcbeabf3	-0.023275351
61	0xba93d7c6	-0.0011279515
62	0x3ca67405	0.020318994
63	0xbcc3603d	-0.0238496
64	0x3ce17489	0.027521389
65	0x3c8fef71	0.01757023
66	0xbd03cb16	-0.0321761
67	0xbd14effd	-0.036361683
68	0x3b761fbd	0.0037555539
69	0x3cde2a5f	0.027119813
70	0xbce1fcb2	-0.027586315
71	0xbd2f3ba3	-0.042781483
72	0x38efd11a	0.00011435356
73	0xbce21bb3	-0.027601099
74	0x3d2685e1	0.04065502
75	0xbccfbc08	-0.025358215
76	0x3d80f82e	0.062973365
77	0x3cf1d877	0.029522164
78	0xbc515489	-0.012776502
79	0x3d1bb56a	0.038014807
80	0xbd0bc7ef	-0.03412622
81	0x3d1c06cd	0.038092423
82	0x3d2031b8	0.039109915
83	0xbceae0d4	-0.02867166
84	0xbaff0f1c	-0.0019459459
85	0x3d0db911	0.03460032
86	0x3d0515b9	0.03249142
87	0xbb8df49a	-0.0043321373
88	0x3b8ccf36	0.0042971624
89	0xbc078b3c	-0.008272942
90	0x3d1321cb	0.0359209
91	0x3d214096	0.039368235
92	0x3ce3f5aa	0.027827103
93	0x3c240072	0.010009872
94	0xbc1851c4	-0.009296838
95	0xbcf4bf21	-0.029876294
96	0x3d09ee76	0.03367468
97	0x39d03757	0.00039714083
98	0xbba33a5f	-0.0049813236
99	0x3d29ad8a	0.041425265
100	0xbc74d048	-0.014942236
101	0x3c16f48d	0.009213579
102	0xba90fa53	-0.001106093
103	0x3cd1327b	0.025536766
104	0x3d19d797	0.037559118
105	0x3d10f0e8	0.035385996
106	0x3d25f361	0.040515307
107	0xbc4f62bb	-0.0126578165
108	0x3c1ecfab	0.009693067
109	0x3d40e538	0.0470936
110	0x3d319a84	0.04336025
111	0xbd1186ce	-0.03552895
112	0x3cba9273	0.02277491
113	0x3d35bb2e	0.04436796
114	0x3c550057	0.013000569
115	0xbb779ec6	-0.0037783845
116	0xbce76233	-0.028245067
117	0xbd192091	-0.037384573
118	0xbcd2629b	-0.025681784
119	0xbcab771a	-0.020930815
120	0xbc8fd597	-0.017557902
121	0xbc1aa416	-0.009438535
122	0x3d533001	0.051559452
123	0x3c33645b	0.01094922
124	0xb70002b8	-7.6300275e-06
125	0xbac2e36f	-0.0014868806
126	0x3d08cf05	0.033400554
127	0xbc16d4e1	-0.009206028
128	0x3d0dc1f4	0.034608796
129	0xbcb26a3c	-0.021779172
130	0x3ca4131c	0.020028643
131	0xbbb6e900	-0.005581975
132	0x3ca54a97	0.020177169
133	0xbb7a78a6	-0.0038218885
134	0x3cfc2865	0.03078098
135	0xbcb4b312	-0.022058044
136	0xbbf471b1	-0.007459842
137	0x3d18c0f7	0.0372934
138	0xba056226	-0.00050881726
139	0xbc564432	-0.0130777825
140	0x3d01d6ca	0.03169898
141	0x3d5d0f1d	0.05396949
142	0x3bc477b4	0.005995715
143	0xbb6a345f	-0.0035736782
144	0xbc98259a	-0.018572617
145	0x3bb75c32	0.0055957073
146	0x3b73ed23	0.0037220202
147	0xbc898391	-0.016786369
148	0x3d46cf17	0.04853734
149	0xbbcb92b6	-0.0062125577
150	0x3c4de7b7	0.012567452
151	0x3ca02683	0.019549614
152	0xbaa16be9	-0.0012315485
153	0x3af5a85c	0.0018742192
154	0x3d037611	0.03209502
155	0x3d2657bd	0.040611017
156	0x3cf6aebb	0.030112615
157	0x3d1865ea	0.037206568
158	0x3992ac7a	0.00027975795
159	0xbb19e307	-0.0023481266
160	0x3c2dd120	0.010608941
161	0x3d5b63ca	0.053561963
162	0x3d289f16	0.04116734
163	0x3c8c993a	0.017162908
164	0x3cb1daee	0.02171084
165	0xbb574eb4	-0.0032853307
166	0xbb12419d	-0.002231694
167	0x3c593784	0.013257865
168	0x3d545796	0.05184134
169	0x37613429	1.342319e-05
170	0x3d041cb4	0.032253936
171	0xbb405604	-0.0029348144
172	0x3c5bb95a	0.0134108905
173	0xba3b4738	-0.00071440963
174	0xb8617a00	-5.37578e-05
175	0x3c21c051	0.009872512
176	0xbcdbfc45	-0.02685369
177	0x3c8dad16	0.017294448
178	0xbc4cef74	-0.012508262
179	0x3cc69685	0.024241695
180	0x3c02c50b	0.007981549
181	0x3d245bb6	0.040126525
182	0x3d042c0f	0.03226858
183	0x3d75717a	0.059922673
184	0x3c9ef24a	0.019402642
185	0x3d2b7000	0.04185486
186	0x3d05ce8a	0.032667674
187	0xbc64786f	-0.013944729
188	0x3c209027	0.009799994
189	0xbcc4fbdc	-0.024045877
190	0x3b1e410f	0.0024147665
191	0xbc95f17b	-0.018303623
192	0x3d2876b6	0.041128837
193	0x3d109168	0.03529492
194	0x3a725d11	0.00092454354
195	0xbb7f8e72	-0.0038994816
196	0x3c2280d3	0.009918409
197	0x3d568348	0.052371293
198	0xbcc0a5da	-0.023516584
199	0xbcf3cd2f	-0.029760925
200	0x3b9de6ba	0.0048187645
201	0x3b4e1ce6	0.003145033
202	0x3d108277	0.03528067
203	0xbc99e351	-0.01878515
204	0x3d3f7d49	0.04675034
205	0x3d08aada	0.03336606
206	0x3a8ada34	0.0010593594
207	0x3d3f200d	0.046661425
208	0x395c9cd7	0.00021039262
209	0x3d304176	0.04303118
210	0x3d13436a	0.035952963
211	0xbc5e3be1	-0.013564081
212	0x3bf51fb3	0.0074805855
213	0x3d01e528	0.03171268
214	0x3d3782f6	0.04480263
215	0x3c005baf	0.007834359
216	0xbc4fb4e1	-0.012677402
217	0x3c883b89	0.016629951
218	0x3d24d7ca	0.040244855
219	0x3d1b0c9c	0.037853822
220	0x3c973b27	0.018460823
221	0xbadca5e6	-0.001683411
222	0xbb9643ac	-0.004585704
223	0xbc863797	-0.01638393
224	0x3d25adf1	0.040449087
225	0x3c0e3b18	0.008681081
226	0x3c725abf	0.014792143
227	0x3d1b1923	0.03786577
228	0xbcf60738	-0.030032739
229	0xbc2011a5	-0.009769832
230	0x3b98e017	0.0046653855
231	0x3d3c1b7f	0.04592466
232	0x3d13cc72	0.036083646
233	0x3cf3434c	0.029695176
234	0x3d334251	0.043764416
235	0xbba1d4f8	-0.004938718
236	0x3cb044c8	0.021517172
237	0x3d536ce6	0.051617526
238	0x3cd39278	0.025826678
239	0xbc949935	-0.018139461
240	0x3d17bf85	0.03704788
241	0x3d1f8333	0.03894348
242	0x3c1012c8	0.00879354
243	0xbc33f798	-0.010984324
244	0xbbbc6532	-0.005749368
245	0xbb992cfa	-0.004674551
246	0xbbca1216	-0.006166707
247	0xbb696511	-0.0035613219
248	0xbc1072ca	-0.00881643
249	0x3cbd4def	0.02310845
250	0x3cc6f654	0.02428738
251	0x3c7c8ce4	0.01541445
252	0xbc22a532	-0.009927081
253	0xbc84754d	-0.016169215
254	0x3cb7dc63	0.022443956
255	0xbc624fa9	-0.013812938

bias f4 [64]
0	0x3c3fe95f	0.011713355
1	0x3c97409f	0.01846343
2	0xbc202de1	-0.009776563
3	0x3cf06988	0.029347196
4	0x3c998ea6	0.018744778
5	0x3cc2ecfc	0.023794644
6	0x3d5c7a64	0.05382766
7	0xbb25663a	-0.0025237934
8	0xbcab9437	-0.020944698
9	0x3c2c75b6	0.010526111
10	0x3cfd2eee	0.030906167
11	0x3c3a31f8	0.011364453
12	0x3ce96fda	0.028495718
13	0x3d08429c	0.03326665
14	0x3b12f3cc	0.0022423146
15	0x3d0dcf1f	0.034621354
16	0x3cf935f1	0.03042123
17	0xbbb7a6a4	-0.005604582
18	0x3be5163d	0.0069911764
19	0xbb22e3e9	-0.0024855083
20	0xb9c442f6	-0.00037433923
21	0xbb8cb23a	-0.004293707
22	0x3d23e1f7	0.04001042
23	0x3d42a786	0.047523044
24	0xbc6e9561	-0.014561982
25	0x3cb4869f	0.022036849
26	0x3cedf1ed	0.029046023
27	0x3d580cec	0.0527467
28	0x3c86a35d	0.01643532
29	0x3bda378e	0.0066594547
30	0x3c48996a	0.012243608
31	0x3d251f25	0.040312905
32	0x3d3f81e3	0.04675473
33	0x3d8660e4	0.06561449
34	0x3cefcbd7	0.029272003
35	0x3d6ce852	0.057838745
36	0x3cdb2037	0.02674876
37	0x3cd8f014	0.026481666
38	0x3d7a4dac	0.06110923
39	0x3ca9950c	0.020700954
40	0x3d0aa723	0.0338508
41	0x3c163c1f	0.009169607
42	0x3c34193d	0.010992345
43	0x3d132959	0.035928104
44	0x3c854e6f	0.016272752
45	0x3c49b82e	0.012311978
46	0x3ca9b421	0.020715775
47	0x3bbd3d80	0.0057751536
48	0x3d095e4d	0.033537198
49	0xbbebf2b8	-0.007200565
50	0xbac509f8	-0.0015032878
51	0x3d468403	0.04846574
52	0x3ca816ce	0.020518687
53	0x3d40ed2f	0.047101196
54	0x3ceb7c2e	0.028745737
55	0x3c8aa5ff	0.016924856
56	0xbc5a4fb2	-0.013324665
57	0x3d3dac68	0.046306998
58	0x3c34d7af	0.011037751
59	0xbb54cf36	-0.003247214
60	0xbabf1f2c	-0.0014581433
61	0x3d109876	0.035301648
62	0x3ce67124	0.028130122
63	0xbbb68576	-0.005570109

weight f4 [10, 64]
0	0x3d3a8934	0.045541003
1	0x3d5a1f0f	0.053252276
2	0x3d42e16e	0.047578268
3	0xbd2e333a	-0.042529322
4	0x3b15a288	0.0022832472
5	0x3d8d834c	0.069098085
6	0xbd1fe13b	-0.039033156
7	0x3cb91905	0.022594938
8	0xbc040a1a	-0.008059049
9	0xbc608d7d	-0.013705608
10	0xbc3e72df	-0.011624067
11	0x3d703429	0.058643494
12	0xbbe2578a	-0.006907408
13	0xbce600c4	-0.028076537
14	0xba2b0fbb	-0.00065254763
15	0xbceca683	-0.028887993
16	0x3d3fe2ec	0.04684727
17	0x3c9383c5	0.018007169
18	0x3d3f4e4f	0.04670554
19	0x3d44f076	0.048080884
20	0x3cac6320	0.02104336
21	0x3b5809f6	0.0032964922
22	0xbd727dac	-0.05920188
23	0xbcf9eaf3	-0.03050754
24	0x3d1214f1	0.035664503
25	0x3d71f50a	0.059071578
26	0xbcc83c7f	-0.02444291
27	0xbd057935	-0.032586295
28	0x3d5b76e0	0.053580165
29	0x3d8f179b	0.06986924
30	0xbce9c94f	-0.028538374
31	0xbd11a8ba	-0.0355613
32	0xbaeb9512	-0.0017973504
33	0xbd43358e	-0.047658496
34	0xbce17f09	-0.027526395
35	0xbbc8732e	-0.006117246
36	0x3ba59885	0.005053582
37	0xbcf80eae	-0.030280437
38	0xbd70a7dc	-0.058753833
39	0x3d3f349a	0.046681024
40	0x3be8efe1	0.007108674
41	0x3c0378e4	0.008024428
42	0x3d63ad5f	0.05558526
43	0xbd29544e	-0.041340165
44	0x3d46eed8	0.048567623
45	0xbb9edc2d	-0.0048480243
46	0x3d64d921	0.055871133
47	0x3906c1a6	0.00012851376
48	0xbd24056d	-0.040044237
49	0x3ca46905	0.020069608
50	0x3cd61c80	0.026136637
51	0xbc993b81	-0.018705131
52	0x3d298478	0.041386098
53	0xbcc06d3d	-0.023489589
54	0x3d58c0a6	0.0529181
55	0xbcaeba85	-0.021329174
56	0x3c95348d	0.018213535
57	0xbd23ad26	-0.03996005
58	0x3d70290d	0.0586329
59	0x3d73cd9d	0.05952226
60	0x3c0a165c	0.008428182
61	0xbd0668c8	-0.03281477
62	0x3d6cf2e8	0.05784884
63	0x3d3cdc3f	0.04610848
64	0x3bd66458	0.0065427236
65	0xbd157c4d	-0.036495496
66	0xbaef058a	-0.0018235904
67	0xbc89bd3e	-0.01681387
68	0xbcd8bcce	-0.026457217
69	0x3c8cc940	0.017185807
70	0xbd181903	-0.037133228
71	0xbc110972	-0.00885235
72	0xbba60cb3	-0.005067432
73	0xbc940cb1	-0.018072458
74	0xbd19d944	-0.037560716
75	0xbc868a26	-0.016423296
76	0xbd59488a	-0.053047694
77	0xbc54d67d	-0.012990591
78	0x39986a16	0.0002907074
79	0xbbf7e992	-0.0075656855
80	0xb98a0e4d	-0.00026332066
81	0x3cb4a244	0.02205003
82	0xbb0884e6	-0.0020831167
83	0x3bde68a4	0.0067873765
84	0xbccb8d4a	-0.024847645
85	0x3c5c8206	0.013458734
86	0xbd027a35	-0.031854827
87	0xbc247da4	-0.010039721
88	0xbb1b6b08	-0.0023714919
89	0x3cd02dca	0.025412459
90	0xbc6b4600	-0.014359951
91	0xbc9f7aea	-0.01946779
92	0xbb2dc56c	-0.0026515378
93	0x3cf3bd0f	0.029753236
94	0xbd2bdc37	-0.04195806
95	0xbcb2702a	-0.021782
96	0xbd1c1c0e	-0.038112693
97	0xbca673bc	-0.020318858
98	0xbcaf78ca	-0.021419901
99	0xbd45fd7d	-0.04833745
100	0xbd374165	-0.0447401
101	0xbd34f5c5	-0.044179697
102	0xbd3c0766	-0.045905493
103	0xbc14483c	-0.009050425
104	0xbcf6a4ec	-0.030107938
105	0xbc294d7d	-0.010333416
106	0x3bad88cf	0.00529585
107	0xbc02eec8	-0.0079915
108	0xbbbd415b	-0.0057756132
109	0xbcf41b4c	-0.029798172
110	0xba0e92bf	-0.0005438737
111	0xbc985c4b	-0.018598696
112	0xbd2e2c3d	-0.042522658
113	0x3b28d3dd	0.0025761046
114	0xbcc1ebbd	-0.02367198
115	0xbd421dea	-0.04739181
116	0xbd13cb9b	-0.036082845
117	0x3bb98d1c	0.0056625735
118	0xbb9ff9bf	-0.004882067
119	0xbc83c900	-0.016087055
120	0xbccef503	-0.025263315
121	0xbcd44e94	-0.025916375
122	0x3bad7d4a	0.0052944766
123	0xbbf8ebb6	-0.0075964583
124	0x3b93f156	0.0045148535
125	0xbd13f1d8	-0.036119312
126	0xbc876857	-0.016529245
127	0xbc877923	-0.016537255
128	0xbc702afa	-0.014658684
129	0x3bb09e17	0.0053899395
130	0x3cd1945f	0.025583444
131	0xbccac40f	-0.024751691
132	0xbd391e03	-0.045194637
133	0x3b3bba31	0.0028644914
134	0xbd7beadb	-0.061503273
135	0x3c0babfd	0.008524892
136	0xbbcc755d	-0.0062395767
137	0xbc942351	-0.018083246
138	0xbcb63f9c	-0.022247128
139	0x3c4139b8	0.011793546
140	0xbcd80d34	-0.026373483
141	0xbcee3cd3	-0.029081738
142	0xbc7f5fcf	-0.015586807
143	0xbce2011a	-0.027588416
144	0xba997d5f	-0.0011710337
145	0x3c87478d	0.01651361
146	0xbc1f6473	-0.009728539
147	0xbbd02e36	-0.006353165
148	0x3b60015a	0.0034180493
149	0xbc4bad5d	-0.01243147
150	0xbccd4b17	-0.02506022
151	0xbd6873f8	-0.05675122
152	0xbab75824	-0.001398806
153	0x3b45b45a	0.0030167312
154	0xbcfd0212	-0.030884776
155	0xbcb5d236	-0.022194963
156	0x3c4a5fc3	0.012351933
157	0xbc30f62c	-0.010800879
158	0xbd31b5e9	-0.043386374
159	0xbd012628	-0.03153053
160	0xbcfee00a	-0.03111269
161	0xbd37cb92	-0.044871874
162	0xbd2f5283	-0.0428033
163	0xbd018222	-0.031618245
164	0xbd301e2e	-0.04299753
165	0xbc068915	-0.008211394
166	0xbd658192	-0.05603177
167	0x3bc1731c	0.0059036147
168	0xb86aa9ae	-5.5947974e-05
169	0xba8a58ba	-0.0010555007
170	0xbc92959b	-0.017893603
171	0xbce50e6d	-0.02796098
172	0x3c129f5a	0.008949125
173	0xbd126192	-0.03573758
174	0x3d091b0c	0.03347306
175	0xbb33fcdd	-0.002746395
176	0xbd114901	-0.035470013
177	0x3a9693b1	0.0011488107
178	0xbc2e7344	-0.010647599
179	0xbd0cc12b	-0.034363907
180	0xbcc55146	-0.024086606
181	0xbc9cab9c	-0.019124798
182	0xbcc05a5f	-0.023480592
183	0xbc34099f	-0.010988622
184	0x3bb6953d	0.00557199
185	0xbd0d1dc7	-0.034452226
186	0x3c2de7bb	0.010614331
187	0x3ce56cdb	0.028006008
188	0xb931d918	-0.00016960909
189	0xbc3c3940	-0.011488259
190	0xbb5d80a8	-0.003379861
191	0x3c2b7d88	0.010466941
192	0x3c1925a1	0.00934735
193	0x3a41209b	0.00073672243
194	0xbcaffb61	-0.021482171
195	0xbcbdec97	-0.023184104
196	0xbced430f	-0.02896264
197	0xbc59cf01	-0.0132939825
198	0xbc9210a9	-0.01783021
199	0x3c7ff292	0.015621798
200	0xbbee3f14	-0.007270703
201	0xbd187fb0	-0.037231147
202	0xbca1a68e	-0.01973274
203	0xbb60a380	-0.003427714
204	0xbca6b22f	-0.020348636
205	0xbbb1d3a9	-0.005426843
206	0x3b806a6a	0.0039189355
207	0xbba48cf2	-0.005021685
208	0xbbf7861c	-0.007553829
209	0xbc20163b	-0.009770925
210	0x3c9e12c4	0.019296058
211	0x3c3d3565	0.011548375
212	0x3c936822	0.01799399
213	0xbcdea6ae	-0.027179088
214	0xbc57b5c8	-0.013165899
215	0xbd2d5845	-0.04232051
216	0xbb81d48b	-0.0039621047
217	0x3bd9b3e9	0.0066437614
218	0xbc8eff26	-0.017455649
219	0xbcd4eac5	-0.025990853
220	0xbcdef7d6	-0.027217787
221	0x3c67f280	0.014156938
222	0xbd59e71a	-0.05319891
223	0xbd326bca	-0.043559827
224	0x3a2042cc	0.0006113469
225	0xbd291c63	-0.041286837
226	0xbcbcc1cf	-0.023041634
227	0xbbd7fd83	-0.0065915002
228	0xbcc05a69	-0.02348061
229	0xbd0eaa98	-0.03483066
230	0xbcdb6e85	-0.026786098
231	0xbb30afa6	-0.0026960163
232	0xbcbf13f7	-0.02332495
233	0xbbe2fe1f	-0.0069272663
234	0xbbde2bfd	-0.006780146
235	0xbcfe0cf1	-0.03101203
236	0xbba9f35c	-0.0051864814
237	0xbd0476cf	-0.032339867
238	0x3c769731	0.015050695
239	0xbcdb9b45	-0.026807437
240	0xbd06d05d	-0.032913554
241	0xbca49a3b	-0.020093074
242	0xbb8a3d63	-0.0042187436
243	0xbc613412	-0.013745325
244	0xbc9227eb	-0.0178413
245	0xbcc803dc	-0.024415903
246	0xbc8b970c	-0.017039798
247	0xbc1376a1	-0.009000451
248	0xbd0162e0	-0.031588435
249	0xbcabad71	-0.020956727
250	0x3bbda703	0.0057877316
251	0xbcb454f4	-0.022013165
252	0x3cc0e356	0.023545902
253	0xbbd61711	-0.0065335114
254	0xbd1eb9b3	-0.038751315
255	0xbc531b6c	-0.012884956

bias f4 [10]
0	0x3cdb99ca	0.02680673
1	0xbcfb0397	-0.03064136
2	0xbd01e796	-0.031715
3	0x3be36000	0.0069389343
4	0x3d0c72cc	0.034289166
5	0xbc832cea	-0.016012628
6	0xbc0336e5	-0.008008693
7	0x3ce55c3f	0.027998088
8	0x3c062e15	0.008189698
9	0x3d59eefa	0.05320642
