models/DPG_Fed_AggPer_10.pth (torch, 65067 bytes, 6 tensors)

weight f4 [128, 50]
00000000: f853 b03a df76 6b3c 76ba 333d 5f21 043d
00000010: f3e1 0d3d 2f90 763d d1c3 3f3d a392 633c
00000020: 7bba 3f3d 26d1 303d ae8c 5e3d 0ed8 883d
00000030: f1f7 d93c c84d 5c3d 09d5 9a3d 369f 1b3d
00000040: 0c9e fc3b 29f7 8c3a c976 6b3a 285f 8f3c
00000050: 059b 5a3c 080b d73c 5368 5c3b d4bd d73c
00000060: 5290 e33b 43fe be3c a66b 72bc dc84 a33c
00000070: 5638 193d 9195 c93c 9747 683d 3b29 813d
00000080: fbac d13d 57fc d7bd b3a2 ac39 dc65 0d3c
00000090: 6127 9c3c 6cd8 163d 8a83 5f3c 45ca 3b3c
000000a0: 9cc8 f23c 05f9 cd3c ce2b 80bc 2d14 9d3c
000000b0: 6118 1d3d 2a43 11bc 27db a03b 7abe 02bc
000000c0: 28cb 493d 7761 373d eb8b 02bc cf61 0fbd
000000d0: 26bf d23c f8f5 bbbc 11e2 00bd 88da 19bd
000000e0: a953 23bd 7bcb 41bd f222 12bd f8ab 10bd
000000f0: ad5e c5bb 93ac 41bd f124 333b 8a44 bdbc
00000100: 12d8 d73a b7a5 563c 1b83 e93c bd7b fa3c
00000110: 3f83 c23b 2172 ca3c c4c5 4d3b 7dc8 2b3c
00000120: d719 22bb fedd 893c d2ee ee3c 1013 1b3c
00000130: 183c 053d 1d08 993c df8c 1c3c 5467 083d
00000140: db0d f3bb 0824 283c 2a7c ccbc 982c 113e
00000150: 92d3 bf3c 8ee0 853c e98a ea3c adf5 383d
00000160: 0f42 c03c 9cbb 80bc 01cc 8d3b 78c1 20bd
00000170: f29f 4a3d c015 013c f8bb 463c 488b 7bb9
00000180: ee10 38bb 2e22 a53c b6b7 d9bc 6feb 0fbd
00000190: f3d3 593c 6400 2d3b a16e bc3c 71fd 1f3d
000001a0: c43c 2b3c 4fae 053d 2eb6 733c dabc fa3c
000001b0: 2e8a d13c dfa5 333d c4e6 433d 833a 4e3d
000001c0: f22c 7c3d dfaa 5d3d 7b47 723c bbda e83c
000001d0: c12d b3bb 0d61 c23c a4db 633c 0ba9 0e3d
000001e0: 24ee 453d ac8c b43c b455 193d b1d3 f33c
000001f0: e893 1c3c 0c5d 243d 11f0 8f3c 91a8 b43c
00000200: 9df4 463d 52f6 883c 5fe4 8a3d e453 583d
00000210: 5a83 1a3d f4ad 05be 5cf4 b53c 8696 8a3c
00000220: 0f1f e43c f9ba 8c3c 0d7a cbbc 2cb4 9e3c
00000230: 6849 58bc 0a89 d53c 3dc1 8b3c d330 e13b
00000240: dc04 e43c a458 d73c 1d5e 2b3b e445 013c
00000250: e914 483d 5800 1e3d f7ab 3b3c cf6b 213c
00000260: 7a14 823b d47d b3bc 2942 a2bc 7801 6ebc
00000270: 7add 14bd b198 77bc 0189 4abc 5f62 a9bc
00000280: a840 1ebd 6b68 93bb a340 7db8 6fca 13bc
00000290: a6c9 ffbc b148 803a bf4d 443d 18cb f23c
000002a0: 5c7f 223d 1b1a fa3c 38ec 0e3d a00c 3bb9
000002b0: d803 133d f330 65bc d17b c03b 371a bebb
000002c0: d6c9 0d3d c013 303d 45ff 283d 897f 9e3b
000002d0: 8cc9 873b 7d92 863c 48e4 78bc 3d88 0f3e
000002e0: dcaa 2f3d e65c 383c 7c30 bf3c 88e1 a93b
000002f0: d19d 833c e47a cc3b c553 29bb a4b2 f73c
00000300: 0034 d83c 38f4 00bc 3f7b 1d3d adda 573c
00000310: 88a0 073c e666 1b3d 0f08 93bc 9467 1bbd
00000320: 12e0 643c 0aae 12bc 416b 163b 5ce9 6f3c
00000330: ee1b a0bb 1242 e93b 26b3 9a3c c020 8a3c
00000340: 0cc8 043c 60cd d43c fa0f 9e3c 838d 3f3d
00000350: 9888 943c d8b6 5b3a cbdc 083d 417c 8c3c
00000360: 6050 c23b 33e1 3f3c 3852 f53b 49d1 cc3c
00000370: cdb4 183d 40a3 c23c 3448 963c f6a2 133d
00000380: 80d1 003d 579b cc39 04e6 183d 084c b43c
00000390: e345 183d 0f17 70bb a902 2a3d d3dc d33b
000003a0: 262d 803d 4d76 33bb 5f91 e9bc 8013 553b
000003b0: 3a5c 573c 4c83 fa3b 0fcf f33c aa52 b53c
000003c0: 9736 0f3c ec52 083d 6165 2a3c 1790 543c
000003d0: 633d 123c 1693 7bba 899b 403d d120 3e3c
000003e0: 9848 933c 1a65 6b3d 4a26 6838 0b3b 94bc
000003f0: 88fa a0bc 0e87 563b 71c9 bbbc 6688 a1bc
0.0013452759 0.014371603 0.043878995 0.032258388 0.03463931 0.060196098 0.046817604 0.013889941
0.0468087 0.04316821 0.05433338 0.06681834 0.026607485 0.053785115 0.075601645 0.037993632
0.0077092703 0.0010754812 0.0008982239 0.017501429 0.013342624 0.026250377 0.0033631518 0.026335634
0.0069446946 0.0233146 -0.014796173 0.019960813 0.03740724 0.024607452 0.0567089 0.06306692
0.102380715 -0.10546177 0.00032927617 0.008630242 0.019061746 0.03682749 0.013642201 0.011461799
0.029636674 0.025143156 -0.015645888 0.01917466 0.038353328 -0.008866111 0.0049089375 -0.007979983
0.04926601 0.044770684 -0.007967929 -0.035005387 0.025725912 -0.022944435 -0.031465594 -0.037561923
-0.039874706 -0.047313195 -0.035677858 -0.035320252 -0.006023249 -0.04728372 0.0027335251 -0.023103971
0.0016467592 0.013101033 0.028504899 0.030576581 0.005936056 0.024712624 0.0031398395 0.010484812
-0.002473464 0.016829487 0.029166613 0.009464994 0.032528013 0.018680627 0.009555071 0.033301666
-0.007417423 0.010262497 -0.02496155 0.14177167 0.023416314 0.016342428 0.02863069 0.04515617
0.023469 -0.01571446 0.0043272977 -0.039247006 0.049468942 0.007878721 0.012129776 -0.00023989112
-0.0028086263 0.0201579 -0.026576858 -0.035136636 0.013295162 0.0026397938 0.02300197 0.03906006
0.010451499 0.032636937 0.014874978 0.03060763 0.025578585 0.04385936 0.047827497 0.05034877
0.0615663 0.054118033 0.01478755 0.028424611 -0.005468101 0.023727918 0.013907347 0.03482918
0.04832281 0.022039734 0.03743525 0.029764028 0.009556748 0.0401278 0.017570527 0.022053035
0.048573125 0.016719017 0.067818396 0.05281438 0.037722923 -0.13054639 0.022211246 0.016917478
0.027846841 0.017179 -0.024838472 0.019373022 -0.013201095 0.026066322 0.017059917 0.0068722754
0.027834348 0.026287384 0.0026148625 0.007890198 0.048848066 0.038574547 0.011454574 0.009852364
0.003969726 -0.021910585 -0.019806938 -0.014526717 -0.03634403 -0.015112088 -0.012361766 -0.02067679
-0.03863588 -0.0044985316 -6.0380098e-05 -0.009020432 -0.031224083 0.0009787289 0.047925707 0.029637858
0.03967224 0.030530026 0.034893245 -0.00017838413 0.035892338 -0.013988721 0.005874135 -0.005801465
0.034616314 0.042987585 0.04125907 0.0048369807 0.0041438993 0.016427273 -0.015191145 0.14016815
0.042887554 0.011252617 0.023338549 0.005184356 0.016066464 0.0062402356 -0.0025837284 0.03023655
0.026391983 -0.007870726 0.038447615 0.013174695 0.00827802 0.03793993 -0.017948179 -0.037940577
0.013969438 -0.008952627 0.0022952112 0.01464304 -0.004886142 0.007118472 0.018884253 0.01686132
0.0081043355 0.025976837 0.019294728 0.046765815 0.01813154 0.0008381433 0.03341369 0.017149093
0.0059299916 0.0117114065 0.007486608 0.025002139 0.0372818 0.023759484 0.018344976 0.036044084
0.031449795 0.0003902565 0.037328735 0.02200891 0.037176024 -0.0036634838 0.041506443 0.0064655333
0.062586114 -0.0027383745 -0.028511701 0.0032512844 0.013144547 0.0076450463 0.02976182 0.022134144
0.008741043 0.033282205 0.010400147 0.012973807 0.008925769 -0.00095968076 0.04702333 0.011604504
0.017978951 0.057469465 5.534877e-05 -0.01809456 -0.019650713 0.0032734307 -0.022923203 -0.01971836

bias f4 [128]
00000000: e64a f9bc dd30 903d 94b8 0e3d a3f3 a43d
00000010: 0458 2aba 678f 873d 849c 533d 5300 853d
00000020: 52bb 703d 99ba 89bc c526 703d fecc 9d3d
00000030: 607e 5b3d caed efba 05b6 f73d d36e 8f3d
00000040: 0c6f 553d 5ca1 943d fa2c b93d d8a6 973d
00000050: dd0c 05bd 7793 973d ed3d c33d dacd 9f3d
00000060: 1c29 973c afbf b13d aa47 0cbc 3c12 12bd
00000070: c47e 4dbc f40d 143a 4085 dc3c 3c45 8b3d
00000080: 0f0f bb3d 73ab ec3b 9b16 61bc 1d91 313d
00000090: 54ae b93c 9a62 cc3d fddf c63d 1f8b 763d
000000a0: 09af 7f3b dbd8 b93d 32dd a23d 3c16 833d
000000b0: e636 ae3d 685a 9f3d 5532 893d 2d65 8b3d
000000c0: 848c 473d 7a77 833d 8ff4 d43d 1fb5 ffbc
000000d0: fb41 eb3d 26ff 61bc 1f1c a53d 5b3d 03bd
000000e0: df36 5f3d 7f8d 1c3d c342 81bb 6c61 ba3d
000000f0: 8d0d 6b3d b664 923d 8cce 163d 962b 013e
00000100: 124a 3f3d c80c 053d 3b09 b33d e695 b43d
00000110: 6ea5 6b3d 899f 0abd 9f6d 6d3d 1f27 6a3d
00000120: ef83 943d c5a3 ae3d 0352 15bc 0d10 7a3d
00000130: 0877 9d3c 2930 7dbc 31ee ed3d 4b1a 90bc
00000140: e65b b13d 2041 063d 34b6 c739 ffa2 963d
00000150: 6e73 763d e8da d4bc 5f48 1f3c 7488 d13d
00000160: 645d 273d 8450 8c3d 2d9e 0c3c 8e5c b7bc
00000170: ad9d 653c 4637 023e 11df 953d 45a7 e23d
00000180: 2882 213d 769b 023d bdad ac3d f1f7 643d
00000190: 2129 993d fbd4 df3d 8027 823d 1842 70bc
000001a0: 9fe0 643d 94d0 bab9 fd44 2c3d 8e97 b13d
000001b0: f229 c9ba 66b0 86bb 84b5 c03b 51e6 edbb
000001c0: 080f f4bc 2910 93bc 1fdf a63d 2f4a d33d
000001d0: ac95 4f3d 948e e93d 7a82 d83d 36ce 643d
000001e0: 9e70 843d ef25 b83d a8a6 063d 2188 9c3d
000001f0: 7d30 473d 7cd5 2d3d 7740 d5bb f7c6 b93d
-0.030431222 0.0704057 0.034843996 0.080542825 -0.00064981007 0.06619149 0.051662937 0.064942025
0.058772393 -0.01681261 0.058630724 0.07705115 0.053587317 -0.001830512 0.12095264 0.0700356
0.052107856 0.07257339 0.09041782 0.0740487 -0.03248297 0.074011736 0.09533296 0.07802935
0.01845222 0.08679139 -0.008562008 -0.03566192 -0.01254243 0.0005647831 0.026919007 0.06800315
0.091337316 0.007222587 -0.0137383 0.04335128 0.022666134 0.09979744 0.09710691 0.06019127
0.0039014241 0.09074565 0.07952346 0.06400725 0.08506565 0.077809155 0.06699053 0.06806407
0.04871799 0.06419273 0.10398208 -0.031214295 0.11487194 -0.013793742 0.08062004 -0.032040935
0.05449569 0.03822088 -0.003944726 0.09100613 0.05738597 0.07148115 0.036818072 0.12614283
0.0467015 0.032482892 0.08741995 0.08817653 0.057530813 -0.03384355 0.05796587 0.057166215
0.07251727 0.0852733 -0.009113791 0.061050463 0.019221798 -0.015453377 0.11617697 -0.017590662
0.08660106 0.03277695 0.0003809199 0.07355308 0.060168676 -0.025983289 0.009721844 0.102311045
0.04086055 0.06851295 0.008582634 -0.022383 0.014014644 0.12716398 0.07317937 0.110670604
0.039430767 0.03188654 0.084315754 0.055900518 0.07478548 0.10929295 0.0635519 -0.0146641955
0.055878278 -0.00035632087 0.04205798 0.08671485 -0.0015347584 -0.004110384 0.0058810133 -0.007260122
-0.029792324 -0.017952042 0.08148026 0.10316884 0.050679848 0.11404148 0.105717614 0.05586072
0.064667925 0.0899161 0.03287378 0.07643152 0.048630226 0.042439923 -0.006507929 0.09071153

weight f4 [64, 128]
00000000: e038 4b3b 6f6f 1cbb d1ab ddb8 a1d8 3dbc
00000010: c020 36bb 8190 78bb bb29 593b 2e00 e63b
00000020: cf25 803b b191 933b 6f49 22bc 6f61 4a3a
00000030: 4123 ae3c a60f 1fbb cfa9 2a3c 61a3 bdbc
00000040: d253 7cbc 416c 85bb 2132 59bb 1f84 e63b
00000050: 4f67 f83b 9116 853b c03d c8bb bbba 383c
00000060: 5f80 0e3c 11c0 dab8 c783 113a ef46 cd3b
00000070: b172 2fbc 6fd4 01bb 03da 9a3b afda 96bb
00000080: 19c0 88bc f127 5cba 40ab a63c 5a4a 333b
00000090: 5113 1ebc 0f90 293c 5fc8 4f36 d630 c5bb
000000a0: a135 4abb 195b 0fbc 91c9 d73b df2d 72bc
000000b0: d1e4 473c cf7e ec3b 314e 183c e006 013c
000000c0: 917b 39bc d287 efba 00ce b739 cf56 96bc
000000d0: 1fbc 313a 06ee 9fbb 019b 14bb 03f2 1b3c
000000e0: c837 8f3c 03d3 9dbc 78bb 8b3b ba34 1abc
000000f0: 8055 61bc 4f0a 7d3c f818 013c 41b9 00bc
00000100: 4306 28bc c1a0 afbc 5ab6 23bc 31bf 61bc
00000110: fd4d 893c f1c1 83bc 2f69 d43b bb54 44bc
00000120: e392 123c 667a 15bc 0f9b 63bb 0fe9 8d3a
00000130: df9b 9d3c a85b 9abb cf6a 2bbb c12c 38bb
00000140: 5174 bfbc 2ff4 a2ba 4599 413b 31e4 5cbc
00000150: f662 273a e127 93bb ff62 f13b 4f33 9b3b
00000160: ef72 963b ee67 78bc 2f58 18bb 8172 8abb
00000170: e074 4cbc 2f71 813c 6f72 033c 4a35 44bc
00000180: bf4d c73b 1f92 ad3a ffb1 933b 451f 543c
00000190: e15e 0cba 6f81 963c c02b fc3a b1ad 88bc
000001a0: 78c8 0f3c cf04 abbb 51b8 5cba af51 9a3b
000001b0: 01b4 e4bb 2fd4 923b 4f7c 913b e627 b3bb
000001c0: 2fe0 99bc bf88 d03a e081 103c 2e8b 7f3c
000001d0: e09c afbc 8fb9 83bc b1b4 9bbb ff1b c3bb
000001e0: 2f0e 93bb 5199 18bb a0ed 573c 2f94 e03a
000001f0: 2f2f 303c c530 c23a f171 1dbc a5b3 af3a
00000200: 6595 083d 45ac 5ebc 8f84 eb3c ea58 043c
00000210: d86a cd3c c5af 7c3b 26a4 30bd 6cc5 11bd
00000220: 3387 bf3b d6fb 213d cebf fc3b ef04 12bb
00000230: 6ad0 233d d2e3 6e3d ec94 cb3c 1f0e 643b
00000240: fb34 d63a 3fe4 bd3b fa9c 993c efcf 80bc
00000250: 9cba 5a3d dcae 6b3c 2faa bd3c b7fe 3f3d
00000260: 456c ad3c 0d2c 7e3c 29c9 1e3d 2dca 1f3d
00000270: 5fa0 fe3c bbb5 2f3d 3dc3 86bc 594e a33b
00000280: 8ac0 8e3c 2f69 6a3d f1a1 b93c b824 173b
00000290: 1b8f 9e3c bc0c 0d3c 4d71 263c bfaa 01ba
000002a0: 1f5b 5a3d 52df 723c 6f46 103d 8497 933b
000002b0: 3625 c93c e458 353c f83d 0a3c a3f4 833c
000002c0: 7b82 9abc 981c c53c cf80 f9bb ae6a ed3c
000002d0: 360c 683c d6ca 353d c570 f83a ba24 7e3d
000002e0: a41e d53c 2813 453d a9e1 073d dac2 22ba
000002f0: d73d f63c aeff ccbc 9c33 ce3c 379f 15ba
00000300: a5ca 393d a61e 233d d61d 833c 6953 493c
00000310: 16e7 553c 12e0 593d 1d72 f7bc 0932 19bd
00000320: c42d 5cbb 6a03 a13c b6fb 1c3d 434f 40bc
00000330: ea51 4f3d f7a4 2e3d 40ee 463c ec22 4c3d
00000340: 552d 983c d8de 4d3d 13da 493d bc0b 0bbc
00000350: 2151 9b3c 4dd1 023d dc18 683d 1dc6 c33c
00000360: 0dd5 3ebb fb3a d63c 37b6 1b3d 8f22 283d
00000370: 81d5 b43c ed81 823c 767c 9cbb 010c 2ebc
00000380: aa49 d63c 4014 6abb 0d99 9d3c 45c5 c73a
00000390: fb61 81bc 14c6 463c 927d 4a3c 93bf 543d
000003a0: 41d9 233c 8dcd f93c bd09 08bc f74e 253c
000003b0: fc3e 4a3d 0fb1 5f3d f69a 0d3d f7f4 223d
000003c0: c5e6 1f3d 0d23 283d 1bdd d93c a63c e4bc
000003d0: 631a b3ba f424 273c edd1 113c d241 0b3b
000003e0: a434 103d 8086 f13c 960a be3c a190 c63c
000003f0: 26c8 4d3b 579e 50bd 97df ba3c 5bb7 87bb
0.0031009242 -0.002387013 -0.000105701045 -0.011587293 -0.0027790517 -0.0037927928 0.0033136446 0.0070190644
0.003910757 0.0045034518 -0.009905203 0.0007720207 0.021257045 -0.0024270802 0.010416462 -0.023149194
-0.015400844 -0.0040717428 -0.0033141451 0.007034793 0.0075806747 0.004061528 -0.006110877 0.011274989
0.008697598 -0.00010430825 0.00055509474 0.0062645595 -0.010708497 -0.0019810458 0.004725696 -0.004603706
-0.016693162 -0.0008398286 0.02034533 0.002735755 -0.00964816 0.010349288 3.0962035e-06 -0.0060177846
-0.003085472 -0.008749747 0.006585308 -0.014781444 0.01220055 0.007217265 0.009295986 0.007875174
-0.011320964 -0.001827473 0.00035057962 -0.01835194 0.00067800464 -0.0048806695 -0.0022675397 0.009518149
0.017482653 -0.019265657 0.0042642914 -0.009411985 -0.013753295 0.015444352 0.007879488 -0.007856668
-0.010255399 -0.021438958 -0.0099922065 -0.013778494 0.01676082 -0.01608369 0.0064822654 -0.011983092
0.008946153 -0.00912342 -0.0034729873 0.0010826903 0.019239364 -0.0047106333 -0.0026156192 -0.0028102847
-0.023370894 -0.0012432392 0.0029540819 -0.013482139 0.0006385291 -0.004490838 0.0073665376 0.004736341
0.004591338 -0.0151614975 -0.002324592 -0.0042250757 -0.012479037 0.01580104 0.008022889 -0.011975596
0.006082266 0.00132424 0.004507303 0.012946908 -0.0005354714 0.018372266 0.0019239113 -0.016684385
0.008775823 -0.005219079 -0.0008419799 0.0047094445 -0.006979466 0.0044808607 0.0044398676 -0.0054674027
-0.018783657 0.0015909894 0.008820027 0.015597148 -0.021437109 -0.016079692 -0.0047517647 -0.005954265
-0.004487775 -0.0023284743 0.013179213 0.0017134006 0.010753437 0.001481556 -0.009609685 0.0013404979
0.0333456 -0.013590877 0.028749732 0.008077839 0.025075361 0.0038556915 -0.043125294 -0.035588667
0.0058449744 0.03954681 0.0077132946 -0.0022280773 0.03999368 0.058322735 0.024851285 0.0034798456
0.0016342694 0.0057950313 0.01875161 -0.01572415 0.05340062 0.014384951 0.023152439 0.046873774
0.021169791 0.015513432 0.03876606 0.03901117 0.03108233 0.04289792 -0.016450519 0.004983705
0.017425794 0.057229217 0.022660227 0.0023062658 0.019355347 0.008608993 0.010158849 -0.00049464026
0.053309556 0.0148237515 0.03522342 0.004504146 0.024553876 0.011068556 0.008437626 0.016107863
-0.018861046 0.024061486 -0.007614232 0.028981533 0.014163068 0.044382893 0.0018954506 0.062046744
0.026015587 0.048113972 0.03317419 -0.0006208845 0.030058784 -0.025024261 0.025171094 -0.0005707624
0.045359273 0.03982415 0.016005438 0.012287953 0.013055583 0.053192206 -0.03020578 -0.037401233
-0.0033596614 0.019654948 0.038325988 -0.0117376475 0.05061523 0.04263779 0.012141764 0.04983799
0.018576303 0.05026135 0.049280237 -0.008486684 0.018959584 0.031937886 0.056664333 0.023898179
-0.0029118687 0.026151171 0.03801557 0.041048583 0.022074463 0.015931094 -0.004775579 -0.010622979
0.026158173 -0.0035717636 0.01923802 0.0015241286 -0.015793791 0.012132186 0.01235904 0.051940512
0.010000528 0.030493522 -0.008303103 0.0100896275 0.049376473 0.054612216 0.03457161 0.039784398
0.03903844 0.041049052 0.02659469 -0.02786095 -0.001366448 0.010201681 0.008900148 0.0021248949
0.035206452 0.02948308 0.023198407 0.024238886 0.0031399815 -0.050932255 0.022811694 -0.0041417307

bias f4 [64]
00000000: a585 d6ba 868c 673c c99f 76bc 8a7d 573d
00000010: 6551 243d 8c45 0b3c 614c 8a3d 7189 deba
00000020: 509a 973c 9a60 a03c 8fd2 5f3d 8f76 ffba
00000030: 53c3 1f3d bb0a 5b3d 0f1f 50bb 0a3d 4f3d
00000040: 26c6 a83c fa4f 96bb d2c4 d33a d451 5cbb
00000050: 3811 603c 8a29 5abb 7c70 3b3d e4ad 863d
00000060: 807b 59bb c991 243c 3703 563d 6329 763d
00000070: d471 613c c102 4ebc 948c fb3c 2127 693d
00000080: 4cb7 533d d2aa 923d 77be 553d e616 843d
00000090: f872 473d 8f06 093d d870 823d e80c 813c
000000a0: efad 083d ee7d 163d 0558 dd3a 6cd3 563d
000000b0: f8ee f13b b1ae 54bc dbba b53a 67ee 07bb
000000c0: 9fc1 643d a317 c93c 326c 8eba dacd 863d
000000d0: a993 bd3c 8f35 573d 330a 043d 858c a83c
000000e0: 3bb4 5dbc 57b7 633d bcc9 0bbb 05bd babc
000000f0: 1afc abba 0854 513d 64ae 9f3c b17a 71bb
-0.0016366733 0.0141326245 -0.015052744 0.052609958 0.040116686 0.008500468 0.06752849 -0.0016978217
0.0185062 0.019577313 0.054644164 -0.0019490289 0.039004635 0.05347703 -0.0031756794 0.05059532
0.020602297 -0.0045871707 0.001615668 -0.003361811 0.01367598 -0.003328892 0.04576157 0.06576136
-0.0033185184 0.0100445235 0.05224916 0.060098063 0.013760049 -0.012573899 0.030706681 0.05692208
0.051688477 0.07161488 0.052183595 0.0644968 0.048693627 0.03345352 0.063691795 0.015753224
0.033369 0.03674119 0.0016887194 0.05244772 0.0073832236 -0.012981103 0.0013864891 -0.0020741464
0.055848714 0.024547404 -0.0010865985 0.06582232 0.023141699 0.05254131 0.03223629 0.020574817
-0.01353174 0.05559477 -0.002132996 -0.02279521 -0.0013121397 0.05110553 0.019492336 -0.0036846811

weight f4 [10, 64]
00000000: 8107 80ba b2bc 703d 40d3 893d ff5c 62bd
00000010: ee8a cc3b 70e2 863d 43c4 2dbd dfcb cc3c
00000020: a427 b4bc 74a2 bb3b 6617 cdbc 29f2 643d
00000030: 80b4 e6bb 1774 44bd 8888 17bc cc32 fdbc
00000040: 25ba 413d 60e4 86ba 4109 623d 92a2 6c3d
00000050: 98d9 0a3d 614e 673b 3434 6bbd 12b6 2cbd
00000060: 9136 6a3d 26f5 6f3d 5c5b 33bd 5488 3ebd
00000070: 960d 703d 76ee a03c 1af0 b8bc 8f92 14bd
00000080: b183 febb 48d4 40bd ee50 09bd 4f7b febb
00000090: b726 f0ba e959 dcbc 653c 69bd d294 5d3d
000000a0: 7fd2 1e3d 7602 37bc cf75 a23c 2aae 4bbd
000000b0: a5f5 563d ff70 bf3b 5271 4e3d 218b 23bb
000000c0: 5a93 2dbd f1b1 133d 9cb5 013d ce57 00bd
000000d0: 7d3b 8f3d 7b72 d6bc ef36 883d b611 5cbc
000000e0: bf2b ce3b 4456 40bd 4947 743d eec7 7b3c
000000f0: aa6f 38ba 0ea6 2cbd d255 813d 83f1 663d
00000100: fda9 293c c419 e7bc 7b9a 603b ccf6 06bd
00000110: e858 0fbd f120 8c3c bf13 3cbd bf27 4fbc
00000120: b33c f4bc 6943 91bc d8f7 5bbd 9b1b 2cbc
00000130: a180 65bd 2e49 f6bc 6f3a cb3a 8ec4 62bc
00000140: 1492 013c ae90 f43c 311a c03b 95bc 883c
00000150: 296b 43bd 8fd3 4b3c ea83 0cbd fd9a e6bc
00000160: 3d9f 053c e455 fd3c b8c3 01bd 2f9b 0cbd
00000170: 2a7d 9d3b d739 0a3d 34bb 46bd 1f2f e2bc
00000180: 00d7 40bd 361a e1bc a04d f3bc 3170 76bd
00000190: f43e 6abd f479 48bd d431 52bd 3360 593a
000001a0: e98e c4bc 6429 fbbc 8041 a23c af40 a4bc
000001b0: 044d d13a 8af7 35bc 782e 2fba f14c acbb
000001c0: c8d1 58bd a1f6 9dbb dc59 05bd 3713 70bd
000001d0: b601 24bd b83a a93a 6351 0fbb 6fcd 59bc
000001e0: 26f6 acbc 1603 09bd a1c8 c03b 400f 54bb
000001f0: 0f67 9e3b 8f56 47bd 2897 fdbb d339 6dbb
00000200: 2077 45bc 0c7c 83bb c96e 973c 9444 22bd
00000210: 9782 8dbd 812b 23ba aa22 87bd f93a 0d3c
00000220: 3f06 14bd f839 ecbc c074 08bd 5787 0f3c
00000230: 6f13 17bd f75b 36bd bb4b c7bb ca2f 35bd
00000240: e6ed 71bb c580 323c 8c34 28bc 1af0 b8bb
00000250: f302 fcbc f8ae 17bc 281f aabc b12d 96bd
00000260: 36f0 a7bb 0daa 5e37 68f4 32bd ef43 fbbc
00000270: dab0 1b3c f1f2 f4bb 6c94 4fbd 9766 1cbd
00000280: e0a2 1fbd ae59 43bd 315d 66bd 948e 1abd
00000290: 653f 70bd 87b8 01bc 0699 66bd af3e 143b
000002a0: 05a3 e7ba f542 a2bc 254b d9bc c01b 22bd
000002b0: 3879 1d3c bd99 a2bc 31bb fc3c 7fdf 2a3c
000002c0: 33c3 36bd 80c9 d9bc 6616 0abd 6688 32bd
000002d0: 1d93 23bd e6d3 cfbc 58bf 10bd ee9d 8abc
000002e0: e303 9b3b fc51 1fbd 25c7 e23b 5da1 063d
000002f0: 6706 0abb 6c65 a9bc 9cc8 33bc 0fd3 b53a
00000300: 8f9c 803c 53d0 aebb 8076 babc c36b 05bd
00000310: 1736 2bbd 112c 40bc 26ff c2bc 1d5c 993c
00000320: 0a68 fbbc 2caf 43bd 9db8 0cbd ae09 bcbb
00000330: 3874 febc 886f c6bc 8f57 563b ba8f 8dbc
00000340: 6847 11bc 1205 f4ba 3151 ad3c d3ed 253c
00000350: 3ab9 84bc e06f ddbc a1e6 98bc c1d9 60bd
00000360: 4fff 613b 8df1 fc3b 464f 07bd 3cec 14bd
00000370: 149c ddbc bb57 bc3c 1734 7fbd fb05 65bd
00000380: 06c8 03bc 9730 4abd 5658 0cbd 0099 91bc
00000390: e8cb 0fbd 3169 22bd 18d7 09bd f68c 9a3a
000003a0: 85df e4bc cc0a cabc 8f92 d83a ca24 34bd
000003b0: 1795 6dbb d050 8abc a937 543c 4854 91bc
000003c0: 78f4 41bd 74c6 2dbd caef 14bc 3d26 d8bc
000003d0: fd78 aebc 381d 04bd 63cb adbc 6ec7 acbc
000003e0: 1143 b9bc 5d1c f2bc 4390 903a e393 18bc
000003f0: 0ff3 ce3c c481 6ebc aab1 24bd 461e 52bc
-0.0009767861 0.058773704 0.06729746 -0.05526447 0.0062421476 0.06586158 -0.042423498 0.024999557
-0.021991558 0.005726153 -0.025035571 0.055895004 -0.0070405602 -0.047962274 -0.00924886 -0.03090801
0.047296662 -0.001029145 0.055184606 0.057772227 0.03389892 0.003529452 -0.05742283 -0.042165823
0.057180945 0.0585834 -0.0437883 -0.04651673 0.058606707 0.019644957 -0.022575427 -0.03627258
-0.0077671637 -0.047077447 -0.033524446 -0.0077661644 -0.0018322085 -0.026898341 -0.056942362 0.054097004
0.038774963 -0.01117002 0.019831566 -0.049726643 0.05248036 0.0058423276 0.05040104 -0.0024954753
-0.042376854 0.03605837 0.031667337 -0.031333737 0.06993768 -0.026177635 0.06651103 -0.013431957
0.006291836 -0.04695727 0.059638295 0.015367491 -0.0007035682 -0.04215055 0.06315197 0.056382667
0.01035547 -0.028210528 0.0034271765 -0.032950208 -0.034996897 0.017105551 -0.04591727 -0.012643754
-0.0298141 -0.017732339 -0.05370316 -0.0105046285 -0.056030873 -0.030064192 0.0015505085 -0.013840808
0.007908363 0.029854145 0.0058624973 0.016691485 -0.047709618 0.012440576 -0.03430549 -0.028150076
0.008155641 0.030924745 -0.031680793 -0.034327682 0.0048061805 0.033746567 -0.048518375 -0.02761036
-0.04708004 -0.027478319 -0.0297001 -0.060165588 -0.057188943 -0.04894443 -0.05131705 0.0008292228
-0.023993926 -0.030659385 0.019806623 -0.020050375 0.0015968387 -0.011106381 -0.00066826446 -0.0052581956
-0.052934438 -0.00482066 -0.0325564 -0.058612075 -0.040040694 0.0012911176 -0.0021868579 -0.013293608
-0.021113466 -0.03345021 0.005883292 -0.0032357723 0.004834063 -0.048666533 -0.0077389665 -0.0036197796
-0.012052327 -0.0040125903 0.018485444 -0.039616182 -0.06909674 -0.0006224439 -0.065984085 0.008620017
-0.03613877 -0.028836235 -0.033314466 0.008760295 -0.036883768 -0.0445213 -0.006082026 -0.04423503
-0.003691548 0.010894959 -0.010266434 -0.0056438567 -0.030763125 -0.009258024 -0.02076681 -0.07332934
-0.005125071 1.3271824e-05 -0.043690115 -0.030672042 0.009502614 -0.00747525 -0.050678656 -0.038183775
-0.03897369 -0.047692947 -0.056241218 -0.03773363 -0.058654208 -0.00791753 -0.05629828 0.002262037
-0.0017672485 -0.019807318 -0.02652509 -0.039577246 0.00961142 -0.019848699 0.030850979 0.010429262
-0.04461975 -0.02658534 -0.033712767 -0.04358711 -0.03993522 -0.025369596 -0.03533873 -0.01692101
0.004730688 -0.038896546 0.0069207125 0.03286873 -0.0021060945 -0.020678245 -0.010973122 0.0013872104
0.015699653 -0.005334893 -0.022761583 -0.032573473 -0.04179963 -0.011729256 -0.023803305 0.01872068
-0.030689258 -0.04777448 -0.03435575 -0.0057384586 -0.031061277 -0.024223104 0.0032705998 -0.017280448
-0.008867122 -0.0018617234 0.02115688 0.0101275025 -0.016201604 -0.027030885 -0.01866466 -0.054895166
0.0034484451 0.007719225 -0.033034585 -0.036358103 -0.027051963 0.022991052 -0.062305536 -0.055913907
-0.008043295 -0.049362745 -0.03426393 -0.017773151 -0.03510657 -0.0396511 -0.033652395 0.0011791277
-0.027938614 -0.024663351 0.001652317 -0.043980397 -0.0036252195 -0.016884238 0.012952724 -0.017740384
-0.047352284 -0.042425588 -0.009090373 -0.026385421 -0.021297926 -0.032254428 -0.021215146 -0.02109119
-0.022614988 -0.02955454 0.0011029321 -0.009312603 0.025262384 -0.014557306 -0.040208496 -0.012824601

bias f4 [10]
00000000: 9a26 5f3c 1106 07bd b31f 24bd bcff 913a
00000010: 80c5 043d bdae d1bb e853 fcbb 2453 163d
00000020: 31f8 473c b683 783d
0.013620043 -0.03296477 -0.040069293 0.0011138837 0.032414913 -0.0063990043 -0.007700432 0.036700383
0.01220517 0.060672484
