models/DPG_dist.pth (torch, 191843 bytes, 18 tensors)

weight f4 [128, 50]
00000000: c8fe de3d 1fed 0ebe d83f b7bd 35aa d8bd
00000010: ac64 ee3d 0254 b4bd 427f 9abd 5c63 e83d
00000020: 9203 03bd 8344 a3bb f326 04be e7fb 52bd
00000030: 2c96 b5bd 956a 553c fd96 b63d 4cf9 05bd
00000040: 227d 353e 43f7 ccbd 7693 a1bd 786d 7e3d
00000050: 82c5 febd c435 e4bc dd7b 8e3d 25f1 0c3d
00000060: e8c4 25bd 1b01 aabd 1fd6 a3bd 4195 45bd
00000070: 46b5 99bd 0508 dfbc bd95 bbbc 75d0 9d3d
00000080: 123f 983d a4c9 e63d 6ad7 babb 4f28 1e3c
00000090: f6e8 1dbe b0c0 c0bc 45fa f13d c542 1bbd
000000a0: 7c8e b2bc 2f6e ec3c 50e3 43bd bb96 8ebd
000000b0: 94b4 f83d 6c3e cfbd 2eac 79bd 4986 8dbd
000000c0: 2045 84bd bdfa cabc 4399 f03d ce7d d6bd
000000d0: e6b5 bd3d ec4e fbbc 6bfd e9bd 3125 7f3d
000000e0: e7c1 d4bd de0d 1d3e ec83 a63d 48b0 0dbd
000000f0: 49c6 b43d 511b e4bd 9fb9 c4bd e4e6 f7bd
00000100: 581f a33d 0b18 c73d a00a 0ebd a20c 973d
00000110: 46ba ab3d 9366 2a3e 20e1 ccbd 952b b6bb
00000120: 43ac 3cbd e399 453d 83a8 82bd c748 c73c
00000130: f548 17bb 2294 9d3c f7d3 153e 25eb 9cbd
00000140: c545 8fbd 8a66 a13d 2aeb cf3d 2d2a c53d
00000150: 9f11 123e c284 0f3e dfdb cf3d cbbe a33d
00000160: 746d 473d 4de5 063d b35e 6ebd d1b7 bfbc
00000170: 715a b13d 8b5e b23d a319 84bd a4ec 803c
00000180: 3442 373d e465 82bd 590b bebd 0cfd e03c
00000190: 1734 173e cbb2 f0bd b928 953d 7c21 073d
000001a0: 3043 c83c 194a 013e fe46 463d d4f6 13bd
000001b0: fdeb 19bd ef12 dcbd ae3a 67bd 14b1 713c
000001c0: a2c6 a9bd 94db 3cbd 66e3 b23d 32ad 933d
000001d0: eeba 85bd 5da5 4d3d 11fe e2bc 44c8 233e
000001e0: 219e 053e 2d28 c5bd d1dd bdbd 07df ffbb
000001f0: c684 803c a039 4a3d 0e57 68bd 6f58 b43d
00000200: ea8d 1a3e c808 d4bd a201 e9bd 5cda b73d
00000210: 932b 84bd 6dbf 263e f601 a03d c87d b43b
00000220: 22d8 023e e9a5 ff3d 7e0b 2abd 1cdf f83d
00000230: afae 693c 4b29 c73c a0b2 aabc 96c0 113e
00000240: e415 453d fb5d 4cbd a659 e5bd 6263 88bd
00000250: 6573 f1bd 5a0b e6bb 80e4 da3d 96f5 d23d
00000260: fefb 3cbd 2938 ec3d 0dd6 e4bb b4c4 acbc
00000270: 3257 14be 2228 34bd ef8e d43d 15a9 f13d
00000280: bcb2 6dbd af3b 99bd 27ae aa3d 9b9b 96bd
00000290: 3aac 9bbd ebd8 c93d ecb6 ee3d 3c18 83bc
000002a0: d52f aabd baf0 7a3d 9d10 ae3d 2ac3 433d
000002b0: 486e 3dbd 7f4c d03d e780 9ebd 737f 13be
000002c0: 9411 e1bd 11d3 b83d b679 8f3d 8458 11be
000002d0: f23d 3abd 5659 a03d 01e6 81bd 0d1c 273e
000002e0: f4e9 15bd a9ac 84bc f63e e53d a4f4 2f3d
000002f0: b06b 8c3d e40d a13d 58c2 09be 9298 a6bd
00000300: d74c bc3d bbdc 1dbd b064 8d3d 3b22 233d
00000310: 2417 9abd 6c26 e23d dcde 083e 0542 113d
00000320: 4c93 803d cb40 cfbd 9619 6abd 576c c33c
00000330: d47d ccbd a33e cbbd 6aa2 c6bd ee24 40bc
00000340: adfc d4bd 8632 86bd 0f15 8ebb a8f6 5cbd
00000350: 4467 0abe 549a 9abd 3d91 62bd a0c9 fc3d
00000360: 8b96 d13d d730 cabd 14a8 433c 7622 cbbc
00000370: ed98 033e a8d6 c8bd 325a 78bd 97c5 083e
00000380: f0b8 ec3d 823d 943c adaa 03bd f054 4e3d
00000390: 0e0f 52bd 3a69 59bd c254 483d f7c3 c9bd
000003a0: 04f2 583c 2b90 24bd 0691 02be 2bc3 e63d
000003b0: ff83 56bd c203 06be 7d13 da3d ce6c 2c3d
000003c0: f55e 113e 54f9 f93d 8cb3 353d d656 63bd
000003d0: bdf0 083e 6090 c8bb 2ac5 113e cc85 2b3d
000003e0: 90ef 123e 6551 a23d 3037 933d a6e1 cd3b
000003f0: c344 913c 6b2a b23d b683 c9bd f2b6 a4bd
0.108884394 -0.13957642 -0.08947724 -0.105793394 0.116402954 -0.08805086 -0.07543804 0.11347076
-0.031985827 -0.0049825325 -0.12905483 -0.051509764 -0.08866534 0.013025899 0.089155175 -0.03270845
0.17723516 -0.10008099 -0.07889454 0.062116116 -0.124400154 -0.027857669 0.06957219 0.03440966
-0.040470988 -0.08300992 -0.07999825 -0.048238043 -0.07505278 -0.027225504 -0.02289855 0.07705776
0.07433905 0.11268929 -0.005701949 0.009653165 -0.15420899 -0.02352938 0.11815313 -0.037905473
-0.021796457 0.028861133 -0.047824204 -0.06962343 0.121438175 -0.10119328 -0.06095522 -0.069103785
-0.06458497 -0.024777764 0.11747982 -0.10473214 0.0926321 -0.030677281 -0.11425289 0.062291328
-0.103885464 0.15337321 0.08130631 -0.034591943 0.088268824 -0.11138023 -0.09605717 -0.12104586
0.07964963 0.09721383 -0.0346781 0.073754564 0.08385138 0.16640691 -0.10003877 -0.0055593946
-0.04606272 0.04824246 -0.06379797 0.024326695 -0.0023084257 0.019235674 0.1463164 -0.07662038
-0.06995729 0.07880886 0.10152276 0.09627185 0.14264534 0.14015487 0.10149359 0.07995375
0.048688367 0.032933522 -0.05819578 -0.02340308 0.086598285 0.08709439 -0.06450202 0.015737839
0.04474087 -0.0636709 -0.09279508 0.027464412 0.14765964 -0.11752852 0.07283158 0.032990918
0.0244461 0.12625922 0.048407547 -0.036124066 -0.03757857 -0.10745799 -0.056452446 0.014751691
-0.08289839 -0.046107844 0.08734779 0.07210769 -0.06529795 0.05020653 -0.027709039 0.15994364
0.13048603 -0.096268035 -0.09270824 -0.0078085694 0.015688311 0.04937136 -0.056723647 0.0880593
0.15093198 -0.103532374 -0.113772646 0.089771956 -0.064536236 0.1628396 0.07812874 0.0055081584
0.1277776 0.12482817 -0.041514866 0.1215193 0.014262839 0.024311682 -0.020837128 0.14233622
0.04811658 -0.049894314 -0.1119874 -0.06659581 -0.11789588 -0.007020396 0.10688114 0.10300748
-0.046138756 0.11534149 -0.0069835247 -0.02108989 -0.14486387 -0.043983586 0.10378825 0.11799828
-0.058031783 -0.07482087 0.08333998 -0.07353898 -0.07601209 0.09855827 0.11655983 -0.016002767
-0.083099045 0.06126473 0.084992625 0.047793545 -0.04624775 0.101708405 -0.0773943 -0.14404087
-0.10989681 0.09024633 0.070056364 -0.14193922 -0.045469232 0.078295395 -0.06342698 0.16319294
-0.03660007 -0.016195612 0.111936495 0.042957917 0.06856477 0.078639776 -0.13453043 -0.08134569
0.091943435 -0.038540583 0.0690397 0.039827567 -0.07523945 0.11042485 0.13366264 0.03546335
0.06278095 -0.1011978 -0.057153307 0.023855371 -0.09984937 -0.099240564 -0.09698947 -0.011727555
-0.103997566 -0.06552605 -0.0043360065 -0.053946167 -0.13515955 -0.07548967 -0.05531429 0.123431444
0.10233792 -0.09872597 0.011941928 -0.024796706 0.12851305 -0.098065674 -0.060632892 0.13356625
0.115587115 0.018095735 -0.03214519 0.05037397 -0.05128389 -0.053078867 0.048908956 -0.098518305
0.013241295 -0.04017655 -0.12750635 0.11267694 -0.052371975 -0.13087371 0.10648248 0.04209595
0.1419638 0.12205759 0.044360682 -0.055502735 0.13373084 -0.0061207265 0.14235368 0.041875646
0.14349198 0.07925681 0.071882606 0.006283003 0.017732983 0.08699497 -0.09839575 -0.080427065

bias f4 [128]
00000000: 51dc c6bc 9592 e13d adcf a4bd a199 05be
00000010: 5bdd 393e fd0b ad3d 9a3a 4c3b 6db0 bebd
00000020: e745 d9bd 4260 193e 6f38 9bbc 19fd 0e3e
00000030: 0cc0 cbbd aa4e bc3d 5262 d73b 0b1b 5fbd
00000040: 7628 b83d 8060 10bd a1a2 9c3d bd8b 01bc
00000050: 2ea4 d0bd 0188 a7bc afcc d83d b8b6 17bb
00000060: 2f51 0c3e 746c 1c3d 087a a9bd 855e ce3d
00000070: e999 413c 5f09 9ebd af83 d43d 4201 153e
00000080: 92b9 0d3e 3877 473d e5ca a5bc cc87 9cbd
00000090: fd0e 4a3d b815 3d3d 07c6 99bc 399e adbb
000000a0: 8417 083e 5a4e 9d3d 57c1 cd3b 4087 7abd
000000b0: edd8 08be 852a e8bc cfa7 603e 0f3d 693e
000000c0: 0487 3b3d ac42 ed3d 89a2 d7bd 5a31 a4bc
000000d0: 7faf f73d 5110 e5bd 4bee 483e f8f7 8cbc
000000e0: 83ba 743d 9987 733d 63b9 c43d 5722 163e
000000f0: 42b8 d7bd 5e96 363d ba89 e9bb 5f53 e23d
00000100: aa94 c33d b3ba f93d bfb7 893d 1575 cb3d
00000110: 8ec1 aa3c d365 95bd 1b7f fcbc 4f96 24bd
00000120: b931 35bd 417d a7bd 5ac3 6fbd 6022 27bd
00000130: 24d3 063e 832f 363e a083 a13d 297a 76bd
00000140: ac8d 273e c77f e33d aa03 813c 8e1e eb3d
00000150: dd2b 6dbd 2dc9 173c 15cc 363d 81be 4bbd
00000160: 34c9 6c3d ebb9 3d3e 392b 6c3d 6f27 21be
00000170: d415 923c 5acc 8dbd f0bf 8a3c e72e 1e3e
00000180: 8630 883d ec41 ab3d b9b3 37bd 08fe 073e
00000190: 2cf1 00be 1f6b de3d acb6 ecbb 5fe5 86bd
000001a0: 71a4 0e3e 1a3d bebd 6c2a 0dbe 2559 903c
000001b0: 7e8e 123c 99aa 74bd f44e e23d c110 6f3d
000001c0: 6b66 a2bd a6bc de3d 29ec b5bd 32a5 c53d
000001d0: b671 a1bd 0688 39bd b5f2 3b3e 5d83 383d
000001e0: d9c1 35bd 5a1c 4b3e fd8a 07be 6840 ba3b
000001f0: e233 173e 8dfe 7abb f6cf 1dbe c948 06be
-0.024274977 0.110142864 -0.080474235 -0.13046886 0.18150847 0.08449552 0.003116286 -0.09310994
-0.10609036 0.14978126 -0.018947808 0.13963737 -0.099487394 0.091946915 0.006573 -0.05446915
0.08992092 -0.03524828 0.076482065 -0.007906851 -0.10187565 -0.020450594 0.10585915 -0.002314968
0.13702844 0.038189366 -0.08275229 0.10076622 0.01181648 -0.07716631 0.10376679 0.14551261
0.1384032 0.04869768 -0.02023835 -0.07643089 0.0493307 0.04616329 -0.018771185 -0.0052984026
0.1329022 0.0768096 0.0062791514 -0.06116414 -0.13364 -0.028340587 0.21939014 0.22777198
0.045783058 0.11584982 -0.10529048 -0.020043064 0.1209402 -0.11184753 0.19622152 -0.017208084
0.059748184 0.059455488 0.09605672 0.14661537 -0.10533191 0.044576995 -0.007127014 0.11051058
0.0954984 0.12193813 0.067245 0.09934441 0.020844247 -0.07294812 -0.030822327 -0.040182408
-0.044236872 -0.08178187 -0.05853591 -0.040804267 0.13166481 0.17791562 0.078864336 -0.060175095
0.16362637 0.11108356 0.015748817 0.11480437 -0.05790316 0.009264273 0.04462822 -0.049742226
0.05780907 0.18527953 0.057658408 -0.15737699 0.017832674 -0.069237426 0.016937226 0.1544758
0.0664988 0.08362183 -0.04484913 0.13280499 -0.12592 0.108602755 -0.0072239246 -0.06586718
0.13929917 -0.09288998 -0.13785714 0.017620632 0.008945106 -0.059733007 0.11050215 0.058365587
-0.07929691 0.108758256 -0.088829346 0.09650649 -0.07883017 -0.045295738 0.18354304 0.045047153
-0.04437432 0.19835034 -0.13236614 0.0056839474 0.14765885 -0.0038298697 -0.15411362 -0.13113703

weight f4 [64, 128]
00000000: 2158 debd 508d 82bd b192 af3c c84f e43c
00000010: 8303 7abd ea11 a8bd 54ab 82bc a504 243d
00000020: 36d9 a6bb 6822 843d 8f92 38bd ad03 183d
00000030: bd4a 913d eb84 e9bc c69f e03c 72a5 b5bd
00000040: 98ac 50bd d829 af3d 1c6d 523d fae1 a4bd
00000050: ba20 92bd dc89 73bc 64e7 c1bd 6d87 8a3d
00000060: 64ea 813c 9cc4 40bd c8f1 f03c cd62 86bd
00000070: 4109 82bd 0167 12bd 082d d2b9 8a8c 2bbd
00000080: af38 b1bd f513 573d db76 b3bc e9f3 40bd
00000090: 14cc db3c df04 5f3c 16da 94bc a5d6 f0bc
000000a0: 3611 393c 81ad a5bc 5c99 e5bc 95fc ce3c
000000b0: 3b0e 25bd cde1 fa3c fe15 93bd 6480 053b
000000c0: e861 62bd 6a50 fc3c 58e4 ae3c 4fb6 ccbd
000000d0: e34c 613d 7ae8 45bd 43c7 a63d 1896 283d
000000e0: b930 a83d cffa a0bd b566 403d 027f 25bc
000000f0: 62d1 8cbd c5ef 63bd 1589 7bbd 86c3 a0ba
00000100: a8fc 523d dfd8 c0bd a2c8 c33c 5a7e c03c
00000110: cbab 213d ebdb 8ebd 9743 ba3d 6e0f 97bd
00000120: 841d 8f3d f68e a8bd de18 623d 8311 9a3c
00000130: e22d d03c af7f 71bb b521 70bd 94da 9b3c
00000140: 02f5 abbd 9d9b 423d d0ca a83d 1d6c c6bd
00000150: c3dd db3c 5afe 5d3b fdef a9bc 88a5 593d
00000160: ec20 afbd af2c fb3c d1a1 723d 8a08 083d
00000170: 12b1 d9bc 4bfd d53c b16f a23c 4201 d6bc
00000180: 5b3f 413d d68a a8bd 7422 f43c dd1d 3f3d
00000190: 0dbb ff3c 107d 36bd a31c d6bc 6071 cbbc
000001a0: 31e2 3fbd f500 863d 7f8d 4c3a 1635 963c
000001b0: 59d9 f53c 7ad1 f63c 8c96 773c 834e 78bd
000001c0: 69b5 6abd d18d eebc 0ac6 c23c bb3b 4c3d
000001d0: 88ad 64bc 4510 543c 1e9b 08bd a7a6 a83c
000001e0: f327 093d 26fd ac3c eb6d 2e3d 61de 46ba
000001f0: 4fef c9bc cf91 b5bd 9c61 03bd 47ff ecbc
00000200: 82e5 da3d a7f9 c0bd bf17 8e3c 63be 1d3d
00000210: 0e3a 07bd b5ab 5a3d 5475 33bd f27e b13d
00000220: eac0 dbbc 60bc 043d e5eb bbbb 83ba 043d
00000230: d367 72bd a6bb 873d 0f16 613b e1cc 14bc
00000240: 47f9 89bd 6764 693d e0b1 993d 772b 06bd
00000250: fbea 0dbd 0316 b93c fcbb 46bd 0851 573d
00000260: a100 59bd 3d79 f2bc 3481 94bc 30af 483d
00000270: 9bff b83d c23d 07bd 0a86 3c3c 55d6 a4bc
00000280: 4df9 823d 2ba9 91bd 4b26 423d 74f4 ed3c
00000290: 3cba 71bd 8203 c6bd f67b cdbc 8f1d 993c
000002a0: 6b62 9ebc f9a6 8bbb 6c41 72bd 6ff2 843c
000002b0: 9091 dd3c a560 a53d 1fa5 f03d 0f07 f73d
000002c0: 0dcd 8cbc f39b a33d 0bcf 8abd 8b37 42bd
000002d0: a222 bdbc 3027 643b bbea af3d 8e4b a83d
000002e0: df94 78bd 26ed 6abb 30d0 603d 4f39 66bd
000002f0: c9e4 43bd ecc9 eb3d a923 023b 0838 13bd
00000300: e04a 683d b88e 82bd 2e96 2c3d 1330 343c
00000310: ccb9 4cbc e2c8 dd39 7d67 b43c 70d0 283a
00000320: c646 613d 3189 8e3d 1f67 f6bc 53f3 113d
00000330: d1ac c9bc f941 b33b 4078 fa3d 134b c23d
00000340: 3dca c93d c7a4 8b3d 9814 ce3d 5cf8 143d
00000350: 145b abbc 41a2 1dbd 3603 7a3d e321 e13c
00000360: a517 86bd a6a6 87bd ba67 393d aacb d2bc
00000370: 9c97 75bd 4b08 59bd 4b67 26bd 136c 38bd
00000380: 61c8 ad3d 9d81 203d 3864 f63b 4e64 dc3d
00000390: d72d 32bd a213 0b3d e05e 5e3d 0571 8f3d
000003a0: cd88 bf3c ecc3 363b becf 4a3d a57a 53bd
000003b0: 1ca8 69bc 3614 623c b738 9fbd 73dd b33c
000003c0: d434 9fbd 01a1 14bd a214 7abb d3ef f23a
000003d0: 6f28 34bc bd27 44bd 1f77 203c e61c 2ebd
000003e0: 0096 a4bc d223 ce3c a4cc 07bd cdc5 e9bc
000003f0: c571 62bd aa3a 4cbd 3f61 833d 4173 0f3d
-0.10856653 -0.063746095 0.021432253 0.027870074 -0.061038505 -0.08206542 -0.015950836 0.040043492
-0.0050918115 0.06451875 -0.045061644 0.03711288 0.07094333 -0.028505763 0.027419936 -0.08869447
-0.05094585 0.08552903 0.051373586 -0.08050914 -0.07135148 -0.014864411 -0.094679624 0.06764112
0.015858836 -0.0470625 0.029412165 -0.065618135 -0.06349421 -0.035742763 -0.00040087872 -0.041882075
-0.0865339 0.052509267 -0.02190726 -0.04710761 0.02683071 0.013612001 -0.018170398 -0.029399225
0.011295607 -0.020224335 -0.028027229 0.025266925 -0.040296774 0.030625248 -0.07181929 0.0020370716
-0.055269152 0.030800063 0.021349117 -0.0999571 0.055004966 -0.04831741 0.08143475 0.041158766
0.08212418 -0.07860338 0.04697295 -0.010101082 -0.06875874 -0.055648584 -0.06141003 -0.0012265302
0.051510483 -0.09416365 0.02389938 0.02349775 0.039470475 -0.0697554 0.09094923 -0.0737599
0.069880515 -0.08230393 0.055199496 0.018807178 0.025412504 -0.0036849787 -0.058625896 0.019025125
-0.08396341 0.047511686 0.082418084 -0.0968859 0.026839143 0.003387353 -0.020744318 0.05313638
-0.08551201 0.030660955 0.05923635 0.03321127 -0.026573692 0.026121756 0.01982865 -0.026123647
0.04717956 -0.08229606 0.029801585 0.04665934 0.031217122 -0.044552863 -0.026136702 -0.024834335
-0.046846572 0.06543151 0.0007803067 0.01833586 0.030010866 0.030129183 0.015111577 -0.06062175
-0.057301912 -0.029120358 0.023776073 0.04986165 -0.013957389 0.012943332 -0.033351056 0.020587279
0.033485364 0.021116804 0.042585295 -0.00075862376 -0.024650244 -0.088657014 -0.03207551 -0.02893032
0.106883064 -0.094226174 0.017345307 0.038511645 -0.03301435 0.05338641 -0.043813065 0.08666791
-0.026825387 0.03240621 -0.005734908 0.032404434 -0.059181046 0.06627588 0.0034345423 -0.00908205
-0.06736999 0.056980517 0.0750463 -0.032756295 -0.034647923 0.022593504 -0.04851912 0.05256751
-0.052979115 -0.029598827 -0.018128015 0.048995197 0.09033128 -0.03301788 0.011506567 -0.020121733
0.063952066 -0.07112344 0.0473998 0.029047228 -0.059015498 -0.09668638 -0.025083523 0.018690852
-0.019334039 -0.004261848 -0.059144422 0.016228883 0.027046949 0.08075074 0.11750244 0.12061893
-0.01718762 0.07988729 -0.067777716 -0.04741625 -0.023087803 0.0034813397 0.08589693 0.08217536
-0.06068885 -0.0035846918 0.054886043 -0.056206997 -0.04782561 0.11513123 0.001985768 -0.035942107
0.05671203 -0.06374878 0.04213541 0.01099779 -0.012495469 0.00042302074 0.022022003 0.0006439751
0.054999135 0.06959761 -0.030078469 0.035632443 -0.024618538 0.005470511 0.12229967 0.094869755
0.09853027 0.06818538 0.10062522 0.036369666 -0.020917453 -0.038484816 0.06103822 0.027481979
-0.065474786 -0.066235825 0.045264937 -0.02573188 -0.05995904 -0.052986424 -0.04062585 -0.045024943
0.08485485 0.03918611 0.007519271 0.10761319 -0.043500748 0.03395427 0.0542897 0.07003979
0.023380661 0.0027887775 0.049514525 -0.051630635 -0.014261272 0.013798764 -0.077744894 0.021956181
-0.07773748 -0.036286358 -0.003815927 0.0018534608 -0.010995968 -0.04788946 0.009794026 -0.04250803
-0.020091057 0.025163565 -0.033154145 -0.028536702 -0.05528428 -0.049860634 0.064150326 0.035022024

bias f4 [64]
00000000: 4da6 c2bd 3dc9 783d fa8c 21bc 9c95 463d
00000010: b4dd 35bd 72ba 113a f408 a93c b156 63bc
00000020: aab3 363d 8441 3abd 1b08 9c3d ce45 86bd
00000030: 448a 033d 8560 92bd b3ee e8bc b713 25ba
00000040: 26de f3bc 49bf 423d 81a0 4fbd 9bdd 6b3d
00000050: 4032 63bc 0251 8cbd 11da 6f3d 5b30 a83d
00000060: 6a21 c9bd 9d44 523d 15ea 53bd c981 51bc
00000070: c9cd f13c def7 5f3b ea90 b63d 581b 733d
00000080: ba11 893d 9ee8 ae3c 2c0c 6a3d 2ed0 c6bd
00000090: 3ebf 3f3c 0f93 0bbd d119 0d3c 4823 03bc
000000a0: 1abb 893d b58e 5cbc d0db 88bd 59c5 0b3e
000000b0: f382 043c 6863 c5bd 295c 75bd 7b28 bdbc
000000c0: 1e3d fbbc 31aa 0d3d 3b5a b23d 00c9 1d3d
000000d0: f768 aa3d dd6f 1d3e 29e8 8b3d d076 e23c
000000e0: fb4a 0dbc 8932 22bc 02fa 87bd 205b 85bc
000000f0: c691 c13c 9945 34bd ea80 983c 5103 1f3d
-0.095043756 0.06073879 -0.009860272 0.048482522 -0.044400886 0.00055590936 0.020634152 -0.013875649
0.044604935 -0.045472637 0.076187335 -0.06556283 0.032114282 -0.07147316 -0.028434133 -0.0006297188
-0.029769015 0.047545705 -0.050690178 0.057584386 -0.013866961 -0.068513885 0.058557574 0.08212348
-0.09820826 0.051334966 -0.05173691 -0.012787291 0.029517071 0.003417484 0.08914359 0.05935225
0.06692834 0.021351155 0.057140514 -0.09707676 0.011703311 -0.034075793 0.008612112 -0.008004017
0.0672514 -0.013461758 -0.06682551 0.13649501 0.008087861 -0.09638101 -0.059902344 -0.023090592
-0.030668791 0.034586135 0.08708616 0.038521767 0.08320802 0.15374704 0.068313904 0.027644545
-0.008623834 -0.009899744 -0.06639482 -0.016278803 0.02362908 -0.044011686 0.018616159 0.038821522

weight f4 [10, 64]
00000000: fdd2 dd3d 1708 77bd b5be c43d 28d4 0bbd
00000010: 0f52 4ebc 334b 443d 5dc7 ad3d 3927 18bd
00000020: 07c9 9bbd ab6a f5bd 158a 04bd 1357 51bd
00000030: d3d7 83bd 2c0d 6fbd 79fb ae3c d3ec d73d
00000040: 1a90 a2bc 698d 55bd 5657 bfbc fff1 03bd
00000050: 1e11 883c 690a eb3d 3517 54bd c834 05bd
00000060: 3d40 6b3c 3978 e0bd b6b1 4dbd 19fd 03bd
00000070: 9892 a0bd ae58 973d fde4 58bd 00e1 553c
00000080: e5ee bd3d 3a76 69bd 3948 a6bc 1c5b dabd
00000090: 2ac7 26bd cc37 a83d 1af7 b9bd 2177 c03d
000000a0: 6c70 02be 24ec 013e 66e9 f3bd de0a f9bd
000000b0: 8a37 c5bc bfb9 223d d42a cf3d 4b83 c43b
000000c0: 7ff3 e33c 68d3 b4bd 1bea d3bc 7106 b73d
000000d0: 2248 a93d 9520 0abe 26c6 67bd dc21 0dbe
000000e0: c3a1 ea3d 2169 96bd 6cab aa3d 211b e6ba
000000f0: 50fa 993d b73d 953c 1879 86bd 6333 cabd
00000100: 9550 c4bd 3552 84bd 1be9 993b c9d8 a4bd
00000110: 589c 8fbb 961b 17bd 9cf6 6bbb a7c4 88bc
00000120: b4c7 533d 87f1 3fbd 6a45 efbb ceb7 d33d
00000130: e53d 54bc 8c87 163d 77c0 093d 04d8 ddbd
00000140: bc7e 1a3d dce5 03bd 41cf 82bd 2bd2 993d
00000150: 5fbd 96bc 71ec e93d 8f8d 8abd cb82 cb3d
00000160: b929 f93c 0fc0 01be 3b27 dbbb 478f 5fbd
00000170: c911 a93d c146 103d 7245 d8bb f8c9 1fbd
00000180: 89f7 e7bd c48a b53c d713 ccbd 5968 473d
00000190: fd0a ffbd 57ec 71bd e2b1 3dbd c6b2 c0bb
000001a0: 8550 43bd 6e13 36bd adcb 083e bb79 533d
000001b0: 7437 4f3d 6765 dbb9 89f3 c53d 4645 473d
000001c0: 4877 2cbc 7b2a d2bc 8885 bbbd 4b1f ccbc
000001d0: f63d a93d de7a 89bd 065a 7cbd 02cd 853c
000001e0: e1b0 ce3d 4c4a f93d c8f2 72bb e5ed b03d
000001f0: b38c bc39 5cfe a13d fc65 c1bd 1c5e 003e
00000200: 6c02 9dbd 58f4 3e3c 662d aa3d 02bd e63d
00000210: 9bcc 543c 1914 85bc 36f8 0fbd 3d05 db3d
00000220: 7971 cbbb a00d 5a3d 6fe5 ab3d e9c5 3c3d
00000230: fa13 c5bd 3091 363d d950 cfbc 3bbf 4abd
00000240: dbac aebd 96b5 903d 73f6 ecbd dae1 353b
00000250: 2786 f23d 741c 30bd 3932 5f3d a9da 59bd
00000260: 0b67 be3d 6c71 06bc 5330 f0bd 3812 b33c
00000270: c7bc 57bd f533 4ebd 51e2 5cbd f837 5fbd
00000280: f58a 873d f303 c6bd c2e2 7d3c 280b 4ebd
00000290: a1b0 aebd 93eb e13d d769 9dbd f2fa 2dbc
000002a0: 74f5 c9bb ae22 c5bd 279a 39bc 3d4d 0abe
000002b0: 71c0 753c afb4 663d 2242 723c 0966 693d
000002c0: 7035 69bd dd87 ebbc 62f3 0ebd 94cc 9a3b
000002d0: f8f1 883d 4de0 e43a 64d9 35bc 1fb8 6e3c
000002e0: 6ecd d33c 467a df3b b33c 95bc 1cfb c43d
000002f0: 6bde 73bd 7d63 9c3d f017 d6bd 5c99 c6bd
00000300: 287f de3d e829 ee3c 30b4 b8bd a2e6 443d
00000310: 2788 3dbc 4f1d 80bc 2e67 0c3d 9bd5 a7bd
00000320: fe92 8dbd a880 1f3a 811c 953d f08c c3bd
00000330: fb45 013b 9fdc f43c 0c5c 853d c046 df3d
00000340: 1b0d c9bd d02e e3bd ac54 943c 7918 44bc
00000350: 87ee a53d f57d d6bd e78c b3bd db96 413d
00000360: b9d1 813d 7a8b 72bd f378 e9bc 7af6 46bc
00000370: 7c36 7a3d 9b9a e8bd 9508 49bd 6397 0cbe
00000380: 9b69 913d 0a43 aebd 09af 76bd bdf2 24bd
00000390: cd95 7d3d 915c f6bd 1a08 f7bc 63f7 843d
000003a0: 79b2 b63d 74da 773d baf8 67bd 191e 24bd
000003b0: 3aed e33d 357c 053e 20c9 b13d a4a3 a6bd
000003c0: ed60 73bd 889a edbd 3471 9f3d b19c bc3d
000003d0: f9c3 94bd 4be2 c6bd a5b1 02be 249d f23c
000003e0: ec2d c33c f7bf 44bd 8598 2f3d db28 6c3c
000003f0: 5821 45bd 6961 be3d e629 61bd 7fbb babd
0.108312584 -0.06031045 0.09606687 -0.034137875 -0.0125928065 0.047923278 0.08485291 -0.03714678
-0.07606702 -0.11983236 -0.032358248 -0.05110843 -0.064376496 -0.05836217 0.021360146 0.105432175
-0.019844104 -0.052136812 -0.023357075 -0.032213207 0.016609725 0.11476595 -0.051779944 -0.03252104
0.014358577 -0.10960431 -0.050218306 -0.032223795 -0.078404605 0.07389961 -0.052952755 0.013054132
0.09274081 -0.056997515 -0.02029811 -0.10661909 -0.04071728 0.082137674 -0.09080334 0.09397722
-0.12738198 0.12687737 -0.119097516 -0.12160276 -0.024074335 0.039727923 0.10115591 0.0059970967
0.027826069 -0.08829385 -0.025868466 0.089367755 0.08265711 -0.13488992 -0.056585453 -0.13782448
0.11456635 -0.073442705 0.083334774 -0.0017555692 0.075184464 0.018217904 -0.065660655 -0.098730825
-0.09585682 -0.06460992 0.004696978 -0.08049161 -0.0043826513 -0.036891542 -0.0036005145 -0.016695334
0.051704124 -0.046861198 -0.007301976 0.10337792 -0.01295421 0.03675036 0.033630814 -0.10832217
0.03771852 -0.032201633 -0.06387187 0.075107895 -0.018400846 0.11422051 -0.067652814 0.09937056
0.030415403 -0.12670921 -0.0066880262 -0.05458 0.082553454 0.035223726 -0.0066000754 -0.03901097
-0.113265105 0.022160895 -0.09964722 0.048683498 -0.12453268 -0.059063282 -0.04631222 -0.0058806865
-0.04768421 -0.044452123 0.13358946 0.051629763 0.050589994 -0.00041846486 0.09665591 0.04865005
-0.010526486 -0.025655022 -0.091563284 -0.024917265 0.08263771 -0.06712888 -0.06160929 0.016333107
0.10092331 0.12172374 -0.0037070978 0.08639125 0.00035962983 0.07909843 -0.0944328 0.125359
-0.076664776 0.011654936 0.0830944 0.11266519 0.012988235 -0.016244935 -0.03514882 0.106943585
-0.0062085954 0.05323565 0.0839337 0.04608718 -0.09622951 0.044572055 -0.025307106 -0.049498778
-0.08529063 0.07065885 -0.11570444 0.0027753026 0.11841994 -0.042995885 0.054491255 -0.053187046
0.09296998 -0.008205753 -0.11727967 0.021859273 -0.052670266 -0.05034252 -0.05392677 -0.054496735
0.06618301 -0.09668722 0.015495958 -0.05030361 -0.08529783 0.1103126 -0.07686203 -0.010618912
-0.0061632935 -0.09625755 -0.011328257 -0.13506027 0.014999495 0.056324657 0.014786275 0.056982074
-0.056935728 -0.028751308 -0.034900077 0.0047240946 0.06686777 0.0017461866 -0.011099193 0.014570265
0.025854792 0.006819996 -0.01821742 0.09618208 -0.059538286 0.076361634 -0.104537845 -0.0969722
0.10864097 0.029072717 -0.09018743 0.04807151 -0.011568106 -0.015638975 0.034278087 -0.08195039
-0.06912802 0.000608454 0.07280827 -0.09548366 0.001972555 0.029890357 0.06511697 0.10902166
-0.09816953 -0.11092913 0.018106781 -0.011968725 0.08102136 -0.10473243 -0.08767109 0.047263008
0.063388295 -0.059215046 -0.028500056 -0.0121437255 0.061087117 -0.11357614 -0.04908045 -0.13729624
0.07100221 -0.085088804 -0.06022552 -0.040270556 0.06191044 -0.120293744 -0.03015523 0.06492498
0.0892076 0.060511068 -0.05663369 -0.040067766 0.11129232 0.13035662 0.0868094 -0.08136681
-0.059418608 -0.1160174 0.07785264 0.09209574 -0.07263941 -0.09711131 -0.12763079 0.029615946
0.023825608 -0.048034634 0.042870063 0.014414038 -0.048127502 0.09295923 -0.054971598 -0.09117793

bias f4 [10]
00000000: 2766 8f3d 83f3 aabd c1f9 cfbd 138c fdbd
00000010: 3ff2 6b3d 6a91 8fbd 2848 8a3d f7b3 593d
00000020: 9883 0a3e f76b b23d
0.07001906 -0.083472274 -0.10155059 -0.12380233 0.05760407 -0.070101574 0.06752044 0.053150143
0.13526762 0.08711999

exp_avg f4 [128, 50]
00000000: 5379 d3b4 6ab6 90b6 18cb b3b6 859d 85b7
00000010: 9cf5 ebb6 4f2f f1b7 d4dd 4fba d160 45ba
00000020: 18e6 48ba b456 19bb 3b8d 19bb eb2c 5fbb
00000030: 3817 f7bb 3fab 6abc b947 40bc f91e 4ebd
00000040: b834 0c3c 1718 353a 585b 4e3a 20fc e7b9
00000050: 9263 fd38 9f58 5ebc 19ae 1a3b 901f 8cbc
00000060: e015 ccbb 886a f0ba 7bd7 843a 7ef9 84b9
00000070: bb88 02ba 2c89 46bd 2da5 033d 0822 d0ba
00000080: 98a2 5c3b 1919 ceba 01c4 493a e8b9 213b
00000090: b2dd 52ba 40ad 03bd 26c8 bbbc c8c0 563b
000000a0: 97f0 25bd 04cf 39bc f048 923a 8118 433a
000000b0: 8e6d 10b8 729e 11ba ccfd 32bd ff70 353d
000000c0: a85f 3bbc 9c82 833b e61e a039 a8c2 e839
000000d0: 9d94 1f3a c6fe 6c3a 3f0d 5d3a 9af7 7f3a
000000e0: 7c6b 213a 7829 d5b8 3f3b ccbb 8474 b2bc
000000f0: 0356 00bd c03b 06bd a4dc e3bc d72d e2bc
00000100: 085a 34bd be4e a3bd e1b8 d03b ef1a 233c
00000110: c466 01bd 0075 6737 f9ba f3bc d0cd d0bc
00000120: f59c 9abb 7d2c 16bd 0268 e4bb a430 063b
00000130: ec57 4abc 9724 19bd 30b9 08bc 4a9e d2bc
00000140: 5336 0ebd 5857 c1bc ab6d 93bb 0323 ad3b
00000150: 1800 433c d1b9 3abd c377 233c 03c2 0cbd
00000160: c953 683b 7559 6c3a 31fe 99bc df3f 78bb
00000170: 10a8 443c ae01 30bc 31a3 48bd c0b9 a7bb
00000180: bb17 2ebd fb0c 2bbc 957e b23a 4bee c9bb
00000190: 86a0 3b39 cebf 8d39 2883 af39 6adb 033a
000001a0: 1654 043a 4c05 213a ca04 083a 85ac a039
000001b0: 4fb2 76bb 74db 61bc df84 a1bc 8214 a5bc
000001c0: 7779 8bbc 062b 89bc 7c12 e5bc e2d3 1fbd
000001d0: 2986 f7ba 749a 3c3a 55fa 9abc c744 5939
000001e0: 0e13 96bc ac45 63bc 1acb 4d3a 19c1 89bc
000001f0: 53fb 5cbb 3881 6b3b 3c60 023b 97a5 87bc
00000200: 158b 713b 69bd 82bc 4f4f a5bc aa8d 63bc
00000210: b389 2f3b 551c 413a 017c 60b8 2152 f3bc
00000220: 4201 983b 81df 0abd 6c38 b03b f95e fa3a
00000230: 9cef 56bc 297a adbb 8f6f 913a 4231 883c
00000240: 90dd 07bd 7c24 203b 954f dfbc 9de4 91bb
00000250: 8007 f5b9 65be 5c3b f0b4 2738 e7bf 3638
00000260: 47cd a338 2a09 d438 9757 ad38 2a55 ae38
00000270: b489 09ba 584c 31ba da4d d9bb dc80 b4bc
00000280: ba04 efbc a923 0cbd 1adb 09bd cbe4 1abd
00000290: f74b 46bd 2014 66bd 2a32 023c 6e2c 9c3a
000002a0: 68b4 c8bc 4c57 483b f0dd aebc a661 00bd
000002b0: cb7b 333b 67ab c0bc d6f2 873a ec88 b43b
000002c0: 7d9d a93b a134 c1bc e2dc 0e3c e641 1fbd
000002d0: b44d 5ebc e8cd a0bc 004d 0a3c fadf 403b
000002e0: a8ff 3f3b 484b 27bd 5d0d 8d3b ee39 37bd
000002f0: bb42 42bc e30b 0b3c 826e f9bc ea50 7abb
00000300: 190b 043c cfb3 83ba 87a3 3abd 4b20 ac3b
00000310: 4009 57bd ee0b 7f3c 3d60 5cbb 6063 0f3c
00000320: 8284 dcb7 a8e8 4fb8 b242 97b8 542c d1b8
00000330: fb44 07b9 9f18 87b9 e3f4 70ba 0ca9 b8ba
00000340: bfcb 29bc 02f4 07bd 4655 45bd c336 6bbd
00000350: c1ec 79bd 4639 90bd b080 c5bd 4490 05be
00000360: 48ce 853c 2d4c 653b f653 2ebd 9119 7cbb
00000370: 573f 0fbd 8a96 1fbd f92d 89bb 1a3e 49bd
00000380: bc8d fabb b4aa ee3a 597c 263b ca75 42bd
00000390: da8a 8cbb b519 52bd df5c 12bd d445 1cbd
000003a0: 4f38 043b bc91 da3b ea94 543b 31fc 84bd
000003b0: 8f07 193b dbec 73bd 3ecc 10bb 748e d63b
000003c0: e56e 11bd ee14 edbb b854 573c d771 17bc
000003d0: 431a 87bd 8436 1eb9 0cc5 92bd 7bf6 523b
000003e0: f600 62bb d3cc f838 b806 84b6 2705 35b7
000003f0: ca26 8cb7 e431 10b8 722f 34b8 0154 7bb8
-3.9390088e-07 -4.31277e-06 -5.358259e-06 -1.5928186e-05 -7.0321385e-06 -2.8751469e-05 -0.00079294783 -0.00075293804
-0.0007663681 -0.0023397626 -0.0023430127 -0.0034053873 -0.0075406097 -0.014323055 -0.01173585 -0.050322507
0.008557491 0.0006908192 0.00078718876 -0.000442476 0.000120825265 -0.013570934 0.0023602305 -0.017104894
-0.0062281936 -0.0018342296 0.0010135019 -0.00025362888 -0.0004979481 -0.04847066 0.032139946 -0.0015879283
0.003366625 -0.0015724032 0.00076967484 0.002467746 -0.00080438994 -0.032147646 -0.022922587 0.0032768715
-0.040512647 -0.01134086 0.0011160653 0.0007442311 -3.4434306e-05 -0.0005554921 -0.04369907 0.044297215
-0.01143638 0.0040133726 0.000305406 0.00044395518 0.0006087514 0.000904065 0.0008432455 0.00097643735
0.0006157679 -0.000101643556 -0.0062326486 -0.021784075 -0.031332027 -0.032771826 -0.02781517 -0.027609749
-0.044031173 -0.07974003 0.0063696955 0.009955152 -0.031592146 1.3795914e-05 -0.029752241 -0.025488764
-0.004718418 -0.03666352 -0.0069704065 0.002047577 -0.012350064 -0.03738841 -0.008344933 -0.025710244
-0.034719776 -0.023601219 -0.0044991574 0.0052837147 0.011901878 -0.045587365 0.009977284 -0.03436471
0.003545033 0.00090160157 -0.018797966 -0.0037879867 0.01200296 -0.010742588 -0.048983756 -0.0051185787
-0.0425031 -0.0104401065 0.0013618047 -0.00616244 0.0001789351 0.0002703652 0.0003347632 0.00050299487
0.000504793 0.0006142452 0.0005188702 0.00030646115 -0.0037642901 -0.013785232 -0.019716678 -0.02015138
-0.017025692 -0.016744148 -0.027962916 -0.039020427 -0.0018884587 0.0007194646 -0.018918196 0.00020720354
-0.018319633 -0.013871592 0.0007850394 -0.016815709 -0.0033719137 0.0035935175 0.0019893786 -0.016558452
0.003685658 -0.015959458 -0.020179419 -0.013888756 0.0026784956 0.00073665875 -5.352125e-05 -0.029702248
0.004638822 -0.033904556 0.0053778198 0.001910179 -0.013118651 -0.0052941036 0.0011095869 0.01662505
-0.033170283 0.002443581 -0.027259627 -0.0044523017 -0.0004673563 0.003368282 3.9984414e-05 4.3570904e-05
7.8106816e-05 0.00010110655 8.265598e-05 8.3128296e-05 -0.00052466546 -0.000676339 -0.006631595 -0.022034101
-0.029177058 -0.034213696 -0.033656217 -0.03781585 -0.04841229 -0.056171536 0.00794653 0.0011915097
-0.024500087 0.003056961 -0.021346062 -0.031343125 0.0027387019 -0.023519231 0.0010372053 0.0055094864
0.005176245 -0.023584666 0.008719655 -0.038881205 -0.013568331 -0.019629434 0.00844121 0.0029430375
0.002929667 -0.04084328 0.0043045715 -0.04473298 -0.01185673 0.008486721 -0.030448202 -0.0038195201
0.0080592865 -0.0010048094 -0.045566108 0.005252873 -0.052499056 0.015566809 -0.0033626698 0.00875172
-2.6287747e-05 -4.9569324e-05 -7.212664e-05 -9.974153e-05 -0.000129003 -0.0002576755 -0.00091917644 -0.0014088466
-0.010363518 -0.03319169 -0.048177026 -0.05742527 -0.0610168 -0.07042174 -0.09643686 -0.13043314
0.016333714 0.0034988031 -0.04256054 -0.0038467387 -0.034972515 -0.038961925 -0.0041863886 -0.04913149
-0.0076462906 0.0018208832 0.0025403707 -0.047475614 -0.0042890133 -0.051294047 -0.0357331 -0.03815253
0.0020175164 0.006670205 0.0032437393 -0.06493414 0.0023350453 -0.059552055 -0.0022094394 0.0065477435
-0.035506148 -0.007235161 0.013142757 -0.00924345 -0.06596806 -0.00015088363 -0.0716649 0.003219037
-0.0034485436 0.00011863713 -3.9346887e-06 -1.078964e-05 -1.6707363e-05 -3.437874e-05 -4.295953e-05 -5.9921298e-05

exp_avg_sq f4 [128, 50]
00000000: ac3d 3c37 f6fa 7b37 4c7a c137 813e 0b38
00000010: 4f52 6e38 bd92 ac38 583f 0939 5ec9 5839
00000020: d521 9c39 13ed fc39 a26d 4b3a e4f1 d83a
00000030: b405 673b 55c4 0f3c 5fab f23c 5a50 c43d
00000040: 5065 b93c 96ee 743b f2ad aa3b 5390 9e3b
00000050: d95f 013b b167 fc3b c64f 143c 827c e43b
00000060: a796 e03b 3dc0 663b 3fd5 803b ebd5 fd3b
00000070: c06e 6a3b 4788 b13b 443b f33b d5ad 0e3c
00000080: 046e 2a3c fbea fa3a 8b4f b63b de6e e93b
00000090: f1bd fc3a e2b9 fe3a 34a4 753c 54c0 0b3c
000000a0: 76e1 f13b 9a1f 183c 6a9f 443b fdb6 1e3b
000000b0: ee30 433c 1600 023b 16be 903b 7bf6 c43b
000000c0: 9db3 de3b 652c 183c 8c99 a139 4bcc cd39
000000d0: 83bd 0d3a 058c 3c3a 8e90 6c3a 438e 9a3a
000000e0: 1f40 d13a e913 0f3b 1021 453b 0e6e 8a3b
000000f0: 6512 d13b 4d10 1f3c 57c4 833c ab21 f33c
00000100: 65f4 8b3d d145 473e 4f5a 953b 9393 8a3b
00000110: 6006 823b 8d99 733b e52a 4c3b 90a1 ce3b
00000120: c061 7a3b a864 ab3b e12a 553b 349d 803b
00000130: 0dfb aa3b b14c 9c3b 0470 8a3b 01e0 983b
00000140: 6777 733b 7fc8 a43b 30ee b83b aab3 773a
00000150: 5ce1 ce3b 0a95 903b 9688 8b3b b390 7d3b
00000160: bb4d ea3b bb23 703b 3776 ab3b 3574 8b3b
00000170: ea94 ba3b 5114 f83b 54ef c33b 520c 6c3b
00000180: 28c0 a13b 3b95 ae3b a851 9a3b 5222 a63b
00000190: ec20 7d39 2b7d 9d39 c8a2 ca39 9e6e 013a
000001a0: a46e 223a 1177 4b3a a93f 7f3a 67ae a43a
000001b0: 9a64 dd3a 27e4 143b 5996 5b3b d149 a83b
000001c0: b07b 043c b3b1 693c 1744 fb3c 7b7d 9c3d
000001d0: bda6 0c3b ca0a ef3a a8bf d93a 8625 f13a
000001e0: 89c7 e13a 0462 de3a 1ab3 af3a 324c 0e3b
000001f0: c0dd de3a 5043 ed3a 3f3d 003b a0b0 183b
00000200: ef16 023b 663b a73a a778 ad3a 8a53 f73a
00000210: 04f0 e03a ac1e cf39 98d6 423b a145 083b
00000220: 1fb5 0a3b 0868 f33a 179f ef3a 929c dd3a
00000230: 214f 143b 487d 213b 5925 0d3b f74c 5c3b
00000240: dd06 5a3b d520 db3a b091 843a 6dd2 d43a
00000250: c5a0 c93a 26b6 da3a 9a94 a839 7d6d cf39
00000260: 2ae2 ff39 2689 1c3a 1fa5 3c3a 1218 653a
00000270: 1aaa 8f3a 9668 b43a 4dea e73a f4b8 183b
00000280: 4cf9 523b c8d8 963b 3e39 e53b d446 3f3c
00000290: 7a57 cf3c f74d a93d 7d36 ad3b da2c 163b
000002a0: 2d1f 063b 6af3 313b 3ffb 5e3b 4009 6a3b
000002b0: dd9f 2d3b 7ca4 5d3b 2c49 fe3a 5b15 193b
000002c0: 48bc 0c3b 2208 6d3b 7efc 573b 4875 013b
000002d0: 9664 843b 4c2f 733b 80d6 4e3b 9390 6b3a
000002e0: d85f 403b c58a 2e3b 3ba3 663b 9e6f 803b
000002f0: b240 883b 1066 503b 6060 3c3b 9b2e e83a
00000300: 6be4 5f3b 72e1 3d3b fa60 9c3b 468b 523b
00000310: 5e98 093b 933f c13b edb0 753b dea6 553b
00000320: 2e1b 3f35 9285 c335 641e 5236 4703 da36
00000330: 5dec 5237 8611 eb37 a364 7138 f48c e638
00000340: 6d28 8039 c691 1d3a 40ff a33a 8cc4 1f3b
00000350: a1ff ab3b 0240 553c a2c7 253d cb90 213e
00000360: 290f c93b 117f 353b e972 813b e60f 543b
00000370: 891e 7a3b 6f5f b13b 0609 663b 5e19 ba3b
00000380: 276e 853b 032f 803b b62d 813b 6f6f b93b
00000390: 04eb 613b 1d1f 8d3b 6d9a b93b a4c5 9d3b
000003a0: 3ed5 cb3b bac1 363a 6e7f 3e3b 1b73 a33b
000003b0: 985c 453b 935a 4d3b 8f57 f33b 1ac4 753b
000003c0: 0f87 da3b 8879 c03b 1a39 9c3b f3f1 8e3b
000003d0: a593 083c d94d 4a3b b926 c53b f530 0b3c
000003e0: bca1 bc3b a4a7 d23b 32bc 1a38 e0cd 3c38
000003f0: 8134 5838 6817 8c38 58b8 af38 46b0 e438
1.1220032e-05 1.5019197e-05 2.3064342e-05 3.3198394e-05 5.6820278e-05 8.228931e-05 0.00013088936 0.0002067438
0.00029779845 0.0004824182 0.0007760172 0.0016551581 0.0035251202 0.008774837 0.029622732 0.09585638
0.022631317 0.0037373654 0.005208724 0.004838982 0.0019740968 0.0077027907 0.009052223 0.0069728503
0.0068538967 0.0035209798 0.003931671 0.0077464483 0.0035771579 0.005417857 0.0074228365 0.008708437
0.010402206 0.0019143516 0.0055636815 0.007123812 0.0019282681 0.001943406 0.014992762 0.008529741
0.0073816134 0.009284878 0.0030002245 0.0024217956 0.011913521 0.0019836477 0.0044171913 0.006010828
0.006796314 0.009287928 0.00030822714 0.00039252857 0.00054069626 0.00071924954 0.0009024226 0.0011791665
0.0015964544 0.0021831936 0.0030079521 0.0042245453 0.0063803666 0.009708476 0.016084833 0.02967914
0.06833724 0.19460227 0.0045578848 0.004229018 0.003968045 0.003717038 0.0031153497 0.006305881
0.0038205236 0.005230505 0.0032526779 0.00392499 0.005217916 0.0047698845 0.004224779 0.004665375
0.0037150027 0.005028784 0.0056436285 0.0009449074 0.006313486 0.004412298 0.0042582257 0.0038690984
0.0071503795 0.003664239 0.005232598 0.0042557963 0.0056940215 0.0075707813 0.005979458 0.0036018086
0.004936237 0.0053278483 0.004709441 0.0050700093 0.00024140225 0.0003003863 0.00038649724 0.0004937443
0.00061962963 0.0007761578 0.0009736964 0.0012564183 0.0016890944 0.0022718997 0.0033506362 0.0051357527
0.00808613 0.014263558 0.030672116 0.07641121 0.0021461688 0.0018237468 0.0016612904 0.0018398024
0.0017225604 0.0016966467 0.0013404817 0.0021712896 0.0017003343 0.0018101726 0.0019567756 0.0023298636
0.0019850095 0.0012758791 0.001323481 0.0018869501 0.0017161374 0.0003950497 0.0029729959 0.0020793455
0.0021165085 0.0018570432 0.0018281665 0.0016907624 0.0022630172 0.0024641324 0.0021537154 0.003361521
0.003326825 0.0016718159 0.0010114219 0.0016237028 0.0015382996 0.0016686365 0.00032154174 0.00039563692
0.00048805895 0.00059713644 0.0007196236 0.00087392435 0.0010960728 0.0013764079 0.0017693728 0.00233036
0.003219205 0.004603479 0.006995349 0.011674602 0.025310267 0.08266824 0.0052860365 0.0022914917
0.002046536 0.0027153143 0.0034024266 0.003571108 0.002649299 0.0033819964 0.0019400469 0.0023358676
0.002147453 0.0036168178 0.0032956894 0.0019753743 0.004040311 0.0037107049 0.0031560957 0.0008986082
0.0029354002 0.0026633006 0.0035192508 0.003919556 0.004158103 0.0031799115 0.0028743967 0.0017714085
0.0034163247 0.0028973487 0.0047723027 0.003212647 0.002099536 0.005897471 0.003748949 0.0032600681
7.1192596e-07 1.4567506e-06 3.1310128e-06 6.497288e-06 1.2572008e-05 2.8022343e-05 5.7552603e-05 0.00010993509
0.00024444182 0.00060107966 0.0012511984 0.0024378626 0.005248979 0.013015749 0.040473588 0.1577789
0.0061358404 0.0027694146 0.003950466 0.003235811 0.0038165173 0.005412988 0.0035100593 0.0056792935
0.004071969 0.0039118542 0.0039422167 0.005659036 0.0034472356 0.0043066875 0.005664161 0.0048148204
0.006220489 0.00069716165 0.0029067653 0.004988087 0.0030115005 0.0031334504 0.0074262093 0.003750092
0.0066689323 0.0058738627 0.004767549 0.0043623387 0.008335982 0.0030869155 0.006016579 0.008495559
0.005756585 0.0064286757 3.689173e-05 4.501443e-05 5.154731e-05 6.68008e-05 8.378987e-05 0.00010904721

exp_avg f4 [128]
00000000: 413c 39bb 231e 21bc 373b 66bb bb79 ebba
00000010: b9b7 2bbc 56fe d1bb f7b5 dcbb 3879 6b3c
00000020: 9e3b 5abb 63dd 80bc d50a 65bc b318 2ebc
00000030: 3634 0e3a 983e cbbb 7003 ac3b 86fd 693a
00000040: 675b e0bb 97da fe39 5626 833b f5dd d7ba
00000050: 3e2c 6cbc 2de8 5dbc b420 a1bb e393 e2bb
00000060: 08e6 1dbb f993 7dbb 04a8 99bb 4ae9 f1bb
00000070: b63e 233c 7287 0dbc 80df 313c 0591 28bb
00000080: aa31 0fbb e92f 933b 5a95 97bb c53d 07bc
00000090: 4d6e cbb9 ff86 53bc e95f efbb 3586 46bc
000000a0: cd86 5bbc 8f9d d9bb 7433 88bc e598 23bc
000000b0: 0592 4dbb e912 013c 12a9 143c 09d9 303c
000000c0: ad26 28bc 5149 3e3b 71f7 943b 768b a9bb
000000d0: 2832 34bc f34b 18bc aca2 92bb e6e6 9c3b
000000e0: 609c bc38 93cc c7bb 6a8c 1bbc e0b3 5b3b
000000f0: 5bad 3838 7079 0b3c cb16 153b e934 dcba
00000100: fe91 5bba e406 77bc 6547 81ba 4cb9 05bc
00000110: 40e1 babb bec7 87bc fa77 833b 9fbe 78ba
00000120: d824 60bb 6ba2 c63a 5b06 1f3b ff5e 8538
00000130: 23c3 4ebc 9975 513c 74fc 113d af69 d1ba
00000140: 61d5 0cba 8066 b4ba 3d42 12bb 91f2 91bb
00000150: 4407 ddbb bb3c 5ebc 8f70 0ebc 8cba 4234
00000160: f3d2 3dbb 2508 a939 0919 383b 1af8 14b7
00000170: bccc 93bc 30ce 88ba 5075 a9ba 8702 1c3c
00000180: c928 31bc f0ba 703b 4443 a0ba 228d 17bc
00000190: 3dd9 e43a bf17 ea3c 7385 43bb f8c9 40ba
000001a0: c1fe 3038 a7ce efb9 181e 7b3a bd14 46bb
000001b0: 2d41 50ba 13ad 683b 60e2 e2bc dfa7 24bb
000001c0: 28b4 a6bb a1ec 89bb b6bc 20bb a083 303b
000001d0: a6dc a2bc 7632 8dbc 14e6 093c 0ad7 74bc
000001e0: ab6f 823b d684 29bc 8bbf 9738 186a 97ba
000001f0: 124c 01ba 6538 43bb 87f6 4dba 2160 00bb
-0.0028264674 -0.009833845 -0.003513051 -0.0017965356 -0.010480815 -0.006408493 -0.006735559 0.0143721625
-0.0033299695 -0.015730565 -0.013979633 -0.010626006 0.000542465 -0.00620253 0.005249433 0.00089260226
-0.0068468335 0.00048609517 0.0040023727 -0.0016469347 -0.014414845 -0.013544125 -0.0049172286 -0.006914602
-0.0024093408 -0.0038692935 -0.0046892185 -0.0073825466 0.009963682 -0.00863825 0.010856509 -0.0025721204
-0.002184967 0.0044917953 -0.0046259584 -0.008254473 -0.00038801358 -0.012910604 -0.0073051346 -0.012116958
-0.013398838 -0.006641097 -0.016626097 -0.009985183 -0.0031367552 0.007878044 0.009073513 0.010793933
-0.010263127 0.00290354 0.004546099 -0.0051740957 -0.010998286 -0.009295451 -0.0044749584 0.0047882674
8.993666e-05 -0.006097385 -0.009493927 0.0033523962 4.403047e-05 0.00851284 0.0022749181 -0.0016800436
-0.00083759415 -0.015077326 -0.0009863196 -0.008161854 -0.0057031214 -0.016574737 0.004012105 -0.0009488854
-0.0034201648 0.0015154605 0.0024265263 6.3596286e-05 -0.012619766 0.012784385 0.03564115 -0.0015976931
-0.0005372372 -0.0013763458 -0.0022317313 -0.004453965 -0.006745251 -0.013564284 -0.008693828 1.8135523e-07
-0.0028964847 0.0003224026 0.0028091094 -8.879253e-06 -0.01804196 -0.0010437425 -0.0012928639 0.009522087
-0.010812947 0.0036732517 -0.0012227078 -0.009249957 0.0017459762 0.028575776 -0.002983418 -0.00073543144
4.2198928e-05 -0.000457396 0.00095793745 -0.0030224763 -0.0007944282 0.003550355 -0.027695835 -0.0025124473
-0.0050873943 -0.0042091166 -0.0024526543 0.0026933923 -0.019880604 -0.017235976 0.008416671 -0.014943847
0.003980597 -0.010346612 7.235919e-05 -0.0011552004 -0.0004932295 -0.0029788252 -0.0007856865 -0.0019588547

exp_avg_sq f4 [128]
00000000: c926 963a 5af0 9e3a 2c90 e639 ddf1 203a
00000010: e4ed 8e3a 9f10 c43a b60c 8339 9281 0c3b
00000020: ea87 3b3a a961 213b 4fdb bf3a 13a7 463a
00000030: 24e3 9a39 7383 3e3a fb0c 7f3a f8f5 4438
00000040: 5729 7a3b 217a 853b 6eef 503b 4786 c339
00000050: 1113 043b 662e 663a 6220 8a39 9723 173a
00000060: 930f 153a 9d9e c639 6637 633a 867e a539
00000070: 211b 753a 16d6 053b 6095 9c3b 2469 813a
00000080: aee6 e639 5f74 fe39 2ec6 223a 7f14 5e3a
00000090: 9510 f039 81cd 0b3a cc8d c83a 80cb 853a
000000a0: 4916 c43a cb59 2e39 68d0 813b 5ef0 013a
000000b0: a62d 3f3a c526 843b b52b c33b d5d4 5f3b
000000c0: 4b86 5b3a 3776 6839 5f1c 6539 11a8 a939
000000d0: e2f1 0a3a 8b78 9439 01ab 213a 1971 5a3b
000000e0: 7b9b 1d3a fd5f a33a 135c 043b e7d4 7239
000000f0: 5feb d038 8b3c 1e3b fe9d b23a 163d c639
00000100: 350c 6a3a c69a cc3a 69ff 5539 4951 923a
00000110: 0ca9 a63a 2126 293b 842d dd39 9885 0f3a
00000120: b36b cc39 2905 c23a c28c de39 8ec3 0a39
00000130: 4eef 613a 5211 c13a c935 bb3b 5706 2739
00000140: bc9c 563a d2f6 9c38 ee3a a73a 602a 7039
00000150: cdc7 ae3a 530f 123b 0d05 153a 29a9 5e35
00000160: 6ed9 2a3a ff6a 813a 85ea c439 f8a2 1f38
00000170: c88b 433b 1909 5b39 0a07 943a 3c13 673b
00000180: 8b3d 803a 11be bf39 abbe e639 a7f8 933b
00000190: 616d 1939 5b1a 4f3b a9c1 dc38 51bf fd38
000001a0: bef6 2039 3e29 d838 625a fb39 3ef5 1f3a
000001b0: 3c8b a53a 3503 353a 2acf 5a3b 3b43 bb39
000001c0: dfdf 4039 eae0 533a 4437 a13a 5d80 533a
000001d0: 6659 253b 6485 ff3a 6bc2 813b fd91 a23b
000001e0: 1ba8 7a3a 0fb5 e23a cad3 a338 cc7e 5539
000001f0: 2b5a 4339 0992 2237 0e0c 4438 34b4 5d39
0.0011455651 0.0012126074 0.00043976435 0.0006139556 0.0010904637 0.0014958567 0.00024995737 0.0021439535
0.00071537367 0.002462486 0.0014637503 0.00075779966 0.00029542402 0.0007267512 0.0009729412 4.6959118e-05
0.0038171613 0.004073397 0.0031880992 0.00037293343 0.0020152966 0.00087807176 0.00026345538 0.0005765496
0.00056862197 0.0003788368 0.0008667618 0.0003156552 0.0009350051 0.0020421795 0.004778549 0.0009873253
0.00044040888 0.00048533358 0.00062093406 0.0008471682 0.00045788722 0.00053330517 0.0015301048 0.0010207742
0.0014960255 0.00016627384 0.0039616115 0.0004956777 0.0007292874 0.004032942 0.005956138 0.0034153957
0.0008374198 0.00022169283 0.00021849711 0.0003235941 0.00053003256 0.0002831857 0.0006167144 0.0033331572
0.0006012243 0.001246452 0.0020196482 0.00023158231 9.962054e-05 0.0024144973 0.0013627408 0.00037811015
0.00089282106 0.0015610091 0.0002040841 0.0011163141 0.0012715175 0.002581008 0.00042186317 0.0005474924
0.00038990154 0.0014802563 0.00042448012 0.00013233555 0.0008618728 0.0014729893 0.005713199 0.00015928723
0.00081868074 7.4846335e-05 0.0012758651 0.0002290397 0.0013334692 0.0022286966 0.00056846516 8.2947605e-07
0.0006517385 0.0009873806 0.00037558764 3.806033e-05 0.0029837955 0.00020888857 0.0011293602 0.0035259267
0.0009783966 0.0003657197 0.00044011077 0.0045157257 0.00014631964 0.0031601402 0.000105264895 0.000120996156
0.00015350708 0.000103073646 0.0004794179 0.00061019126 0.0012629996 0.000690508 0.003338764 0.0003571751
0.00018393945 0.0008082526 0.0012299796 0.0008068139 0.0025230288 0.001949471 0.003959944 0.004961251
0.0009561793 0.0017296391 7.8118945e-05 0.00020360498 0.0001863024 9.689954e-06 4.674127e-05 0.00021143333
