models/DPG_Fed_AggPer_1.pth (torch, 65067 bytes, 6 tensors)

weight f4 [128, 50]
0.0028666144 0.015571711 0.04502506 0.032773763 0.03464441 0.060316868 0.046538588 0.012763352
0.045594454 0.04207918 0.053768504 0.068142876 0.029141106 0.05753064 0.07935371 0.041315485
0.0105013 0.00010473031 0.0070743966 0.022872247 0.014559648 0.028985353 -0.0008992663 0.028154563
0.0069808676 0.02366524 -0.014710061 0.022425054 0.03852184 0.023249974 0.050103787 0.061830435
0.10141522 -0.09530964 -0.0015850782 0.015942562 0.021346109 0.03805718 0.013108488 0.0066888286
0.036946844 0.023564 -0.012824886 0.018436877 0.040700294 -0.010246306 0.0069739185 -0.008409452
0.050165072 0.04354618 0.0022917283 -0.026321463 0.033616107 -0.014705432 -0.02336879 -0.031322252
-0.036736943 -0.043009795 -0.032950714 -0.032967877 -0.00433149 -0.04802499 -0.0008493414 -0.02831435
-0.002819161 0.009786257 0.02541169 0.03273182 -0.00078132865 0.019870462 0.0051481468 0.008263
0.0065536983 0.0169459 0.028726162 0.013655986 0.03487433 0.019318042 0.0058792057 0.034329776
0.00032666454 0.008934903 -0.024559373 0.13588467 0.02462209 0.00917398 0.027517252 0.047057647
0.019978829 -0.007528624 0.0015053785 -0.041990332 0.050909966 0.0081143 0.0148208495 -0.00046779134
-0.0027940297 0.017868275 -0.029131819 -0.028058914 0.01139557 0.0003340385 0.020767724 0.036070455
0.0070330556 0.02936223 0.010937605 0.025895324 0.020404443 0.038705025 0.04291856 0.047517233
0.06017171 0.05391441 0.015177796 0.02899188 -0.004380266 0.02400085 0.02052834 0.039941885
0.04965836 0.020007167 0.032940872 0.028010936 0.011374011 0.04044349 0.021970592 0.0232176
0.04931797 0.014789173 0.06262897 0.05251421 0.032074045 -0.11255728 0.021234715 0.02441175
0.029470332 0.019850649 -0.028726934 0.0137876645 -0.008899063 0.02555906 0.023080874 0.0069701965
0.03339904 0.027817436 0.006554204 0.0059077786 0.051928714 0.032854322 0.016542247 0.014637844
0.008957935 -0.015949553 -0.014148292 -0.009762584 -0.034748066 -0.012215521 -0.009419768 -0.017934017
-0.034288548 -0.0020400786 0.0013146303 -0.008735058 -0.030422086 0.0027390367 0.04642327 0.031656258
0.037275232 0.026237741 0.039268628 0.00148146 0.04308654 -0.012219987 0.008069246 -0.00042511747
0.03664311 0.041955184 0.041826617 0.006217567 0.012222013 0.017885078 -0.012872858 0.1366668
0.04377147 0.006162813 0.0244172 0.007622394 0.016319567 0.013161745 -0.002570562 0.033956517
0.029353952 -0.008547775 0.038684916 0.015808279 0.007953649 0.0356429 -0.01498276 -0.034521736
0.023882415 0.00015671499 0.0106294695 0.021431504 0.0008045864 0.01296144 0.023597 0.021474823
0.013601627 0.031920385 0.027333159 0.056823835 0.028923871 0.013409596 0.04460418 0.020104026
-0.017579144 0.01696147 0.013580219 0.019982629 0.03846441 0.027596556 0.016704874 0.04073104
0.033296503 0.001156487 0.040048648 0.022919878 0.044741016 -0.0026636887 0.043446094 0.029341798
0.08056137 -0.08823603 -0.024645578 0.009679444 0.010266628 0.002526477 0.02614551 0.020205662
0.0109614 0.030601298 0.012205517 0.0152435275 0.018377775 0.002373364 0.052165434 0.016322978
0.0391173 0.07672576 0.004259453 -0.0153620625 -0.016518679 0.00668806 -0.020309115 -0.018397244
00000000: cfdd 3b3b 7d20 7f3c 336c 383d c83d 063d
00000010: 4ce7 0d3d d20e 773d 3f9f 3e3d 611d 513c
00000020: 40c1 3a3d 385b 2c3d 5d3c 5c3d 7e8e 8b3d
00000030: 54b9 ee3c 40a5 6b3d 3384 a23d 6d3a 293d
00000040: a50d 2c3c a8a2 db38 57d0 e73b 945e bb3c
00000050: 978b 6e3c b172 ed3c bdbc 6bba 66a4 e63c
00000060: c3bf e43b 9bdd c13c 7802 71bc bfb4 b73c
00000070: 14c9 1d3d bb76 be3c a139 4d3d e941 7d3d
00000080: c8b2 cf3d b331 c3bd 66c2 cfba fa99 823c
00000090: 09de ae3c d8e1 1b3d fcc4 563c f62d db3b
000000a0: 9355 173d 4a09 c13c 781f 52bc ef08 973c
000000b0: 5ab5 263d 1fe0 27bc 7885 e43b ccc7 09bc
000000c0: e479 4d3d 7b5d 323d d230 163b 1ca0 d7bc
000000d0: 0bb1 093d 0def 70bc e86f bfbc c34b 00bd
000000e0: 7a79 16bd 0a2b 30bd 54f7 06bd 5309 07bd
000000f0: 2cef 8dbb dab5 44bd 56a6 5eba 7ff3 e7bc
00000100: acc1 38bb 8956 203c 2d2c d03c cd11 063d
00000110: 14d2 4cba 61c7 a23c c9b1 a83b 8961 073c
00000120: 68c0 d63b 21d2 8a3c 2153 eb3c 5bbd 5f3c
00000130: 63d8 0e3d df40 9e3c 5aa6 c03b 619d 0c3d
00000140: 2c44 ab39 b363 123c bd30 c9bc 5a25 0b3e
00000150: 44b4 c93c 764e 163c dc6b e13c 85bf 403d
00000160: a4aa a33c adb2 f6bb 1f50 c53a 0efe 2bbd
00000170: f886 503d d7f1 043c 26d3 723c e441 f5b9
00000180: 0a1c 37bb 7d60 923c daa5 eebc cfdb e5bc
00000190: 7cb4 3a3c e321 af39 1321 aa3c 9dbe 133d
000001a0: 8c75 e63b 0f89 f03c a433 333c 6e22 d43c
000001b0: 3827 a73c 2989 1e3d 5fcb 2f3d 6ea1 423d
000001c0: 9c76 763d 5bd5 5c3d 4aac 783c 6180 ed3c
000001d0: 5688 8fbb 6e9d c43c 0d2b a83c 1a9a 233d
000001e0: 9166 4b3d 12e6 a33c 02ed 063d 3177 e53c
000001f0: 0f5a 3a3c 13a8 253d acfb b33c d632 be3c
00000200: a401 4a3d 4a4e 723c 9e43 803d 2419 573d
00000210: 1360 033d 6e84 e6bd 6df4 ad3c 26fb c73c
00000220: c46b f13c d49d a23c bf54 ebbc a8e5 613c
00000230: 60cd 11bc 3c61 d13c 1a14 bd3c 3f66 e43b
00000240: 6fcd 083d 64e1 e33c a6c4 d63b 0a96 c13b
00000250: 34b3 543d 4192 063d 9b83 873c 91d3 6f3c
00000260: 4dc4 123c a3a8 82bc 3dce 67bc 3ff3 1fbc
00000270: fd53 0ebd 9c23 48bc 5f55 1abc 5cea 92bc
00000280: 2672 0cbd d7b2 05bb ac4f ac3a 7d1d 0fbc
00000290: bd37 f9bc 6981 333b 5426 3e3d fea9 013d
000002a0: eaad 183d 88f0 d63c 24d8 203d 8d2d c23a
000002b0: 837b 303d 5736 48bc df34 043c 4de2 deb9
000002c0: 1617 163d 33d9 2b3d 6352 2b3d bbbc cb3b
000002d0: d73e 483c ba83 923c aee8 52bc 62f2 0b3e
000002e0: b749 333d 6cf1 c93b 9406 c83c 46c5 f93b
000002f0: 9db0 853c 5ca4 573c e076 28bb fd15 0b3d
00000300: b377 f03c f80b 0cbc 1374 1e3d 5d80 813c
00000310: 0650 023c 4afe 113d 407a 75bc aa66 0dbd
00000320: 0ea5 c33c dc53 2439 3a27 2e3c 1f91 af3c
00000330: e1ea 523a 385c 543c 7f4e c13c f8eb af3c
00000340: 5cd9 5e3c f3be 023d cae9 df3c 1cc0 683d
00000350: c1f1 ec3c ecb3 5b3c dfb2 363d 33b1 a43c
00000360: 2302 90bc c8f2 8a3c 917f 5e3c 9cb2 a33c
00000370: db8c 1d3d 2c12 e23c a9d8 883c 97d5 263d
00000380: ea61 083d 4495 973a 0d0a 243d 78c2 bb3c
00000390: 5b42 373d 4891 2ebb 88f4 313d 365e f03c
000003a0: 5cfd a43d 17b5 b4bd 86e5 c9bc 8896 1e3c
000003b0: 5c35 283c 4093 253b 1c2f d63c 5886 a53c
000003c0: 7297 333c 93af fa3c a6f9 473c fdbf 793c
000003d0: fd8c 963c 718a 1b3b 6cab 553d c4b7 853c
000003e0: 7639 203d 6522 9d3d e292 8b3b 29b1 7bbc
000003f0: 2e52 87bc 8327 db3b 4d5f a6bc d1b5 96bc

bias f4 [128]
-0.020186376 0.06311407 0.044822183 0.07814812 -0.011848318 0.063993864 0.045468546 0.06073744
0.056786016 -0.018735308 0.056754474 0.07426799 0.054102954 0.0069183884 0.1173229 0.06406851
0.04911741 0.06918733 0.08518005 0.06470914 -0.02263851 0.07107944 0.09247522 0.08988009
0.022582632 0.08131493 -0.0045082564 -0.02917896 -0.0070985784 0.0029849869 0.022757692 0.06327568
0.090260506 0.014628854 -0.0045941174 0.039513323 0.028401637 0.09385249 0.09384863 0.055868637
0.009852325 0.085216634 0.09036504 0.05954566 0.08001845 0.073164895 0.062876046 0.06532993
0.049452174 0.072823875 0.09984787 -0.02859807 0.110832654 -0.009006398 0.07921997 -0.029199881
0.057976227 0.045156833 0.0011348558 0.09029846 0.055281304 0.06677002 0.040918857 0.12538493
0.04899091 0.03918442 0.08465828 0.086414926 0.052518234 -0.026420355 0.051605493 0.051663965
0.024629831 0.08148202 -0.0033574516 0.05374922 0.023080556 -0.007971341 0.112687245 -0.011602188
0.08590679 0.036015067 -0.003727976 0.06790886 0.053333163 -0.024019117 0.01663941 0.09994547
0.039679617 0.06482884 0.013000445 -0.016341915 0.020731252 0.12313145 0.06717719 0.1084875
-0.0012947288 0.02909524 0.07956773 0.04278765 0.066401236 0.10596609 0.060133066 -0.020011133
0.048320312 0.0056595183 -0.012831902 0.08476826 0.013353432 0.002505527 0.011724614 0.030691706
-0.02093411 -0.011542051 0.079670385 0.1003722 0.051185302 0.11001787 0.10183437 0.053904075
0.053497225 0.084123306 0.03956117 0.07402839 0.046030447 0.03945281 -0.0021794767 0.08704107
00000000: e65d a5bc f341 813d 7797 373d 1f0c a03d
00000010: 731f 42bc 370f 833d 3a3d 3a3d d2c7 783d
00000020: 7498 683d ca7a 99bc 6177 683d d119 983d
00000030: 0f9b 5d3d a6b3 e23b fd46 f03d 5a36 833d
00000040: 562f 493d 16b2 8d3d e172 ae3d 3a86 843d
00000050: 6674 b9bc 1992 913d a663 bd3d 0d13 b83d
00000060: 36ff b83c 7188 a63d ffb9 93bb b708 efbc
00000070: 319b e8bb c59f 433b 576e ba3c ae96 813d
00000080: 80da b83d dcad 6f3c 408a 96bb b9d8 213d
00000090: 8daa e83c bc35 c03d b633 c03d 83d6 643d
000000a0: a56b 213c 0f86 ae3d 4e11 b93d 26e6 733d
000000b0: b7e0 a33d 7ad7 953d 28c5 803d b3cb 853d
000000c0: 5d8e 4a3d af24 953d 0a7d cc3d 8046 eabc
000000d0: 3bfc e23d 928f 13bc 143e a23d 9734 efbc
000000e0: 7b78 6d3d 5ff6 383d 71bf 943a 66ee b83d
000000f0: a66e 623d b8be 883d 889a 273d e864 003e
00000100: b1aa 483d d87f 203d 5261 ad3d 4ffa b03d
00000110: 5c1d 573d 806f d8bc 4860 533d 989d 533d
00000120: 80c4 c93c 0ce0 a63d b108 5cbb 2428 5c3d
00000130: 6f13 bd3c 3a9a 02bc 92c8 e63d 1b17 3ebc
00000140: e6ef af3d 8984 133d 0f51 74bb cd13 8b3d
00000150: e073 5a3d bdc3 c4bc 5f4f 883c 36b0 cc3d
00000160: 1887 223d fcc4 843d d2ff 543c 7bdf 85bc
00000170: 96d4 a93c 572c fc3d 3294 893d b22e de3d
00000180: e4b3 a9ba 2459 ee3c 68f4 a23d 1a42 2f3d
00000190: 5ffd 873d c004 d93d 174e 763d 63ee a3bc
000001a0: 85eb 453d 7b73 b93b e63c 52bc fb9a ad3d
000001b0: 5ac8 5a3c c533 243b 9818 403c 2c6d fb3c
000001c0: 037e abbc df1a 3dbc 3a2a a33d f18f cd3d
000001d0: aea7 513d 0d51 e13d 8a8e d03d 85ca 5c3d
000001e0: e81f 5b3d d748 ac3d e50a 223d 329c 973d
000001f0: 6c8a 3c3d 4599 213d 8dd5 0ebb 9742 b23d

weight f4 [64, 128]
0.0035840606 -0.0024275489 0.00045006812 -0.011480494 -0.003795479 -0.003911735 0.0037550477 0.0065167393
0.0036738885 0.00421886 -0.00898035 0.00081100216 0.021216838 -0.0032178576 0.0109303435 -0.023372563
-0.015581579 -0.0034365247 -0.00188341 0.00784929 0.00713703 0.004667415 -0.005873509 0.009931949
0.007820352 -0.000536698 0.0013193357 0.0058092843 -0.010493652 -0.0016773065 0.004703931 -0.0045838286
-0.017446881 -0.0010515769 0.019480197 0.0025746964 -0.0093688695 0.0106936535 -0.00021685801 -0.006285005
-0.0034922922 -0.008473429 0.0063953917 -0.014709609 0.011629238 0.0076560373 0.009204146 0.008124855
-0.011658178 -0.0013097507 0.0008802171 -0.018567985 0.001801215 -0.0052460437 -0.0030140246 0.009077146
0.017866964 -0.01928577 0.0040324465 -0.009202764 -0.0136128375 0.015298008 0.009037568 -0.007087827
-0.010764674 -0.02103618 -0.00960094 -0.013399557 0.016605252 -0.01666749 0.006526507 -0.011825041
0.009090378 -0.0091950605 -0.0033891837 0.0015549193 0.019678408 -0.0041306247 -0.0018011929 -0.0025157297
-0.02297786 -0.0018479304 0.0038445143 -0.0133854905 0.00091256096 -0.00485804 0.007989659 0.005475668
0.004823483 -0.014822573 -0.0024151693 -0.0042342474 -0.01279457 0.016169934 0.007831945 -0.012917162
0.005504213 0.0008458783 0.005176134 0.012737184 -0.0010890666 0.019145424 0.0029948612 -0.016117306
0.008962122 -0.0060478677 -0.0008928292 0.005365483 -0.0069680894 0.003869116 0.0044565867 -0.005518206
-0.018746441 0.0015280208 0.0090100905 0.015603631 -0.021632286 -0.01537484 -0.0045612915 -0.0064195474
-0.0047835275 -0.0019069371 0.012773558 0.0024054416 0.011411353 0.0021734943 -0.009632365 0.0019871139
0.031447772 -0.015366521 0.025914455 0.0030501417 0.03558723 -0.0004627572 -0.03246779 -0.025789771
0.0026965798 0.036824107 0.005368016 -0.0022899837 0.03817545 0.055684384 0.01806473 -0.0021492965
-0.004509986 0.017298955 0.016460204 -0.019385805 0.048667688 0.011965803 0.018411124 0.035741262
0.017335337 0.010843944 0.03608573 0.03760104 0.028704286 0.03765551 -0.011642887 0.003989371
0.015963871 0.053592693 0.04440651 0.0032133202 0.017844649 0.007733075 0.009728138 0.008177421
0.05018216 0.010713661 0.02841833 0.0026176148 0.022379458 0.0073012076 0.012260093 0.017557712
0.0019375521 0.024110068 -0.009330929 0.025933707 0.013364251 0.042085525 0.002273471 0.05899446
0.024119643 0.04452506 0.031396106 0.00024326783 0.022935146 -0.019599276 0.023019955 -0.0021044947
0.042012364 0.03714854 0.013719844 0.012257886 0.012895479 0.050698813 -0.023834027 -0.02782555
0.045091555 0.015652036 0.034207392 -0.0065909685 0.048822287 0.04016355 0.009036812 0.048112046
0.014296306 0.04718597 0.04325104 -0.0036268877 0.01281499 0.029289745 0.052560635 0.017573427
-0.0021649394 0.022492155 0.036888253 0.038288336 0.021654101 0.009090012 -0.0059378054 -0.010841577
0.054945264 0.00037557827 0.026824636 0.015294893 -0.015301337 0.005496908 0.009615288 0.046986807
0.006561333 0.02825635 0.045172263 0.007646401 0.04654229 0.05087844 0.03001796 -0.03152201
0.037486836 0.03857246 0.026623124 -0.029160975 0.01460546 0.0063717533 0.005657631 0.0028150522
0.037422568 0.029792242 0.020741733 0.04210951 0.0007234316 -0.036893934 0.019409304 -0.0051040947
00000000: 8fe2 6a3b 8317 1fbb 1ff7 eb39 af18 3cbc
00000010: 92bd 78bb 032e 80bb 3f17 763b 5f8a d53b
00000020: 9fc5 703b 5d3e 8a3b 5122 13bc 6f99 543a
00000030: efce ad3c b1e2 52bb 2f15 333c d177 bfbc
00000040: e149 7fbc 5137 61bb c1dc f6ba 4f9a 003c
00000050: bfdd e93b 1df1 983b 9176 c0bb 9db9 223c
00000060: ef20 003c 31b1 0cba 8fed ac3a cf5b be3b
00000070: 91ed 2bbc 11d9 dbba 6f23 9a3b f133 96bb
00000080: c3ec 8ebc 11d5 89ba ef94 9f3c 3dbc 283b
00000090: e37f 19bc 6f34 2f3c 6164 63b9 71f2 cdbb
000000a0: f1de 64bb 23d4 0abc 6f90 d13b 9200 71bc
000000b0: 8f88 3e3c 7fdf fa3b fdcc 163c 1d1e 053c
000000c0: f101 3fbc f1ab abba 5fbe 663a e31b 98bc
000000d0: bf16 ec3a 01e7 abbb f186 45bb 4fb8 143c
000000e0: bd5d 923c 31fd 9dbc 9d22 843b 31c7 16bc
000000f0: 6108 5fbc 7fa4 7a3c 4f12 143c 0141 e8bb
00000100: 515e 30bc 1154 acbc 434d 1dbc d189 5bbc
00000110: bd07 883c 438a 88bc 4fdc d53b d1bd 41bc
00000120: cfef 143c e1a6 16bc 111d 5ebb 6fce cb3a
00000130: 9d34 a13c 315a 87bb 0116 ecba f1de 24bb
00000140: 113c bcbc 4136 f2ba 3ff4 7b3b d14e 5bbc
00000150: ee38 6f3a 3130 9fbb 0fe7 023c 3b6d b33b
00000160: 4f0e 9e3b 61da 72bc d147 1ebb 71bf 8abb
00000170: 51a0 51bc cf76 843c 8f51 003c 81a2 53bc
00000180: af5c b43b efbd 5d3a 8f9c a93b 9faf 503c
00000190: 03bf 8eba ddd6 9c3c 6f45 443b 7108 84bc
000001a0: ddd5 123c 312d c6bb c10c 6aba efd0 af3b
000001b0: 9254 e4bb ff90 7d3b 8f08 923b 11d2 b4bb
000001c0: 2392 99bc df47 c83a 0f9f 133c 5fa6 7f3c
000001d0: 3136 b1bc c1e6 7bbc e376 95bb 115b d2bb
000001e0: 23bf 9cbb 31f2 f9ba 2f48 513c 9da4 1d3b
000001f0: aff6 3a3c 2f71 0e3b 11d1 1dbc 3d3a 023b
00000200: 61cf 003d dcc3 7bbc 8d4a d43c e3e4 473b
00000210: eac3 113d 389e f2b9 f2fc 04bd 1245 d3bc
00000220: 1ab9 303b e0d4 163d 2fe6 af3b 8d13 16bb
00000230: dc5d 1c3d 4f15 643d 7cfc 933c 36db 0cbb
00000240: 81c8 93bb 8ab6 8d3c 8dd7 863c fbce 9ebc
00000250: c557 473d 370c 443c edd2 963c 6e65 123d
00000260: d602 8e3c ccaa 313c a1ce 133d 8c03 1a3d
00000270: 4025 eb3c aa3c 1a3d cfc1 3ebc 45b9 823b
00000280: aac6 823c 0384 5b3d 9ae3 353d 9196 523b
00000290: f12e 923c bc65 fd3b c562 1f3c 97fa 053c
000002a0: cf8b 4d3d 5a88 2f3c 8fcd e83c 4a8c 2b3b
000002b0: 2055 b73c f83e ef3b 8fde 483c 31d5 8f3c
000002c0: 76f5 fd3a 7a82 c53c c1e0 18bc ed72 d43c
000002d0: bbf5 5a3c df61 2c3d 84fe 143b 2da4 713d
000002e0: 8f96 c53c e95f 363d 3499 003d b615 7f39
000002f0: 7de2 bb3c a98e a0bc 5894 bc3c 90eb 09bb
00000300: 2815 2c3d 1129 183d 32c9 603c 4dd5 483c
00000310: 8f47 533c 8fa9 4f3d 943f c3bc 68f2 e3bc
00000320: ecb1 383d b338 803c 0d1d 0c3d 0df9 d7bb
00000330: e1f9 473d 8982 243d 230f 143c 2311 453d
00000340: 0e3b 6a3c 1346 413d 0128 313d 14b1 6dbb
00000350: f7f5 513c 0cf1 ef3c d249 573d 26f6 8f3c
00000360: a8e1 0dbb 7841 b83c 2318 173d 3bd4 1c3d
00000370: f163 b13c 46ee 143c ec91 c2bb dfa0 31bc
00000380: 490e 613d 43e9 c439 57bf db3c 6e97 7a3c
00000390: 76b2 7abc 681f b43b 7189 1d3c 3d75 403d
000003a0: 7300 d73b dc79 e73c 8d06 393d a98e fa3b
000003b0: 21a3 3e3d e965 503d 3ae8 f53c 391d 01bd
000003c0: cc8b 193d 28fe 1d3d bd18 da3c ffe2 eebc
000003d0: bd4b 6f3c 24ca d03b a663 b93b bd7c 383b
000003e0: 6848 193d dc0e f43c 91ea a93c 067b 2c3d
000003f0: aca4 3d3a 181e 17bd 4300 9f3c 4040 a7bb

bias f4 [64]
-0.0015944411 0.014469288 -0.015588064 0.039979886 0.036273375 0.009374772 0.06118041 -0.0016729479
-0.022594364 0.02504446 0.0511248 0.00028292858 0.036764108 0.048772044 0.01814728 0.03757299
0.022691796 -0.0049431543 0.004798819 0.00088046386 0.0035010458 -0.00342555 0.039699487 0.059874438
-0.0030449987 0.010658883 0.047906823 0.056682795 0.015968453 -0.002629673 0.026157439 0.03330251
0.0494387 0.0664856 0.04623191 0.058909558 0.044210006 0.028682975 0.057853773 0.01703384
0.03638324 0.038827065 0.002380747 0.042711202 0.007544007 -0.012842954 0.0057680365 0.03273558
0.049316205 0.0010933399 0.029510416 0.05843708 0.032530747 0.04695754 0.029577456 0.018187236
0.0067575965 0.046276025 -0.000199109 -0.022885533 0.032703158 0.04782179 0.019243093 -0.0036875731
00000000: 91fc d0ba 9810 6d3c 1465 7fbc f3c1 233d
00000010: 6493 143d a598 193c 4f98 7a3d d146 dbba
00000020: d117 b9bc 0a2a cd3c 3d68 513d 0856 9439
00000030: f695 163d 32c5 473d 9ba9 943c 23e6 193d
00000040: 25e4 b93c 2ffa a1bb 693f 9d3b eece 663a
00000050: cd71 653b 317f 60bb ee9b 223d e63e 753d
00000060: 9a8e 47bb 98a2 2e3c f239 443d 382c 683d
00000070: 46d0 823c 9856 2cbb 2048 d63c 3668 083d
00000080: 3c80 4a3d 9a29 883d ac5d 3d3d 264b 713d
00000090: 8d15 353d 8ff8 ea3c 14f8 6c3d 8d8a 8b3c
000000a0: 9806 153d 2109 1f3d 4f06 1c3b f1f1 2e3d
000000b0: b833 f73b 416b 52bc cc01 bd3b be15 063d
000000c0: caff 493d 664e 8f3a d4bf f13c b85b 6f3d
000000d0: f63e 053d 8d56 403d 6c4c f23c 66fd 943c
000000e0: d46e dd3b ee8b 3d3d eac7 50b9 717a bbbc
000000f0: bff3 053d c8e0 433d b1a3 9d3c 36ab 71bb

weight f4 [10, 64]
-0.0008330746 0.054530043 0.06073288 -0.050228752 0.003426131 0.06216835 -0.038115125 0.024911849
-0.0068614413 -0.016071688 -0.020371728 0.050613347 -0.009112149 -0.04880827 0.00089598505 -0.01735687
0.04336623 -0.0003721337 0.051045287 0.053881407 0.031865183 0.002882417 -0.05485266 -0.03940444
0.05212082 0.054344513 -0.038899537 -0.043650746 0.054614317 0.06684946 -0.020106645 -0.0077131
-0.0010097161 -0.04255247 -0.028702205 -0.0026998029 0.004536983 -0.023061235 -0.05350191 0.04938327
0.034663144 -0.015749197 0.019405155 -0.043662224 0.04818405 0.0059461365 0.045362066 -0.00016659673
-0.03737314 0.022671513 0.05001955 -0.018749695 0.06250298 -0.025913656 0.053666078 -0.013708881
0.058119677 -0.04107665 0.055250086 0.015552921 -0.010544607 -0.038754433 0.059493028 0.051470995
0.010413435 -0.026294513 -0.0017250243 -0.03140409 -0.03619162 0.017888285 -0.045696482 -0.0122286985
-0.00484655 -0.032305554 -0.055502687 -0.010255886 -0.059854563 -0.03153777 -0.014411078 -0.009539923
0.009004587 0.03050697 0.0060256016 0.016656866 -0.050149456 0.016073612 -0.035570048 -0.02893067
0.009216575 0.03185225 -0.0329946 -0.035818197 0.0053961915 0.03703684 -0.051904052 -0.021782558
-0.049509864 -0.028134199 -0.030259497 -0.060699347 -0.0580747 -0.04994829 -0.05171596 0.0012774536
-0.024613408 -0.040722135 0.019204943 -0.019403264 0.0018108666 -0.010997712 -0.00011012735 -0.028651955
-0.05355942 -0.024588143 -0.03259205 -0.05727351 -0.049236633 -1.3493994e-05 -0.012512428 -0.017652659
-0.017188689 -0.032943465 0.0062948056 -0.0030680012 -0.018719275 -0.050427593 -0.0066670454 -0.003511711
-0.011983083 0.0038036585 0.01987137 -0.024810098 -0.056901913 0.0030611358 -0.055771522 0.009066937
-0.0051442613 -0.02363704 -0.022927864 0.013313938 -0.026741752 -0.03828822 -0.019249931 -0.024841446
2.9792096e-05 0.010563179 -0.0061580883 -0.0020265987 -0.018267283 -0.0062934984 -0.010800604 -0.06281111
-0.00020618836 0.0037882444 -0.034592316 -0.020951647 0.013620056 -0.011260287 -0.040634822 -0.02123517
-0.029115325 -0.038175862 -0.045696568 -0.028312793 -0.047780257 0.0022982487 -0.046755582 0.006791837
0.004729731 -0.013458786 -0.026485743 -0.027022481 0.01372151 -0.01985806 0.03462634 -0.010921943
-0.032564834 -0.03160267 -0.02818913 -0.030757684 -0.035465844 -0.015951853 -0.03222391 -0.008121985
0.00302575 -0.028844493 0.010544273 0.03297924 -0.026625931 -0.010108395 -0.0071828235 0.007468347
0.015534102 0.0031516575 -0.020638749 -0.025012553 -0.039521333 -0.007653947 -0.018160842 0.019332258
-0.005572014 -0.04897239 -0.03054687 -0.0010562972 -0.02757797 -0.018384153 -0.013608528 -0.005031729
-0.004192295 -0.0013505538 0.025884895 0.014913635 -0.005996655 -0.026834218 -0.012081647 -0.051059607
0.009021152 0.0119742695 -0.028981907 -0.03151265 -0.022526741 0.020904865 -0.057723816 -0.0603071
-0.0047656456 -0.04434433 -0.029878372 -0.013136005 -0.03226807 -0.033993877 -0.029238392 0.0056689493
-0.024044743 -0.023254037 0.0016036088 -0.03636681 0.00069052354 -0.016816908 0.017493375 -0.039804447
-0.04013813 -0.045989305 -0.0032881307 -0.02112589 -0.020001283 -0.027409868 -0.026769964 -0.017789843
-0.024895253 -0.024854712 0.0057701357 -0.00949131 0.0036618605 -0.008866468 -0.03609022 -0.0072701913
00000000: b162 5aba e55a 5f3d 0ac3 783d aabc 4dbd
00000010: f188 603b 3da4 7e3d 9b1e 1cbd ef13 cc3c
00000020: f1d5 e0bb c6a8 83bc 9ce2 a6bc f14f 4f3d
00000030: 1f4b 15bc 2eeb 47bd 8ae0 6a3a ff2f 8ebc
00000040: caa0 313d f11a c3b9 dd14 513d c0b2 5c3d
00000050: 1185 023d efe6 3c3b 2fad 60bd 8d66 21bd
00000060: a47c 553d 5a98 5e3d 1f55 1fbd 20cb 32bd
00000070: 43b3 5f3d 5fe8 883d b1b6 a4bc 2cbe fcbb
00000080: 7358 84ba 804b 2ebd e320 ebbc 2def 30bb
00000090: f9aa 943b eaea bcbc d224 5bbd 1d46 4a3d
000000a0: f1fa 0d3d 7604 81bc 8ff7 9e3c 29d7 32bd
000000b0: a35c 453d cfd7 c23b 93cd 393d 78b0 2eb9
000000c0: 9414 19bd 9cb9 b93c 4de1 4c3d f698 99bc
000000d0: 9001 803d e048 d4bc f6d0 5b3d 379b 60bc
000000e0: e60e 6e3d fd3f 28bd ea4d 623d aed1 7e3c
000000f0: 4ac3 2cbc f8bc 1ebd f6ae 733d 40d3 523d
00000100: 1d9d 2a3c 9767 d7bc 361a e2ba 93a1 00bd
00000110: aa3d 14bd 748a 923c 3c2c 3bbd e15a 48bc
00000120: cfcf 9ebb d452 04bd c956 63bd 4e08 28bc
00000130: 0f2a 75bd c02d 01bd 711c 6cbc 564d 1cbc
00000140: fa87 133c c1e9 f93c 6972 c53b fb73 883c
00000150: 8469 4dbd cfac 833c e6b1 11bd 0300 edbc
00000160: 1e01 173c 8177 023d 5825 07bd 1ab6 12bd
00000170: 89d2 b03b f1b3 173d 5899 54bd 5671 b2bc
00000180: dbca 4abd b179 e6bc c4e2 f7bc e19f 78bd
00000190: bddf 6dbd 9496 4cbd 1dd4 53bd 3b70 a73a
000001a0: 0fa2 c9bc 41cc 26bd af53 9d3c 98f3 9ebc
000001b0: 9a5a ed3a bf2f 34bc 2cf4 e6b8 81b7 eabc
000001c0: 1f61 5bbd 136d c9bc 3e7f 05bd a197 6abd
000001d0: 5aac 49bd 4364 62b7 ed00 4dbc 4f9c 90bc
000001e0: 4bcf 8cbc baef 06bd a844 ce3b 8510 49bb
000001f0: 2a59 99bc 2a8d 4ebd 3b77 dabb bc24 66bb
00000200: b154 44bc cd46 793b 49c9 a23c 8c3e cbbc
00000210: fb11 69bd 569d 483b ae70 64bd 7d8d 143c
00000220: 3191 a8bb 77a2 c1bc 37d3 bbbc b422 5a3c
00000230: 8511 dbbc 1cd4 1cbd 08b2 9dbc 4a80 cbbc
00000240: 0aea f937 2f11 2d3c cac9 c9bb afd0 04bb
00000250: 45a5 95bc b139 cebb 04f5 30bc 1ca3 80bd
00000260: 4434 58b9 3244 783b acb0 0dbd caa2 abbc
00000270: a826 5f3c 117d 38bc b370 26bd 61f5 adbc
00000280: 4383 eebc 4b5e 1cbd 532c 3bbd 3bf0 e7bc
00000290: 3bb5 43bd 379e 163b c882 3fbd 0f8e de3b
000002a0: dcfb 9a3b 3d82 5cbc a1f8 d8bc 405e ddbc
000002b0: 2fd0 603c 5fad a2bc 59d4 0d3d f3f1 32bc
000002c0: b462 05bd cd71 01bd e4ec e6bc 8af7 fbbc
000002d0: a244 11bd 76ad 82bc 38fd 03bd 1312 05bc
000002e0: a94b 463b 494b ecbc e3c1 2c3c 3d15 073d
000002f0: a01e dabc ae9d 25bc e45d ebbb 09b9 f43b
00000300: bf82 7e3c 0a8c 4e3b 9812 a9bc 20e7 ccbc
00000310: 1fe1 21bd f6cd fabb 0cc6 94bc af5e 9e3c
00000320: 7195 b6bb 4697 48bd 6e3d fabc 7473 8aba
00000330: 32eb e1bc 5d9a 96bc 4ef6 5ebc 34e1 a4bb
00000340: 855f 89bb 1105 b1ba 8f0c d43c 5258 743c
00000350: 977f c4bb 6fd3 dbbc 1af2 45bc e123 51bd
00000360: 74cd 133c ba2f 443c 776b edbc 6913 01bd
00000370: 008a b8bc ae40 ab3c cf6f 6cbd 9404 77bd
00000380: 2229 9cbb 66a2 35bd 7dc3 f4bc 6638 57bc
00000390: 862b 04bd 2a3d 0bbd 5a85 efbc 98c2 b93b
000003a0: 7bf9 c4bc 407f bebc 2f30 d23a 5df5 14bd
000003b0: 4004 353a 9dc3 89bc 444e 8f3c fd09 23bd
000003c0: e167 24bd 485f 3cbd ae7d 57bb 3410 adbc
000003d0: bbd9 a3bc a98a e0bc af4c dbbc 01bc 91bc
000003e0: 21f1 cbbc 1c9c cbbc 6813 bd3b 7181 1bbc
000003f0: d3fb 6f3b aa44 11bc 57d3 13bd c93a eebb

bias f4 [10]
0.01538504 -0.033895567 -0.036170103 0.0042130537 0.035734046 -0.010018873 -0.008920203 0.03142102
0.012681232 0.05880019
00000000: 8911 7c3c 14d6 0abd 1a27 14bd a80d 8a3b
00000010: dd5d 123d 3326 24bc 0b26 12bc 54b3 003d
00000020: f1c4 4f3c 78d8 703d
