models/DQN_Fed_AggPer_100.pth (torch, 64043 bytes, 6 tensors)

fc1.weight f4 [128, 50]
00000000: 9be0 f5bc a1c7 443c c9ae 843c 51d0 103c
00000010: bf0f a8bc 849c 963c eb44 9b3a 1401 e8bb
00000020: 9c45 7dbb 5429 84bc 2d8c 9dbc b4ec 5dba
00000030: 8682 04bd d893 00bd b3e2 503c bf3c 4c3c
00000040: 8f51 0cbc 41c2 90bd 8a5b c5bd ad40 febc
00000050: 1a80 cdbd f640 a7bc 8856 80bd ba6a 6ebd
00000060: bf5c 8ebd 2f9d 66bd 2f58 adbd 3b54 01bd
00000070: c9e2 51bc 5bab f8bc 4d2d 4bbd 3dd6 fa3c
00000080: 5cde d9bc 20a9 4abd 0f3c a43c 2109 1ebc
00000090: a0a4 5cbc cf57 f03b dcbd 073c e6d8 cebb
000000a0: f7cb 363b 40a4 c73c 03e0 f4bc 05b7 87bc
000000b0: 85c3 803c 8c52 d7bc f31b 483d 3667 f4bb
000000c0: fb92 673d faf5 a9bc 66ca 33bd a3e2 b8bc
000000d0: 9a51 f63c dbb0 8cbc 81e7 8d3b 642e a13c
000000e0: 142e 10bc ae44 88bc 23a1 2abc 213b 1fbd
000000f0: 069e 033c 526e d7bc 787a 6b3c ad80 c03b
00000100: fd83 c03c bb07 293c 9c43 1b3c 4325 63bd
00000110: dcad 8bbc bf93 20bd 988b 203d bcb8 88bd
00000120: 613d 19be bb1f b0bd 33e1 ecbc 142c 59bc
00000130: 21ff b23c 4d08 72bd 92b7 7dbd b68a e4bd
00000140: 97b2 b5bd 3b49 d8bd 0d9e 65be 7335 f7bc
00000150: d36d 40bd 2357 723c 6079 0fbd 7872 3c3d
00000160: 7aac 9a3c 3237 9dbd 9f59 79bc 7251 3ebd
00000170: 89c8 f639 24dc 55bd 2eb4 e33b 12c0 56bd
00000180: 9112 bcba 1851 463b ce3b 3fbd a483 a5bd
00000190: dc62 01bd 2a71 c5bc d27e bdbc e95d 7b3c
000001a0: 4adf a5bb 5f2a 1fbc 4df6 97bc eacc 80bc
000001b0: 3349 58bc 2e5e b5ba 4b29 a23c f6fe bfbb
000001c0: a7cc 9f3b fda1 573c 2fc0 c5bc 529c c8bc
000001d0: 32ea 92bd 9288 3cbc 169d 05be a3d9 7e3d
000001e0: d2b9 663d b63e 153d 23c9 583d ac29 d8bc
000001f0: 72bc ff3b 03d5 a4bd d441 c7bc 853a 9d3c
00000200: 2e2c d2ba 813e ccbc 6304 3e3c 4eda 9dbd
00000210: 00bb a1bd 967b bdbd da07 9fbc da1d 88bb
00000220: e6ec 56bd e421 ccbc 4ad3 1ebd 1272 1cbd
00000230: a658 7ebc 8564 ebbc ac13 c1bb 3be8 dbbc
00000240: a3f5 40bd da60 dfbc 836c 12bd 3b26 48bd
00000250: a6dc 22bd 8941 2cbd bbfa 9d3c 41bf 913c
00000260: 6f82 e43c 804e 543b c869 15bc e441 c8bc
00000270: 747c 15bd 0800 dfbc 05c3 26bc 7d01 4bbc
00000280: 338b 21bd 73eb 7ebc 4c8d c03b 6fb0 0dbd
00000290: caa4 e7bc 698f 3ebd 8ffa a43d 7f2a 9b3d
000002a0: 6972 cb3c 5b48 bcbb a854 81bc 8f06 63bc
000002b0: da42 f3bc 2471 e13c 31e4 83bd fd68 b23d
000002c0: 569d 3d3d 1c74 923d 2314 c83a 0390 353d
000002d0: 45b5 74bc 6e76 713c dc6e b3bb 8c1e 863d
000002e0: bd12 fe3d 5a71 2d3d d1ab 213c 940c abbc
000002f0: 5337 383d c583 de3c 3647 193d 2662 6b3d
00000300: 6407 f23d c68b a03d aa23 ea3d ae93 8b3d
00000310: 76fd cd3d 779a d83d e36e ed3c 6f09 f83c
00000320: 7977 03bd 4efa 31bc b41c 833c f869 34bc
00000330: ac16 223c 6e11 7cbc 8682 ac3c ea7d 01bd
00000340: 6109 b8bc 91f0 f33c 8f6d 8bbc 9d9a 873b
00000350: d242 d13a b30c 5a3c 26c7 e8bb ec9f b7ba
00000360: 63f6 dfbd 2fd7 77be 0848 c63d 17d5 babd
00000370: e192 853c 5447 d93d 322b db3d 8a2a ed3d
00000380: dadf 80bd 0a73 a2bd 69ca bc3c 364e 5ebe
00000390: fb11 023e df88 ebbe c564 9bbe d4f1 f5bd
000003a0: f851 3c3e b332 60bc ee3e fabd 72a4 413d
000003b0: 6ac4 20bb d636 963d 0ddc b13c 8d03 e7bc
000003c0: ae47 0e3d 4494 e53c ca4b 3bbd 4346 0d3c
000003d0: df56 26be ae5c 513d 40f9 c6bd bde7 1dbe
000003e0: 1b16 30be d7cf eb3d 43d0 e2bc 8d2b 1b3c
000003f0: 6ade 84bc ca1a 3f3b b69d 36bc 6ae1 103c
-0.030014327 0.012010486 0.016196625 0.008838729 -0.02051532 0.01838518 0.0011846101 -0.0070802066
-0.0038646227 -0.016132988 -0.01923188 -0.00084657525 -0.03235104 -0.031390995 0.012749362 0.012465655
-0.008564367 -0.07068301 -0.096366 -0.0310367 -0.10034199 -0.020416718 -0.062665045 -0.05820725
-0.06951284 -0.056302246 -0.08464085 -0.03157447 -0.012810417 -0.030355146 -0.04960375 0.030619735
-0.026595287 -0.049477696 0.02004817 -0.009645731 -0.013466984 0.0073346864 0.008285012 -0.0063124774
0.0027892569 0.024370313 -0.029891973 -0.016566763 0.015718231 -0.026284479 0.04885478 -0.0074585928
0.056536656 -0.020747174 -0.043894194 -0.022569006 0.030068208 -0.017174175 0.004330576 0.019675441
-0.008800048 -0.016634312 -0.010414395 -0.03887475 0.008033281 -0.026297722 0.014372461 0.0058747143
0.023500437 0.0103167845 0.009476569 -0.055455457 -0.017050676 -0.0392034 0.039195627 -0.0667586
-0.1496482 -0.08599802 -0.028915977 -0.013255138 0.02185017 -0.059089947 -0.061942644 -0.111592695
-0.08871954 -0.105608426 -0.22423573 -0.030176854 -0.046979737 0.014791283 -0.03502786 0.046007603
0.018881071 -0.07676543 -0.015219121 -0.04646439 0.00047070187 -0.052211896 0.0069489693 -0.052429266
-0.0014348795 0.0030260738 -0.046687894 -0.08081749 -0.03158842 -0.024101812 -0.023131762 0.015342214
-0.0050620185 -0.009714692 -0.018550063 -0.01572271 -0.013201046 -0.0013837272 0.01979508 -0.005859251
0.0048766914 0.01316118 -0.024139492 -0.024488602 -0.071735755 -0.01150717 -0.13048205 0.062219273
0.056329556 0.03643676 0.052926194 -0.026387058 0.007804447 -0.08048441 -0.024323381 0.019192943
-0.0016034895 -0.024932148 0.011597726 -0.07707654 -0.078969955 -0.09252088 -0.019412924 -0.004153949
-0.052472018 -0.024918504 -0.03877572 -0.038194723 -0.015524065 -0.028734455 -0.0058922376 -0.026844135
-0.047109257 -0.027267862 -0.035748016 -0.048864584 -0.039761208 -0.042054687 0.019284597 0.017791392
0.027894227 0.0032395422 -0.0091194585 -0.024445482 -0.03649564 -0.027221695 -0.010178332 -0.012390492
-0.03943939 -0.015559065 0.005876219 -0.03459209 -0.02827682 -0.046523485 0.08055603 0.07576465
0.024834828 -0.00574593 -0.015787438 -0.013856544 -0.029694963 0.02751977 -0.064400084 0.08711431
0.046292625 0.07151052 0.001526479 0.044326793 -0.014935796 0.0147377085 -0.005475862 0.06548795
0.12405918 0.04234443 0.009867624 -0.020880021 0.044974636 0.027162442 0.037421428 0.05746665
0.11817816 0.0783916 0.11432584 0.06815277 0.100581095 0.10576337 0.028983539 0.030277936
-0.03209636 -0.0108629 0.016004898 -0.011011593 0.009893101 -0.015385015 0.021058332 -0.03161422
-0.02246541 0.029777797 -0.017020015 0.0041383044 0.0015965349 0.013308692 -0.0071038185 -0.0014009452
-0.109356664 -0.2420318 0.096817076 -0.09122675 0.016305389 0.10609308 0.10701598 0.11580379
-0.06292696 -0.07932098 0.023045735 -0.21709523 0.12702172 -0.46002862 -0.3035032 -0.12009016
0.18390644 -0.013683963 -0.12219034 0.047275968 -0.0024531134 0.07334678 0.021711374 -0.028199935
0.034736328 0.0280248 -0.045726575 0.008622709 -0.16244076 0.051113777 -0.097155094 -0.15420432
-0.17195933 0.11514252 -0.027687198 0.0094708325 -0.016219337 0.0029160255 -0.011146 0.008842805

fc1.bias f4 [128]
00000000: 5b21 6a3f 9875 8c3f b6ad a63f 01bf 743f
00000010: 2cca 803f 5dd0 4d3f 38d1 9a3f fbea 873f
00000020: 4530 533f d2b9 653f 562e 723f fd66 813f
00000030: ec40 723f c3da 8a3f c9ba 853f 4c07 1e3f
00000040: f3cc 7a3f e667 683f 2e43 853f 3bf7 783f
00000050: 5f40 6d3f b827 a53f a0fc 413f 94b3 2d3f
00000060: 13d3 893f b638 853f 2c50 653f 81c9 7a3f
00000070: 817c 8b3f 333c 733f 430e 693f d8af 8c3f
00000080: 6e34 253f 9c52 963f 7781 823f b1d3 7d3f
00000090: 69ee 933f 4d9d 823f d75c 673f daca 803f
000000a0: 9b10 813f 3158 263f e087 843f 559e 943f
000000b0: d4d8 9c3f e500 853f 0e09 3a3f e88d 993f
000000c0: 2dcf 8c3f 7d31 883f bb4d 763f d851 663f
000000d0: 4221 813f 0509 6f3f 9cb2 8e3f 45da 6a3f
000000e0: 481c 793f 26e1 843f cf32 6c3f 001f 733f
000000f0: 6cf1 1e3f 21ef 783f a159 793f 91ef 923f
00000100: e9f8 653f 3fc0 6f3f 57d4 683f b2e2 653f
00000110: b8ea 733f 1236 793f 0967 5e3f 698c 673f
00000120: 71f7 7c3f efa6 563f 64ed 6a3f a5ba 6c3f
00000130: b7a1 913f dc59 833f 9708 7a3f c174 463f
00000140: 694a 7d3f a90b 823f e822 8b3f f489 783f
00000150: 4a03 5f3f bb48 643f 71cc 6c3f 4a1d 5f3f
00000160: c95f 8a3f 6ea3 763f bd7b 713f 5d1e 963f
00000170: e947 7f3f 9aba 703f 1413 753f b170 263f
00000180: eaf5 8f3f cab0 6d3f 9031 833f 4083 373f
00000190: 7f69 823f a87f 893f 1c1d 873f 8f81 633f
000001a0: 60a2 893f b88a 833f e64b 713f ec2b a93f
000001b0: b461 873f 141d 913f 1616 6e3f c831 823f
000001c0: 6e07 7b3f 3d58 7c3f 6b46 933f 86b9 943f
000001d0: d20d 5f3f 4cf8 923f b82b 833f 8d05 233f
000001e0: d41c 803f 4fd0 803f 8cbf 873f 8001 8f3f
000001f0: b492 a03f 8336 623f e30d 9c3f e142 823f
0.91457146 1.0973387 1.3021762 0.9560395 1.0061698 0.8039606 1.2095098 1.0618585
0.8249553 0.89736664 0.94601953 1.0109555 0.9463031 1.0848011 1.0447627 0.61729884
0.9796898 0.90783536 1.0411127 0.97252244 0.9267635 1.2902746 0.757761 0.6785214
1.076754 1.0407932 0.8957546 0.9796372 1.089737 0.9501373 0.91037387 1.0991163
0.64533126 1.174396 1.019576 0.9915114 1.1557132 1.0204254 0.9037604 1.0061905
1.0083193 0.6497832 1.0353966 1.1610819 1.2253671 1.0390898 0.72670066 1.1996431
1.1000725 1.0640103 0.9621236 0.89968634 1.0088274 0.9337314 1.1148257 0.917393
0.9730878 1.038121 0.9226503 0.9496918 0.6208713 0.9723988 0.9740239 1.147936
0.8983293 0.9365272 0.90949005 0.89799035 0.9528003 0.9734813 0.8687597 0.90448624
0.98815066 0.8384847 0.9176848 0.92472297 1.1377476 1.0261798 0.9766936 0.775219
0.98941666 1.0159808 1.0870028 0.970855 0.87114394 0.8917348 0.9249945 0.87154067
1.0810481 0.96343124 0.94329435 1.1728016 0.997191 0.9403473 0.95732236 0.65015703
1.1246922 0.92847884 1.02495 0.71684647 1.0188445 1.0742083 1.0555758 0.88869566
1.0752678 1.0276709 0.94256437 1.3216529 1.0576692 1.1336999 0.9300245 1.0171442
0.9805821 0.9857214 1.1505865 1.1619117 0.87130463 1.1482024 1.0247717 0.63680345
1.0008798 1.0063571 1.060533 1.1172333 1.254477 0.8836443 1.2191738 1.017666

fc2.weight f4 [64, 128]
00000000: 1115 dbbb ae9d fcbb b13d 3cbc b610 b43a
00000010: 207d 353a d678 afbb d81d 8dbc 3ff7 cdbb
00000020: c118 f1bb 7f99 cbbc ff53 71bc dff3 5e3b
00000030: d144 143b 61de 313c 2aaf a1bb 6ab9 33bc
00000040: c126 8bbb aff9 5dbc b159 c93b 7af4 98bb
00000050: 6e05 683a ff0b c4bb c552 4ebc ffbb ebbb
00000060: 407a 48bc 8534 593b 003c 2d3b ff84 783c
00000070: 01da d3bb e3b4 28bc d1b9 8f3b 2022 5dbc
00000080: a1e0 3ebb 4a00 dabb ee24 6ebc d174 5cba
00000090: c5d3 debb c5a6 57bc 767e aeb9 cfed 4abc
000000a0: ff34 eebc f9bd 823a 087b 97bc e163 bebb
000000b0: af84 a63b 768e 29bc 51e2 4a3c 8a83 39bb
000000c0: 03b2 0cbc 1176 d4bb c646 27bb df74 b7bc
000000d0: bf0d 3739 9838 17bc 3a84 9fbb 1646 c0bb
000000e0: 8383 aa3b 7ddb 94bc 1df2 04bc 9a5c ca3a
000000f0: a167 ffbb 560d 1d3c 69e4 25bb 3583 92bc
00000100: 9168 e1bc 0f29 bebc c165 2f3c ff2e e7bb
00000110: f6cd 21bb d2f4 f7bb a113 4bbc 31e5 c6bc
00000120: 2657 b2ba a1e2 f5ba 2f22 30bc 457d 62bb
00000130: 619f 733c 5d23 29bc 2654 33bc 0581 2c3c
00000140: 116b 443a 0915 02bc fb86 403c 52f2 e6bc
00000150: 483c 09bc 8ab3 94bc 7679 f33a 5145 60bb
00000160: 1f57 593b 4afd 16bc eed7 f03b e53b 40bc
00000170: d28c f2b8 2f2f 1a3c 4feb b93a c5ac b2bb
00000180: 8a94 a0bb 713e 773c 19e2 00bc 8f5d 9a3b
00000190: fb14 4dbc 97d4 273c 0308 97bc 1a35 b7bb
000001a0: 8f44 b0bb 2f00 9fbb 4f17 60bc 710f a93a
000001b0: 2fdd b1bc 0f93 f53b 014c f9bb 035f 84bc
000001c0: 457a d4bc f154 00bc d2ef ef3b 3668 7c3b
000001d0: 2f19 c4bc 31c0 cbba ae55 7dbb a500 5f3b
000001e0: af4f 60bc 01c6 33bc 6f61 923c 7143 9b3b
000001f0: d264 e439 1f44 b1bc ca25 fa3a c195 5cbb
00000200: 7058 9f3c c092 693d 3b11 393e 33d4 b23d
00000210: 17bc a33d df92 aa3d db7f 1a3e 1212 7d3c
00000220: 15e3 983c ef67 1c3c 5a1f d03d 0829 6a3c
00000230: 920f ec3c dad6 cf3d 7de0 023e 7f56 e03d
00000240: 713c a53b dc3a 9e3c 2c2e 293e 1812 333c
00000250: 9a7b a73b 58fb 0a3e 458e 453e b2e1 4d3d
00000260: 21f1 063e b11e 923c eae7 5e3c 9fbf c33c
00000270: e345 2a3d 1cf2 ac3c 1ea0 073d 4a92 fd3c
00000280: 2430 dc3b e4c7 b13d 9719 8c3c 54e9 8d3d
00000290: 774f 2f3d 0352 0e3d 1639 853e b624 553c
000002a0: ad6d 1f3e 454c 753d c1f6 123e 1320 053e
000002b0: 1c00 943d 5439 e03e bc83 cd3d 513d a43d
000002c0: 5d3c b33c f1ec 1c3e 13ae fe3d 9482 c03d
000002d0: 66b0 c13c 7cf2 303b c815 963d f7e3 043d
000002e0: db65 883d bb23 c23c 29a1 ee3c 0f07 d13d
000002f0: d4a9 9b3d 749b 01bb 45ec 393c 7621 2a3d
00000300: 1245 293d 29db 56bb 21aa cb3d 9733 db3d
00000310: e965 b73d e09e 103e 92e2 f73b b2d0 5b3c
00000320: 1a01 be3d 480a d1bd 4844 853d 911e 623c
00000330: e0f3 813d cd9d 0c3e 6f71 a63c a642 6dbd
00000340: 385a fc3d 5787 cc3c 12d7 dd3d 0a86 8b3c
00000350: 100c 963d 0f4a 293d d4a6 ca3c 5b59 8b3c
00000360: d45e fe3c d1b7 b13c bb7e 6d3c 8d62 053e
00000370: 6692 883d 1641 553c 1a20 da3c 8dd9 d83c
00000380: 142b 823d e625 d13d fd0c ee3c da05 c8bd
00000390: a6fb 973c e63e 223e d804 183d 4fff fa3c
000003a0: e4ab 373d 0026 f53d 7474 413d ba32 7c3e
000003b0: 1a05 633d 682c dc3d e58d 013d 888e f13d
000003c0: 0162 a33b 5f4c a13c 5423 563d 5f20 993d
000003d0: e6d6 0f3d b3de d83d a53c d03d 763a e63b
000003e0: dbd4 9e3d 2d5c 9e3d 9f7f d33c 8570 b53d
000003f0: 1362 0f3e d4ac 093e 412b a83d bd5d ae3c
-0.006685861 -0.0077092266 -0.011489318 0.001373789 0.0006923247 -0.005354981 -0.017226145 -0.0062855775
-0.007357687 -0.024853466 -0.014729499 0.003401987 0.0022624026 0.010856242 -0.0049342113 -0.010969499
-0.004246563 -0.013548299 0.0061447253 -0.0046678158 0.0008850907 -0.0059828754 -0.012592976 -0.0071940417
-0.012236178 0.0033142876 0.0026433468 0.0151684275 -0.006465197 -0.010297033 0.0043861647 -0.013496906
-0.0029125588 -0.0066528665 -0.014535172 -0.0008409741 -0.0068001472 -0.01316232 -0.00033282087 -0.0123858
-0.029078005 0.0009974829 -0.018491283 -0.0058102463 0.005081735 -0.010348907 0.01238306 -0.0028307163
-0.008587363 -0.006483801 -0.0025524362 -0.022394596 0.00017457361 -0.009229802 -0.0048680576 -0.00586773
0.0052036657 -0.018171066 -0.008114365 0.0015438974 -0.007794336 0.009585699 -0.0025313145 -0.01788483
-0.027515681 -0.023212938 0.010705412 -0.007055163 -0.0024689413 -0.0075670267 -0.012394817 -0.024279209
-0.0013606295 -0.0018759557 -0.0107503375 -0.003455953 0.014869542 -0.010323373 -0.0109453555 0.0105288075
0.0007492761 -0.0079395855 0.011750932 -0.02819172 -0.008376189 -0.018152017 0.0018575627 -0.0034221003
0.00331635 -0.009215662 0.0073499596 -0.01173303 -0.00011565689 0.0094106635 0.0014184507 -0.0054527246
-0.0049005197 0.015090571 -0.007866406 0.00471086 -0.012517209 0.010243556 -0.018436437 -0.005591047
-0.0053792666 -0.004852317 -0.013677432 0.0012898279 -0.021711914 0.0074943374 -0.0076079373 -0.016158586
-0.025937209 -0.007832752 0.00732229 0.0038514263 -0.02393779 -0.0015544948 -0.0038655805 0.0034027484
-0.013690873 -0.010972501 0.017868726 0.0047382643 0.00043562666 -0.021638928 0.0019084748 -0.0033658596
0.01945135 0.057024717 0.18072979 0.0873188 0.0799486 0.08328795 0.15087835 0.015446203
0.018662969 0.009546264 0.1016223 0.014292009 0.028816018 0.101484016 0.12780948 0.10953998
0.0050426056 0.019315176 0.1652152 0.010929607 0.00511117 0.13572443 0.19292553 0.050264068
0.13177921 0.0178369 0.013605097 0.023895083 0.041570555 0.02111154 0.033111684 0.030953545
0.006719606 0.08680704 0.017102046 0.069292694 0.042800393 0.03474618 0.26020116 0.013009241
0.15569182 0.05988719 0.14351942 0.13000517 0.07226583 0.43793738 0.10034892 0.08019508
0.02187937 0.15324761 0.12435546 0.09399906 0.023643684 0.0027 0.07328373 0.032443967
0.066600524 0.023698678 0.029129582 0.102064244 0.076007515 -0.0019776495 0.011347835 0.041535817
0.041325636 -0.0032784438 0.09944559 0.10703199 0.08954985 0.14123106 0.007564851 0.013416456
0.09277554 -0.10207039 0.06507164 0.013801233 0.063453436 0.13732071 0.020317761 -0.05792489
0.12321895 0.024966879 0.10832037 0.017031688 0.073265195 0.041330393 0.024737753 0.017010381
0.031051077 0.021694096 0.014495547 0.13025875 0.06668548 0.013016006 0.026626635 0.026470924
0.06355873 0.10212307 0.029058928 -0.09766741 0.018552613 0.15844306 0.037113994 0.030639319
0.044841662 0.119701385 0.0472302 0.24628726 0.055424787 0.10750657 0.03162946 0.11794764
0.004986048 0.019689737 0.052279785 0.074768774 0.035117052 0.105893515 0.10167817 0.007026012
0.07755443 0.07732425 0.02581769 0.08859352 0.14002256 0.13444835 0.08211375 0.021284932

fc2.bias f4 [64]
00000000: 80ac dbbb 2d3d 863f 9cb7 7e3f 2536 753f
00000010: 7ca2 853f 95b1 863f 1391 413f 0333 863f
00000020: f2b7 863f 4739 0fbc 64dc 743f 413f 9b3f
00000030: c21a 863f e1b2 893f 3f6a 873f a894 873f
00000040: 5ca0 923f 071d 0cbc 7f09 893f 6c04 903f
00000050: a50d 903f 460f 8d3f 81a4 883f e185 6c3f
00000060: 0f47 843f 3dd0 923f 8a89 7ebb 11e5 4fbc
00000070: c8ca 793f 5426 993f a35e 863f 0e10 873f
00000080: f146 7c3f 0e1c 833f 7cca 853f 12c7 713f
00000090: f57b 883f 3eb5 863f 6d7b 6f3f a012 13bc
000000a0: 23cf 773f 2dfd 573f fbad 873f 5fa7 883f
000000b0: 120d 7b3f 9dd8 8a3f 7339 8b3f 375c 7c3f
000000c0: dc0f 6d3f d167 973f 58b8 333f 5f45 6d3f
000000d0: 238b 813f 5bb0 8e3f da84 973f 2cce 953f
000000e0: db7b 613f a6ff 703f 48b2 773f 612b ddbc
000000f0: c779 913f 7739 873f 3662 963f 421a 843f
-0.006703913 1.0487419 0.99498916 0.95785743 1.0440211 1.0522944 0.7561199 1.0484318
1.0524886 -0.008741683 0.9564879 1.2128679 1.0476916 1.0757715 1.0579299 1.0592241
1.1455188 -0.0085518425 1.0706023 1.125135 1.1254164 1.1020286 1.0675203 0.92391783
1.0334185 1.1469799 -0.0038839304 -0.012688891 0.97575045 1.1964822 1.0497631 1.0551775
0.9854575 1.0242937 1.0452418 0.9444438 1.0662829 1.0524061 0.9354771 -0.0089766085
0.9680044 0.8437069 1.059997 1.0676078 0.9806682 1.0847355 1.0876907 0.9857821
0.92602324 1.1828557 0.7020316 0.92683977 1.0120586 1.114757 1.1837418 1.1703544
0.88079613 0.9414009 0.9675641 -0.026998224 1.1365288 1.0564412 1.1748722 1.0320513

fc3.weight f4 [10, 64]
00000000: aa6d 9e3c a872 153e 2375 203e 08ef d63d
00000010: 4392 113e 9ccd fd3d b056 05bd a4a4 ef3d
00000020: ef73 153e 0a8d 18bb cfb5 b43d 092a 133e
00000030: 4f47 e83d 4ff6 073e e925 043e 2670 043e
00000040: 3281 103e d1e5 013c 4d10 ec3d dbd1 043e
00000050: d3bb 0c3e 9888 063e 4e58 bf3d 7985 883c
00000060: e631 113e 26bd 1d3e b1b2 7dbb 4fd4 e036
00000070: d66e 093e b8a5 233e 613c f43d 93f1 b83d
00000080: 6419 e53d 002a db3d 037e 0b3e 4db6 f03d
00000090: 34b5 1e3e 48a4 f73d f8d1 033e ffe9 fc3b
000000a0: e691 153e 3b88 da3b 6180 173e 36cc eb3d
000000b0: ec80 103e 9b42 e83d 6f1c d13d 57f4 fc3d
000000c0: 3100 d23d 93d4 0b3e 9ab9 2dbe 5f65 f93d
000000d0: 6faf 0f3e 43da 203e bf82 163e 833e 033e
000000e0: 8553 75ba cffc f03d 46cf 7b3d b134 993c
000000f0: 0dd5 123e dc4d 0b3e 6a2f 263e 3fc1 0d3e
00000100: af36 573c 8af7 c23d da48 f03d 239f 103e
00000110: f252 003e 5cdc ea3d 1715 61bd d1da f63d
00000120: 5aa1 e43d 9b9d e13c 8069 5c3d 8c57 063e
00000130: 26b7 e73d 8201 0a3e 32a9 ee3d d48c ff3d
00000140: 2f12 023e b64b b73c 2570 233e 29b5 ca3d
00000150: 6d7e c53d 644f 193e a840 133e c4f1 1b3c
00000160: 7056 073e 0f71 023e 0f63 5c3c 56ae b3ba
00000170: 256c d23d 4c8f 113e 1a40 f13d 4da0 e93d
00000180: ba25 e53d 3d8e c93d 976b d33d 9223 a83d
00000190: 4d08 c83d 942e d73d 7f18 a03d b905 013d
000001a0: 9271 b23d 6b73 9fbc c410 c93d ae73 a83d
000001b0: 5399 f83d 923c f83d 7ced 9f3d 05c3 423c
000001c0: 362b bb3d cd7b fb3d c117 e7bd db19 d03d
000001d0: e61c 803d acc1 3d3e 3222 0a3e 92e2 0e3e
000001e0: 21c1 18bc 8995 e03d 004a 403d c086 ffbc
000001f0: cc7d 123e 3b05 c83d ccca 103e 3888 e03d
00000200: 5faf f9bc d07a 023e 61ae f03d 1863 cd3d
00000210: 7f51 ea3d 0928 063e 1b0d a93c 1c21 d33d
00000220: 7852 e73d bf30 7bbb 5280 a83d 7d22 f63d
00000230: bd31 cd3d c351 de3d 2d45 a03d 8dc8 fb3d
00000240: eeab d63d 1f26 f1bb 6e2b e53d 2ebf ba3d
00000250: e07b 023e dde0 ef3d dc50 e83d 744c 923d
00000260: 0f24 033e 7727 ae3d f193 593b 9151 dbba
00000270: 5fa7 013e 9bf4 f93d 3840 e53d 7613 d23d
00000280: 89ca f23d 1f04 fb3d acac b93d daf7 f83d
00000290: 1653 a63d a347 0a3e 312a d23d 5fc4 c1ba
000002a0: e96c e73d 5db2 bb3d 8483 ca3d 8ce8 be3d
000002b0: 435b 113e d4b9 cf3d 6c94 a13d 4d93 093d
000002c0: 7bc0 f93d 1a60 d33d 4933 503c 63c7 003e
000002d0: fdce a83d 8806 f73d a8ce 7d3d 52b7 f13d
000002e0: 1a99 3c3d 4a18 c13d d3de 973d 7868 8f3c
000002f0: 4d9f ee3d 4d14 d03d 0565 e03d edbe e93d
00000300: c1d1 fa3b 3613 033e dcee e43d 6f9b 023e
00000310: 4c4d d23d 6a74 023e 26fe 583b 8a87 e73d
00000320: 7d11 d43d ef34 253b edd5 b13d 72d3 b83d
00000330: bfd8 043e b2ef cd3d 7251 e73d 26fb 173e
00000340: 093a 063e 2f98 82bb 2c65 f73d 7226 ad3d
00000350: 4305 e23d 2c3f 093e c461 043e fcaa c23d
00000360: 6922 da3d c308 f43d 9d2c a23c 3b39 463c
00000370: 542e ea3d 6dfe 153e 8608 ad3d 21ef 993d
00000380: 21bf f43d e9ef 043e d3e9 033e f6f3 e83d
00000390: 7f9b 033e f161 d93d 94e8 fa3d f692 a63b
000003a0: 8990 e03d 04b3 cd3d 69b6 e53d f74d a53d
000003b0: b1e4 e53d 939f cf3d 452f bb3d 57da 483d
000003c0: 0d74 d03d 0dea a73d 58ab 0ebd 24f9 ea3d
000003d0: c0e0 ab3d 05a3 d93d 52ad d93d 453e b83d
000003e0: 5f6b 923d 6fcf 003e ca82 723d 986a 143c
000003f0: a513 0e3e 57be c93d 78c3 d53d 520d 0e3e
0.019339401 0.14594519 0.15669684 0.1049481 0.1421595 0.123927325 -0.032553375 0.117013246
0.14595006 -0.0023277425 0.0882374 0.14371504 0.11341726 0.13277553 0.12905087 0.12933406
0.14111784 0.007928328 0.115265466 0.12970679 0.13743524 0.13138044 0.09343015 0.016665207
0.14179191 0.15404186 -0.0038711245 6.700436e-06 0.13421187 0.15981185 0.11925579 0.090304516
0.111864835 0.1070137 0.13622288 0.11753521 0.15498811 0.12091881 0.12873065 0.007718324
0.14606437 0.006669072 0.14795066 0.115135595 0.1411168 0.11340829 0.102105014 0.123512916
0.10253943 0.1365531 -0.16965333 0.12177538 0.14031766 0.1570826 0.14698313 0.12816815
-0.00093584537 0.117669694 0.06147697 0.018701883 0.14339085 0.1360392 0.16229025 0.13843249
0.013135596 0.095198706 0.11732645 0.14123206 0.12531641 0.114678115 -0.054951753 0.12053455
0.11163588 0.027540972 0.05381155 0.13119334 0.1131423 0.13477138 0.11653365 0.12478033
0.12702249 0.022374969 0.15960748 0.09897835 0.096432544 0.14971691 0.14380133 0.009518091
0.13216567 0.12738441 0.013451352 -0.0013708572 0.10274533 0.1421482 0.117798045 0.11407528
0.111888364 0.09841583 0.103232555 0.082099095 0.09767208 0.10506931 0.07817172 0.0314996
0.08713068 -0.019464215 0.09817651 0.08225189 0.12138619 0.12120928 0.078089684 0.011887317
0.09139101 0.122794725 -0.112838276 0.101611815 0.06255512 0.18530911 0.13489607 0.13953617
-0.009323389 0.109660216 0.046945572 -0.031192183 0.143058 0.09766623 0.14139861 0.10963482
-0.030479131 0.12742162 0.1175201 0.10028666 0.114413254 0.1310121 0.020636132 0.103090495
0.112950265 -0.0038328615 0.082276 0.12018297 0.100192524 0.108554386 0.07825694 0.122941114
0.10482012 -0.0073592807 0.11189924 0.09118496 0.12742567 0.11712811 0.11343548 0.071434885
0.12806724 0.08503621 0.0033199752 -0.0016732683 0.12661503 0.12204858 0.111938894 0.10257618
0.11855037 0.122566454 0.09066138 0.12156649 0.08121316 0.1350389 0.102619536 -0.0014783255
0.1130007 0.091648795 0.09888366 0.093216985 0.1419497 0.10142866 0.07889637 0.033587743
0.12194916 0.10321064 0.01270754 0.1257606 0.08242605 0.120617926 0.06196466 0.11802544
0.046044447 0.09428461 0.07415547 0.01750587 0.11651478 0.10160122 0.10956768 0.11413369
0.007654399 0.12800297 0.11178371 0.12754606 0.102686495 0.12739721 0.0033110469 0.11305149
0.10354898 0.0025208553 0.08683381 0.09024705 0.12973307 0.10055484 0.11294831 0.148419
0.13108076 -0.003985427 0.12079844 0.084545985 0.1103616 0.13403004 0.1292792 0.09505269
0.106510945 0.11915734 0.019796664 0.012098606 0.11434618 0.14647837 0.08448891 0.07516313
0.119505174 0.12982143 0.12882166 0.11374657 0.12852286 0.10614384 0.12251392 0.005083437
0.10965068 0.1004391 0.112164326 0.08071511 0.1122526 0.10137858 0.09139875 0.04903635
0.10178385 0.081989385 -0.034831375 0.11473301 0.08392477 0.10626797 0.10628761 0.08996252
0.07149386 0.1257913 0.05920676 0.009058617 0.13874681 0.098507576 0.10437673 0.13872269

fc3.bias f4 [10]
00000000: c04f 823f e936 4d3f 863a f03e 94eb ec3e
00000010: 5c8f d13e 09de e13e 5c11 f03e ff7b 3a3e
00000020: e3bc fd3e 58d8 0e3f
1.0180588 0.8016191 0.4691965 0.46273482 0.40929687 0.44114712 0.46888244 0.18211363
0.49558172 0.55798864
