models/DQN_central.pth (torch, 64043 bytes, 6 tensors)

fc1.weight f4 [128, 50]
00000000: f8fd d7bd 5073 69bc 5513 fe3d d287 d9bd
00000010: ba4a 2f3c cdf3 1c3d b1a3 ac3b 64f8 00be
00000020: 805b db3a 0649 d53d ace2 99bd 06e4 8f3d
00000030: f770 95bd 09b9 18bc a2d6 963d 88ec 1d3c
00000040: 1384 2ebe 6ab6 bd3d cd59 bc3d a9b6 aa3d
00000050: 33d8 0a3e 4fe9 9c3d c27e db3d 66f2 123d
00000060: f76d f03d e37f fdbd 5c18 92b9 deb5 753c
00000070: c965 95bd 022e 423d 5744 b83d 932f 19be
00000080: 8b66 bfbd 7509 a2bd b270 1c3e 85c4 e0bd
00000090: 16b1 213e 02e9 30bd ed54 c73c 9483 bd3c
000000a0: b241 a43b a807 043e 55f2 d33c 20d3 4fbd
000000b0: 6908 33bd 717c 5c3d fefd 6c3d 69a0 2bbd
000000c0: ced0 933c 3add 92bd 7d40 bd3c 8ea4 a43d
000000d0: 55a5 4f3b 0912 f2bc 7387 9c3b d91a 5f3d
000000e0: 5a73 8fbd 81df 753a 29de ae3d 10bf d4bb
000000f0: ac24 c23d f57d 02be 45ae f7bd 2061 87bd
00000100: 1d2d 6f3d 6f7b b03d c159 3ebe 99fe 6e3d
00000110: 5ab9 6cbd 81a4 bc3c b033 ee3d 8dec 80be
00000120: 6eea b4bc af1f 553d 983b 80bc d723 0fbe
00000130: 8794 a7bd 3024 9cbd 0f5d b73d 2698 f83d
00000140: d32b 30be 2844 76be 2acc eebd f096 21bd
00000150: 4a51 f93d 62fa 143e 7ed6 a53d f63e d03b
00000160: 6590 73be d847 51bc 5cbe 21bd 7357 983c
00000170: 99aa d5bd 8850 c3bc 60cb 883d 60bd 1a3e
00000180: 9c84 0d3e 4086 42be 2b8a 6a3d 7bf2 963d
00000190: 14d4 743d 4122 083e a8b3 013c a535 a1bc
000001a0: 1874 a8bd 75c4 16bd b32f 313d f2ab e2bd
000001b0: bb7f 9d3c fb19 3abd c858 ecbd ea30 a5bc
000001c0: 3864 6dbd 4801 033e 08d5 8ebd 78fc 263e
000001d0: 1fc2 9f3d b928 213e 97b6 123c e574 81ba
000001e0: f9b0 e9bd 6581 4f3d 9257 cc3d 933d 2bbc
000001f0: 1295 80ba 0fc4 e9bb 8f18 9a3d 5401 92bd
00000200: d718 833b 3bc4 fa3c f904 243d 03ad e43d
00000210: 1bcc 0cbe 35e4 993d f94d 7d3d 95c1 e2bc
00000220: 772a 4bbc ca23 d23b 4527 c5bd 43ed b2bd
00000230: 8456 433d 9c7e 063e 6393 353e 85d6 1d3d
00000240: 237c a5bd d106 2bbc df33 893d 13f7 853d
00000250: fd8e d33c 03de 4bbd 7311 933c 586f d63d
00000260: c9ea ebbd 8538 6fbd 57cd cbbd aab9 9cbd
00000270: e962 d83d a26e 193d c315 0ebd a9a1 d6bc
00000280: f06c cf3d 1155 043d 4792 ecbc bc60 213d
00000290: c9f5 0cbd 0a6f 213d a6ca a5bd cf5c f8bd
000002a0: c3d3 60be 82ca 9c3d 28ed 09be b6fd 8fbb
000002b0: 9db0 13be e27c a4bd 917a 49be d3f2 a53d
000002c0: 61de 193e da4e 07be d0f2 3ebe 10de 023c
000002d0: 5b88 923d f710 243e 1373 59be c7fb 243e
000002e0: 011d b6bd 1217 23be 2198 5fbb 3b4f 9dbd
000002f0: e001 973c 77ac cbbd c718 4fbe c700 75be
00000300: f660 7e3d c015 edbc 1a91 2abd f9e7 b9bc
00000310: 7265 433d e082 f6bd 9da8 07bd fea6 78be
00000320: a442 9cbc 0583 c1bc 3220 a03d 3ef2 f13c
00000330: fe13 85bd c63f 9e3d 1293 57bd 11f3 02bd
00000340: 98ca d2bd 3101 903d afb0 1fbd 9f7f 8b3d
00000350: c0f6 12be 561c e43d 3617 ce3d 9f56 06be
00000360: 9d3f 193e cca3 7f3d e9ca 843d 3cf4 ca3d
00000370: c179 76bd 9925 b73d 236f 52be 8f10 00be
00000380: 84fc 0c3e 4cdd 1cbe 6529 2cbe db70 8a3c
00000390: dbbc c0bc 76e8 713d fe8c 93bd 70d9 083e
000003a0: c715 683d 9834 913d ab2e 9bbd 6fbe 2e3e
000003b0: 0b40 07bc 910b ee3c da57 57bd 2d73 1abd
000003c0: a851 283e e73e 2b3e 1e02 05be c9bd 01bd
000003d0: e176 61bd 9974 88bd 9de7 253c ea69 f43c
000003e0: 3569 a1bc 6e56 c93c 2d36 05be 68e4 1d3c
000003f0: 051a c83c b993 d33d 3851 fd3d 5e3f 14be
-0.105464876 -0.014248684 0.12406031 -0.10621609 0.010698969 0.038318444 0.005268537 -0.12594754
0.0016735643 0.10414319 -0.07513937 0.07025914 -0.07296937 -0.00932146 0.07365157 0.009638913
-0.1704257 0.09263308 0.09196816 0.08335621 0.13559036 0.076616876 0.107175365 0.0358757
0.11739724 -0.12377908 -0.0002786544 0.014996974 -0.072948046 0.047407158 0.0899741 -0.14959554
-0.093457304 -0.0791196 0.15277365 -0.10974983 0.15790209 -0.043190964 0.024332488 0.02313403
0.0050127143 0.12893546 0.025872389 -0.050738454 -0.043709192 0.053829614 0.057859413 -0.041901026
0.018043902 -0.07171102 0.02310204 0.08039199 0.003168424 -0.029549615 0.004776889 0.054468963
-0.070044234 0.0009379313 0.085384674 -0.006492503 0.09479651 -0.12743361 -0.12093786 -0.06610322
0.058392633 0.08617293 -0.18588926 0.058348272 -0.057793953 0.02302766 0.11630952 -0.25180474
-0.022084441 0.05203217 -0.015653417 -0.13978516 -0.08182626 -0.0762409 0.089532964 0.12138395
-0.17204218 -0.24049437 -0.11660035 -0.039450586 0.12173708 0.14548638 0.08097552 0.006355162
-0.23785551 -0.012773477 -0.03948818 0.018596387 -0.104329295 -0.023842111 0.06679416 0.15111303
0.13820118 -0.18996525 0.057260673 0.07370468 0.059772566 0.13294317 0.007916369 -0.0196789
-0.08225268 -0.03680845 0.04325838 -0.11067952 0.019225946 -0.045434933 -0.11540371 -0.020164926
-0.057956904 0.12793458 -0.06974226 0.16307247 0.078006975 0.1573819 0.008954666 -0.0009876756
-0.11410708 0.05066051 0.0997764 -0.010451692 -0.0009810051 -0.0071339677 0.075242154 -0.071291596
0.004000764 0.030611148 0.040043805 0.11165812 -0.13749735 0.0751423 0.06184194 -0.027680198
-0.012400261 0.006412958 -0.09626631 -0.0873666 0.04768993 0.13134235 0.17732005 0.03853466
-0.08080318 -0.010438637 0.06699347 0.06541266 0.025825018 -0.049772274 0.017952656 0.10470456
-0.11519391 -0.05840351 -0.09951275 -0.076526 0.105657406 0.037459023 -0.034688722 -0.026200132
0.101282 0.03230769 -0.028878344 0.039398894 -0.034414086 0.039412536 -0.08095293 -0.12127077
-0.2195578 0.07655813 -0.13469374 -0.0043942584 -0.14422841 -0.08031632 -0.19675662 0.08102956
0.15026237 -0.13213673 -0.18647313 0.007987514 0.07154914 0.16022097 -0.21235304 0.1611167
-0.08892251 -0.1592677 -0.0034117776 -0.07681128 0.018433511 -0.099450044 -0.20224296 -0.23926078
0.062104188 -0.028941035 -0.041642286 -0.022693621 0.047704168 -0.12036681 -0.033119787 -0.24282452
-0.019074745 -0.023622045 0.07818641 0.029534455 -0.06497954 0.077270076 -0.05263049 -0.031970087
-0.10292548 0.07031477 -0.038986858 0.06811451 -0.1435194 0.11138217 0.10063021 -0.13118981
0.14965673 0.06241207 0.064840145 0.09909865 -0.060174707 0.08942718 -0.20550208 -0.12506317
0.13768202 -0.15318793 -0.16812666 0.016899517 -0.023527553 0.059059583 -0.072046265 0.13364196
0.056661393 0.070901096 -0.075772606 0.17064832 -0.008255015 0.02905825 -0.052574016 -0.037707496
0.164374 0.16723214 -0.12989089 -0.031675134 -0.055045012 -0.06662864 0.010126022 0.02983566
-0.019703487 0.024577346 -0.13008948 0.009636976 0.02442647 0.1033091 0.12369007 -0.14477298

fc1.bias f4 [128]
00000000: 53d0 f43e 51a5 0e3f 77ca e13e 0c62 f33e
00000010: a6e7 f23d 0f62 d93e d234 1a3f 5b2a ec3e
00000020: dd22 6c3e ebe4 f03e b7b2 d73e 93f1 d13e
00000030: 8793 eb3e 5b9f 0e3f 2d23 5c3e 9667 013f
00000040: d347 ee3e 4b9e 043f b4f5 0c3f 3ea3 d43e
00000050: 0f93 053f a696 c33e 6a94 5d3e b5bf e23e
00000060: af10 613e b501 f63e 665e a33e 96a7 c53e
00000070: 1ed7 863e 318b c93e 7efc 843e dac2 a73e
00000080: 342c 133f 73bb b13e 269d e53d be4e ad3e
00000090: f1b5 bb3c 3db0 c13e ab08 343f b357 8a3e
000000a0: fc74 c93d 9d8b 75bc d105 b33e 7c1f fb3e
000000b0: 7249 583e 7851 e13e e6c4 093f e37f 723d
000000c0: 5de6 2c3e d3da 1abe bee0 503e a568 91bd
000000d0: 200a a13e 2a97 8c3e c067 173f e980 7d3e
000000e0: 14af 0c3f 581c 133e 90a8 063f 4e47 a53e
000000f0: af58 f33e 01e4 6a3e 87ea ae3e d58c 933e
00000100: 89cf f93e 1fd7 813d 0fd4 f23e 7ae3 133f
00000110: e1b8 fd3d 65f2 513e 7437 c53e 8b85 cc3e
00000120: 67f0 a53e 131e c93e 1c66 693e abca 1c3f
00000130: ef89 a93e 558c 003d 1041 173f bfb3 8d3e
00000140: abbd ae3e ac5b c33e d3e6 0e3f 1781 223e
00000150: 2565 bf3e 9330 cf3e e9b5 da3e 0b7a 853e
00000160: 4c74 9d3e e1ae ea3e e0ae 113f 0b92 b73e
00000170: 7e7d cd3e 9112 e53e e65d d03e e154 be3e
00000180: bf65 c93e d568 b93e ce9b a53e 1895 9a3e
00000190: 0faa c13e b7db 0a3f 9fdd 713e bc4b 203f
000001a0: ea74 783e 1743 ab3e 31e1 8c3e 085e 003f
000001b0: 3505 cb3e 964a 023f a968 033f 6ebe 023f
000001c0: 9dca e33e 6dfd 293e c74c c33e bb82 a73e
000001d0: 15e5 163f d3cf 223e 24d9 a83e 2ed6 553e
000001e0: e508 d93e cbaf 0e3e 6a52 a93e 01a3 e13e
000001f0: 2323 e53e 172b ea3e 7ba9 eb3e b91d 853e
0.4781519 0.55721 0.4409978 0.4753574 0.1186059 0.42457625 0.6023685 0.46126065
0.23060174 0.4704965 0.42128536 0.4100462 0.46010992 0.5571191 0.21497793 0.50548685
0.46539173 0.51804036 0.55062413 0.41530794 0.5217752 0.38200873 0.21638647 0.44286886
0.2197902 0.48048177 0.31907958 0.3860442 0.26335996 0.39364007 0.25973886 0.32765847
0.57489324 0.34713325 0.11211614 0.33849138 0.022913905 0.37829772 0.70325726 0.27020034
0.09836766 -0.0149869 0.34965375 0.49047458 0.21121767 0.44007468 0.5381607 0.059203994
0.16884752 -0.15122537 0.20398232 -0.071000375 0.31453037 0.2745908 0.59142685 0.24756207
0.5495465 0.14366281 0.52600956 0.32280964 0.47528598 0.22938539 0.34163305 0.28818384
0.4879115 0.06339859 0.47427413 0.57768977 0.123887785 0.20502622 0.3851887 0.39945635
0.32409975 0.39280757 0.22792858 0.61246747 0.33113047 0.03138383 0.5908365 0.27676198
0.3412908 0.38155878 0.5582096 0.15869556 0.37381855 0.40466747 0.4271691 0.26069674
0.3075279 0.45836547 0.56907463 0.3585361 0.40134805 0.44740728 0.4069664 0.37174132
0.3933544 0.36212793 0.32345432 0.30191875 0.37825057 0.5424151 0.23619698 0.6261556
0.24263349 0.33449623 0.27515557 0.5014348 0.3965241 0.5089506 0.51331574 0.5107182
0.4449052 0.1660058 0.38144514 0.32716927 0.589433 0.15899591 0.32978165 0.20882484
0.42389598 0.13934247 0.3307069 0.44069675 0.4475337 0.45736 0.4602774 0.2599924

fc2.weight f4 [64, 128]
00000000: 6337 d43b 901c 873d 16ba 2b3d 23f6 0e3e
00000010: d405 2b3c 45ac 833c bda1 d43d a17a 513d
00000020: 63b6 ea3d 2cc5 adbb b8e5 753e 9ea5 04ba
00000030: be99 fcbc 85e4 123e cc13 893d 4511 8b3d
00000040: ea0a eb3d 7a59 43ba 3dfd 283e 8be3 463c
00000050: 1de4 cb3c 9f71 e73d 14c0 0abc a736 ba3b
00000060: 95a1 1ebd 4ef1 b13d 6be8 6e3d f821 d73d
00000070: 286e fbbc 84e7 743d 807b 623d 2835 2739
00000080: a908 713e c497 16bd 6c07 5abb a615 d43c
00000090: 4032 fcbb c8dc 243d 74ee 6b3e d491 713d
000000a0: 8104 3cbc 6120 16bd 8490 003e f042 4a3e
000000b0: c613 f63c 140e 063e 3bab 3c3e e0cc 383c
000000c0: 56d8 b1bb 4c43 4d3d a5ae 5c3d 91c5 823d
000000d0: 7f9f a93d d3a1 3c3d 6464 fb3c b045 663d
000000e0: 33fe 093d 668f 913d f24a 0c3e c99b 0e3e
000000f0: 0fbb 193e e1b4 d03d 6a63 313e 7df4 44bc
00000100: a0bc 9e3d 6494 243d 62d4 f83d 19c1 203d
00000110: a141 c3bc cd01 83bb 789d 593d 3b15 ac3d
00000120: 1992 163e 30ea 473e d87e 79bd b58d 343e
00000130: aa0d 0b3e 7cde d33c 5e35 3e3e 94b7 f9bc
00000140: bb3b 9c3d 20cf ff3c a5d1 413d 6047 af3d
00000150: 7c22 403d 4672 163d 62eb 603d c942 cf3b
00000160: 51f8 b83b 351f e93d 1f2c 203e a63b 0d3e
00000170: da5f b33d 5096 e53d d19b dfbc 2022 823b
00000180: b6b5 de3c 300a 833d a05b 823d b0ff 233d
00000190: bc0d 0c3e 3d17 323c c134 013a 74b1 7c3e
000001a0: 03ff 31bc 8963 0f3e 33e8 793d 1ddf 893c
000001b0: bec5 1c3e a17f 7dbd c16b ba3d 35dc 5d3e
000001c0: b952 f6bb fc4a 403d 50d7 d13d 4c30 1e3e
000001d0: c776 103e b01f 8dbd d16e c43d 1c2d c33d
000001e0: 7db0 c53d a8d1 cd3d 13db ecbc acfe 5d3c
000001f0: 82a7 d03d 9759 4f3e c071 ca3c 04fd 6b3d
00000200: f6ec 3a3c dff3 0f3e feb0 003e 53dd 963e
00000210: 20f4 12bd f281 d43d 270d 803e 7ee7 80bd
00000220: 580b 5e3d 32ea fd3d 2782 fa3d a6b2 8b3c
00000230: 4cd4 b13d 9b87 183e 86e4 ae3c 84de 193e
00000240: 6b94 b43d fad2 1a3d b43a 0a3d a484 7a3a
00000250: d3b5 0f3e 56c8 e73d 1436 49bd 7ec3 853d
00000260: 58cb 4c3d 5219 3b3e 255d f4bc 64db 513d
00000270: a6f9 7fbd d702 873e 2f5e c73b 0e23 febc
00000280: 02d1 f93d e02f 95bd 6c7e 63bc 78f1 503c
00000290: 788d cabd 20f3 f23d cc69 423e 92f7 013d
000002a0: 6e14 7abc 7388 97bd ecfd a73d 71b2 eb3c
000002b0: 8b64 7c3d b8bc 953c fb02 a23e 40fe d0bd
000002c0: b201 8a3d 08e9 1d3c 65dc 393d 2c97 b5bd
000002d0: 2ecb 62bc 24bd cabd 9be9 113e 5358 b6bd
000002e0: dcff 043e 4051 86bc 2ee0 a53d c1d7 b83d
000002f0: b875 423c bd2d 8b3d 4bed a63d af07 293d
00000300: 24e2 0f3e ab54 7d3c 29e2 9f3a c673 e43d
00000310: 6df9 aabd 28a0 a1bd 7790 cebc c52e c8bb
00000320: a10a 78bb b039 213e 5663 81bc 8f33 973d
00000330: 475e 653c 212c 28bd 4b63 4a3e 33f3 44bd
00000340: 8659 adbb 5942 d33c 487a 8e3d 0d4c 6ebd
00000350: a687 fcbb 7973 dc3c d506 de3d 2198 813d
00000360: 49a8 49bd e409 b33d 75a5 8c3e 5810 1a3e
00000370: c078 ce3d e6c3 2f3e 9208 d53c 0687 453d
00000380: 5b30 b1bd be34 2b3e 5314 cd3c fafb 933d
00000390: 68c7 a43c a4e4 b83d 2408 70bd efcb 9f3e
000003a0: b8b0 20bd 14f7 d53d 3f0d b0bc 0d24 debc
000003b0: ed61 d83d 751a 063d 3970 393d 53bc 813d
000003c0: c569 d43d de4e 813d 09ff c63d ed72 1b3e
000003d0: 77e3 d43d 3ff9 a0bd a6be 13bb 78b8 403d
000003e0: 4ac9 973d 5687 b9bd 32e9 783c 3d9d 303d
000003f0: 3ab7 ef3b 211e 1b3e 2a29 353d 5e31 01bd
0.006476329 0.06597245 0.041925512 0.13961081 0.010438401 0.016073355 0.10382412 0.05114234
0.11460569 -0.0053030457 0.24013412 -0.0005060079 -0.030835029 0.14344986 0.06693229 0.06790403
0.11476691 -0.0007451993 0.16502853 0.012139211 0.024889046 0.113009684 -0.008468647 0.0056827846
-0.038728315 0.08688603 0.05832712 0.10504526 -0.030692175 0.059791103 0.05529356 0.00015946163
0.2353846 -0.03676583 -0.0033268584 0.025889229 -0.00769642 0.040249616 0.23040181 0.058976963
-0.011475683 -0.036651973 0.12555128 0.19752097 0.030038726 0.13091308 0.18424694 0.011279315
-0.0054274006 0.050113007 0.05387749 0.06385339 0.082823746 0.046052765 0.030687518 0.056218803
0.03368969 0.07107429 0.13700464 0.13926615 0.15012763 0.1019075 0.1732308 -0.012021181
0.07750821 0.04018058 0.12149884 0.039246652 -0.023835005 -0.0039980174 0.05312869 0.08402487
0.1470417 0.19522929 -0.060911983 0.17632182 0.13579431 0.025862925 0.18575045 -0.030483045
0.0762858 0.031226695 0.047319073 0.085585356 0.046907887 0.036730073 0.05491198 0.0063251
0.005644836 0.113829054 0.15641831 0.13792285 0.087585166 0.112103105 -0.027295979 0.003971353
0.027186256 0.063984275 0.06365132 0.040038764 0.13677114 0.010869798 0.00049288204 0.24677068
-0.010864022 0.14002813 0.061012458 0.016830022 0.15309808 -0.061889295 0.09102584 0.21666034
-0.0075171855 0.04694651 0.10246146 0.15448111 0.1410781 -0.068908095 0.09591449 0.09530088
0.09652803 0.100497544 -0.028913056 0.013549488 0.101881996 0.2024902 0.024712443 0.05761434
0.011409035 0.14057873 0.12567517 0.29465732 -0.035877347 0.103763476 0.25010034 -0.06294154
0.054210037 0.12398185 0.12231856 0.01705296 0.086830705 0.1489548 0.021349203 0.15026289
0.08817371 0.03779886 0.03374739 0.0009556508 0.14034204 0.11317508 -0.04912384 0.06531428
0.04999861 0.18271378 -0.029829571 0.051234618 -0.062493943 0.26369354 0.0060842256 -0.031022575
0.12198068 -0.07284522 -0.013885122 0.012752883 -0.09890264 0.11862779 0.18985671 0.031730242
-0.01526366 -0.073990725 0.08202729 0.02877161 0.061619323 0.018278465 0.316429 -0.10204744
0.067386046 0.0096380785 0.0453762 -0.08866724 -0.013842387 -0.09899357 0.1424927 -0.08903565
0.12988228 -0.016396165 0.080993995 0.09025527 0.011868887 0.06795833 0.08150729 0.041267093
0.1405111 0.015462081 0.0012198138 0.111548945 -0.083483554 -0.078918755 -0.02521537 -0.006109091
-0.0037848132 0.15744662 -0.015794437 0.07382881 0.013999528 -0.04105771 0.1976444 -0.048083495
-0.005290213 0.025788473 0.06956917 -0.058177996 -0.0077066002 0.02691053 0.10841147 0.063278444
-0.049232755 0.08742121 0.27469984 0.15045297 0.10081625 0.17164573 0.026005063 0.04822447
-0.08651801 0.16719338 0.025034105 0.07225795 0.020114616 0.09027985 -0.058601514 0.31210276
-0.039231032 0.10447517 -0.021490691 -0.0271168 0.10565553 0.032740075 0.04527304 0.06334748
0.103717364 0.06313871 0.09716613 0.1518056 0.10394948 -0.0786004 -0.0022544055 0.047050923
0.0741144 -0.090590164 0.015192317 0.043118704 0.0073155435 0.15148212 0.04422871 -0.03154122

fc2.bias f4 [64]
00000000: ae21 8f3e 9d50 c73e ffb7 ea3e 1006 91bd
00000010: e883 8c3d 70e6 a1bd 3289 873d 830e 973e
00000020: 2274 8e3e 1dda d1bc 26ae a63e 07f0 b03c
00000030: 9acd d13e 1670 93bd a595 e73e a6f2 b63e
00000040: 551b 713e 51c8 963e 831c c63e ad24 653e
00000050: f742 403e ef36 313e 2028 933d 7311 823e
00000060: ce84 623e b618 86bc 8e1a 1e3d d799 783e
00000070: c1ac ce3b efd7 9f3c 5c3e c13e 4c5e 69bd
00000080: bac6 af3e f514 db3e 3f65 b23e 15ab 133e
00000090: 2942 863e 83b8 ac3e 6a62 443e fc9e e93e
000000a0: a23e c43e 97da 8a3e 0012 d33e 3660 833e
000000b0: bcfc 81bc f7e1 ab3e ef5a 7f3e 95dd 9a3c
000000c0: 17c9 543d 6ef7 403e 06fe 723e 750b 003f
000000d0: 5ff5 8dbd 056c 9f3e 5367 d13e 747f 9e3e
000000e0: c0f1 403e ecde 783e 25f8 3e3e bb28 833e
000000f0: 60ce d03c 25d0 89bd 4123 093e 2c79 47bd
0.27955383 0.3892869 0.45843503 -0.070812345 0.068610966 -0.079052806 0.06617965 0.2950326
0.27822977 -0.0256167 0.3255474 0.021598829 0.40977174 -0.07199113 0.45231357 0.35732
0.23545583 0.29449704 0.38693628 0.22377272 0.18775545 0.17306112 0.071853876 0.25403938
0.22120973 -0.016369205 0.038599543 0.24277435 0.006307215 0.019512145 0.3774289 -0.056974694
0.34331304 0.42789426 0.3484287 0.14420731 0.2622235 0.3373452 0.19178167 0.45629108
0.38329035 0.27119896 0.4122467 0.2565934 -0.015867583 0.33570835 0.24937032 0.018904487
0.051949587 0.18844387 0.23729715 0.5001748 -0.069315664 0.311371 0.40899143 0.30956614
0.1884222 0.24303788 0.18649347 0.25617012 0.025489032 -0.067291535 0.13392355 -0.048699543

fc3.weight f4 [10, 64]
00000000: 5a92 3e3e 2b43 113e e268 583e ac40 383c
00000010: 0753 ec3d 5031 17bd b56c 403a f7a6 1c3e
00000020: 6af3 b53d 6668 b2bd 2982 b53c 6252 aebd
00000030: 31bf 323e f9db 993d 1830 583e a624 083e
00000040: 8018 853d 3723 a73d 0755 70bd 18b1 343e
00000050: a06a 053d 5cac c1bc 9a1c b23d 8b6b b63c
00000060: 8c44 833d ad2c a7bd 4e65 a2bd 1a50 673d
00000070: ad1f f23d 26f2 d2bc 2614 ef3d 5a9b 1c3e
00000080: d06c 4c3e 76ac 443e 0997 383d d8be 1b3e
00000090: 5ece 593d 57c5 6a3e 6656 e33d fedd 033e
000000a0: e623 133e b9bf c23c 7470 cf3d d963 4c3e
000000b0: ba27 a0bd 1404 b83c 6692 b4bc 1659 72bd
000000c0: 19bf cb3d 0719 413e 6d8c 813d 9cdd 4a3e
000000d0: 2f3b 96bd 16b6 323e 4f2b d43d fb14 0e3e
000000e0: 5c6a a13d 8620 123e 1420 a03d 9f79 c9bc
000000f0: 53d4 a33c e561 003d 4385 2c3e 2f16 ce3d
00000100: 0784 493e 8172 333e c3a3 783e 3951 5cbd
00000110: 25db 493e fddc 6dbc 1c45 1dbd 6ba7 923d
00000120: 19aa 373d f67c 2a3a 638c 4c3e eef1 9bbd
00000130: c075 da3d 487b 52bd e21b 3d3d 63cc 1a3e
00000140: ff7e cc3d 4937 273e 9768 d73c 02e5 f73d
00000150: fa3f 4fbc 9ae5 233d 9a8e d4bd e2df 82bc
00000160: 95f1 2e3e b265 5f3d c9ec 893d ff0c 453e
00000170: a831 a73d 03ae 6cbd 7a59 613e 5804 22bd
00000180: 05c5 503e 9475 8b3d ff0a 3e3e b698 f43d
00000190: be44 1c3e f28e 1e3e 083e dbbc 039e 053e
000001a0: 37a8 003e 0573 2d3e ff35 163e caba 7f3d
000001b0: c6a7 c93d c0ae a13d b8a8 393e 02ff 87bd
000001c0: 879b b9bd bf63 313e 9a12 9e3d 13d7 693e
000001d0: 257e 73bd 047a 9a3d fcc3 3f3e fb56 c83c
000001e0: b9d4 7bbc 0705 393e db36 d43d de4f 1e3e
000001f0: e2a7 fb3d 0487 ddbd 0edf 923d 5f36 a3bd
00000200: 3dce 9fbb a159 db3c 3dfa 323e 66f0 8dbd
00000210: 73a0 19be 8965 a8bd 47f7 bdbd c940 26ba
00000220: c396 033d 0ceb 043d f3e6 573e ef7d 99bd
00000230: c50b ae3c cd73 493d 6f2c 1e3e 4718 3a3d
00000240: f07a 413d b9dc 253e 4eb3 863d aac2 f93d
00000250: 6a2a c93c 9ff1 33bd d846 8dbd e27d 9d3d
00000260: 88b1 2b3e b740 6f3d 8df3 7c3d 6a2d d63d
00000270: 95fa ba3d d934 7abd 73ca c63d deba dabb
00000280: 5cf5 343e e06d 183e 1111 7a3d 8f73 0e3e
00000290: 1f7c e43d cc61 97bb 73c1 383e 1be1 b43d
000002a0: de9e 4b3e b122 423e a902 673d 5bf0 5a3d
000002b0: ddbc 06bc 5720 473d 5bd4 2f3e d3f8 aabd
000002c0: b4bd b23d 57dc 1bbd 3351 d13d ae82 5c3e
000002d0: c644 e53d ea71 833d 5003 5b3d 7e4b 603e
000002e0: 5699 033e 310e c5bc 694d 22bc 0300 2c3e
000002f0: 4c2f 0a3b 2f04 a7bd 5e4c 013c 94ba 513d
00000300: 669a ca3d d92c ce3d f72a fc3c e46a 9ebd
00000310: b879 35bd bcf6 dc3c 6295 5cbd ad6d c43d
00000320: 96e1 4b3d bc86 04bd 575a 863d 64fd 993d
00000330: ed42 b23d 4977 8fbd dea8 383d b9db 913d
00000340: fcda 2f3d a7c8 b83d 0a3d 8e3d 6bb2 003e
00000350: b2a8 143e 086a 0a3e b9c3 a0bd b052 c53d
00000360: 1dd3 d23d a25c 8bbc a7b6 cd3a 6921 873d
00000370: e490 c1bd cfa7 5f3b afa3 8a3d 08ab a5bd
00000380: 6d84 b63d 742b 103e 762d 0a3e 4cb9 153e
00000390: 4716 063e dd78 c23d 14fb a33d 22c0 893d
000003a0: cd28 423d 94bf 3a3e bb74 1d3e 915f 893d
000003b0: 5f8a 26bc e945 9e3d 48b2 b6bc 1d78 623d
000003c0: 8964 84bd f108 0b3e 7f66 823d 1b1c d13d
000003d0: 33d1 80bc 4681 dd3d 0b14 7a3e 8aff 343c
000003e0: d3c8 183e 0dc9 073e 653f 213e 038c e23d
000003f0: 4eb2 46bd 0b31 9dbc 8838 263e b74c c9bd
0.18610516 0.14185779 0.2113376 0.011245888 0.11539274 -0.036912262 0.00073404174 0.15298067
0.08884318 -0.08711319 0.022156792 -0.08511807 0.17455746 0.075126596 0.21112096 0.1329523
0.06498814 0.081610136 -0.05867484 0.17645681 0.03257239 -0.023641758 0.086968616 0.022268077
0.06409559 -0.08162818 -0.079294786 0.056472875 0.11822448 -0.025750231 0.11673765 0.15293637
0.19963384 0.19206414 0.045065913 0.1520952 0.053175323 0.22926842 0.111004636 0.12877652
0.14369163 0.023773061 0.101288706 0.19959964 -0.07820077 0.022462882 -0.022042464 -0.05916699
0.09948558 0.18857203 0.06325612 0.198111 -0.07335507 0.17452273 0.10359823 0.13875191
0.078816146 0.14270219 0.078186184 -0.024594126 0.019998705 0.03134336 0.1684771 0.10062825
0.1967927 0.17524149 0.2428122 -0.053788397 0.19712503 -0.01451802 -0.038395986 0.07160839
0.044839952 0.0006503606 0.19975428 -0.07614504 0.1066699 -0.0513871 0.04616917 0.1511703
0.0998516 0.16329683 0.02629499 0.12104227 -0.012649531 0.040013887 -0.103787616 -0.015975896
0.17084344 0.054540344 0.06734616 0.19243239 0.08163768 -0.057783138 0.22006789 -0.039554924
0.20387657 0.068095356 0.18558882 0.1194319 0.15260598 0.15484217 -0.026762977 0.13048558
0.12564169 0.16938408 0.14669035 0.062433995 0.09846453 0.07894659 0.18130767 -0.06640436
-0.090628676 0.17323206 0.07718392 0.2283595 -0.059446473 0.07542804 0.18727106 0.024455538
-0.015370541 0.18068324 0.10362025 0.15460154 0.122878805 -0.10816768 0.071714506 -0.07969355
-0.0048768804 0.026776137 0.17478271 -0.06930618 -0.15002613 -0.08222491 -0.0927568 -0.0006342051
0.0321262 0.03245072 0.21084194 -0.07494723 0.021245847 0.0491827 0.15446638 0.04543331
0.047236383 0.1619748 0.065771684 0.12195332 0.024556357 -0.0439316 -0.06898278 0.07690026
0.16766942 0.058411326 0.061755706 0.10457881 0.09129826 -0.061085556 0.09706583 -0.0066751083
0.17671722 0.14885664 0.061051432 0.1391127 0.11156487 -0.0046198126 0.18042545 0.08831998
0.19884822 0.18958546 0.05639902 0.053451877 -0.008223739 0.048614826 0.17170851 -0.08348241
0.08727589 -0.03805193 0.10220566 0.21534225 0.11194758 0.06418212 0.053469956 0.21903798
0.12851462 -0.024054619 -0.009906151 0.1679688 0.002108532 -0.08155095 0.0078917425 0.051203325
0.098927304 0.10067148 0.030782206 -0.077352315 -0.044305533 0.02697312 -0.0538534 0.095912315
0.049775682 -0.032355055 0.065602 0.075190336 0.08704171 -0.07005174 0.04508292 0.07121987
0.04293345 0.090226464 0.06945236 0.12568061 0.14517477 0.1351701 -0.07849831 0.09634912
0.10294173 -0.017011944 0.0015694693 0.06598169 -0.09451464 0.0034127121 0.067695014 -0.08089262
0.08911977 0.14079076 0.13493904 0.14621466 0.13094436 0.09495709 0.08006874 0.067260996
0.047402192 0.18237144 0.1537656 0.06707681 -0.010164826 0.07728178 -0.022301808 0.05529033
-0.06464488 0.1357763 0.06367206 0.10210439 -0.015724754 0.108156726 0.24421708 0.011047253
0.14920358 0.13260289 0.1574684 0.11061861 -0.04850989 -0.019188425 0.16232502 -0.09829085

fc3.bias f4 [10]
00000000: eb7b 993e 720e a53e 56d5 c83d 5021 9e3d
00000010: 4ecb f03d dff6 873e b3d2 f73d 9a8f bc3c
00000020: 4e5c e33d 0bc3 613e
0.29977354 0.32237583 0.098063156 0.077211976 0.11757527 0.26555535 0.121007346 0.023017693
0.1110159 0.22047059
