models/DQN_Fed_AggPer_1000.pth (torch, 64043 bytes, 6 tensors)

fc1.weight f4 [128, 50]
00000000: ae7b 52bc 6679 3e3c 5c24 443c c77e 8d3b
00000010: 12ca b1bc a4f6 9f3c b5e9 8a3b bd7e 24bb
00000020: d2ee 9b39 f103 1abc c96b 31bc 9a3a 073c
00000030: e42d d3bc fb8c bfbc 163a 813c 3a1e 9e3c
00000040: bc54 433d 1a6f bbbc 8aa3 8bbc dcfc 813c
00000050: 8a5c e0bc 01fc ac3c c322 ca3a 98f7 80bc
00000060: 1768 16bc f34d 823c 418e 12bc fbd2 993c
00000070: e355 be3c cd27 b93a d233 94ba 450e 313d
00000080: f2b1 5a3c 8570 22bb 4ee4 833b 880f b23b
00000090: 6f74 e4bb f6d4 f73b 7d23 633b 263b f9bb
000000a0: 37ae 31bc 4358 d83c d203 b2bb 3805 48bc
000000b0: 0f92 543c d293 02bd 216d b63c 7b4f 82bc
000000c0: c377 9a3c 9432 74bc 5734 abbc 9cf3 a8bc
000000d0: ba8f e03c 9452 b9bc f690 c5ba f1b4 8f3c
000000e0: 251b 19bc f705 7fbc 89dd 01bc dd8e 0bbd
000000f0: e93d 473c bd4d d4bc 76c0 5e3c 5c5d 353c
00000100: a36a 853c a428 6bb9 ff48 73bc 052a a6bb
00000110: c888 713b 1620 893c 5ff0 523b a124 f0bc
00000120: 4fd0 39bc 71dc 293a cc63 5b3c df1a d53c
00000130: 32c4 9d3c 296a cabb a913 353b 84e7 3fbc
00000140: 32fa adbb c06d 0abc 6ca2 c1bc 12f1 85bb
00000150: eef4 4dbc b86c b93b 4693 06bc e31f 0a3d
00000160: f38e 053c daa5 3cbc a48d a4bb 8f7e c4bc
00000170: 1ff8 bb3c e94e 78bb 66be 12b9 d128 a8bc
00000180: d3ca dc3a 89a2 80bc 31b7 f3bc f8af d9bc
00000190: 33b5 1ebc f89a a6bc e878 94bc b357 cf3c
000001a0: 37fb 2c3c 16c9 0d3c acbf 48bb a6b1 debb
000001b0: 3b6f e0bb 45d0 fe3b 74f4 043d d4c1 173b
000001c0: 2ee5 5f3c 0002 de3c 26ef e1bc 2614 56bc
000001d0: c3b5 87bc 2fa9 babb 5559 9ebc 69eb 7e3c
000001e0: 66cf f63c 8a2b 26bc e0ef db3b 52e0 d239
000001f0: 7f21 95bc 213c 7ebc 956f 173c 7156 7b3b
00000200: df56 263c e127 64bc c190 a43b 6e6d 26bb
00000210: a98d 3ebb 9db7 073c 1b71 2ebc 61da 8abb
00000220: f6ad 383b 4a5a 16bb 3d0a abb7 9a49 60b9
00000230: 52f0 1b3b 1f5d 50bb 03d0 77bc 6171 c93b
00000240: 4ce4 4f3c e6cf 963c 92e2 4abd 0322 3bbc
00000250: 2f54 05bd 8fba 833b 5a23 933c 2950 e33b
00000260: 2db8 9f3c 7639 7c3a cabd 48bb f1f3 2abc
00000270: cf01 76bc 1a7f 21bb b758 883c 732a 7e3c
00000280: 5a0a 1cbc 782f 843c ec6e f73c 41fc 90bc
00000290: fde6 2bbc 1486 57bc 57ca 013c 003b f23b
000002a0: eca5 f1b9 cf60 e2bc d3da 15bc 7df8 ed3b
000002b0: 2427 66bc 89ca 423c 89be 2ebd 238d e73c
000002c0: bd7d 7e3c fae0 843b 9c62 32bc 92ec f6bb
000002d0: 4a4b f6bc ff1e b53b faf2 9fbb 5caa c2bc
000002e0: 2f4d 863c 2665 3dbc 8aa7 86bc 9246 0dbd
000002f0: 85af a6b8 df88 a9bc 7b21 e6bb e5b7 a43c
00000300: 7d92 c43c 93de 153c 6416 283c 6482 a13b
00000310: 6994 0dbb 1594 0b3d 7a76 23bc 315d c63b
00000320: 6602 7cbc a9e3 2fbc ec6c 513c 3f72 8bbc
00000330: 0b34 993b dd8e 8cbc d75a a93c 1390 02bd
00000340: 4de8 a0bc 0a43 123d ac98 26bc d43b 2c3c
00000350: 48d3 b53b bb25 9b3c 4a06 debb b8d9 853a
00000360: 541c cfbc 1dc7 2bbc f881 483a 52e7 0cbc
00000370: 0cc7 18bc 0a98 18ba e62c ac3c 5416 b43c
00000380: 8d45 f1bb 7a49 a3bb fbea 37bb 0abc dfbb
00000390: 23ad ed3c 1f73 21bd 8344 53bc 2183 c93b
000003a0: 54fd c83c e1b2 93bb 8c9d 11bd c97a 5f3b
000003b0: f2f1 473c e5e1 a33c 0eeb 0f3b e63b a83a
000003c0: a025 0ebc 0d66 9c3c c56e babb 148e 9a39
000003d0: c981 18bc 7f22 59bc 8ee2 053d 927a 4abc
000003e0: 916e f5bc 53bc e4bb 775f a3bc a196 193c
000003f0: 2300 a5bc 81c3 e4bb e143 c1bc 920c 36bc
-0.01284687 0.011625623 0.011971559 0.0043180916 -0.0217028 0.019526787 0.004239286 -0.0025099956
0.0002974184 -0.009400354 -0.010828921 0.008253718 -0.025778718 -0.023382654 0.015774768 0.019301523
0.04768823 -0.022880126 -0.017045755 0.015867643 -0.027387876 0.021116259 0.0015421737 -0.015743062
-0.00918009 0.01590631 -0.008945049 0.018777361 0.023234313 0.0014126241 -0.0011306948 0.0432265
0.0133480895 -0.0024786305 0.004025019 0.0054339804 -0.006971888 0.0075632287 0.0034658604 -0.007605928
-0.010844759 0.026409274 -0.0054325843 -0.0122082755 0.012974276 -0.031879254 0.022268834 -0.01590704
0.018855935 -0.014904637 -0.020898981 -0.020623975 0.027412284 -0.022622384 -0.0015073109 0.017542334
-0.009344851 -0.015565387 -0.007926353 -0.034071792 0.012160757 -0.025915975 0.013595691 0.011069622
0.0162862 -0.00022426486 -0.014848947 -0.005070927 0.003685521 0.016738933 0.003218673 -0.029314341
-0.011341169 0.00064796867 0.013390493 0.02601379 0.019258592 -0.006177206 0.0027630127 -0.0117129125
-0.0053093666 -0.008449018 -0.02363702 -0.0040875757 -0.012570603 0.0056587122 -0.008213824 0.033721816
0.0081517575 -0.0115141515 -0.0050217677 -0.02398613 0.022945462 -0.003788883 -0.00013994574 -0.020527275
0.0016845114 -0.015702503 -0.029750438 -0.026573166 -0.009686756 -0.020337567 -0.018124059 0.025310373
0.010557941 0.0086539 -0.0030631823 -0.0067960797 -0.006849197 0.0077762925 0.03245969 0.0023156302
0.013665481 0.027100563 -0.027579855 -0.013066327 -0.016566163 -0.005696438 -0.019329706 0.015559056
0.030128192 -0.010142216 0.006711945 0.00040221453 -0.018204449 -0.015517266 0.009242912 0.0038351084
0.010152548 -0.0139255235 0.005022139 -0.0025394815 -0.0029076135 0.008283523 -0.010647084 -0.0042374586
0.002817986 -0.0022942 -2.0389556e-05 -0.00021389723 0.0023794365 -0.0031793786 -0.015125277 0.006147549
0.012688708 0.01840968 -0.04953248 -0.011421683 -0.032550987 0.0040200423 0.017961193 0.006937046
0.019497002 0.00096215995 -0.0030630701 -0.010434137 -0.01501508 -0.0024642409 0.016643865 0.01551305
-0.009523952 0.016135916 0.030204259 -0.017698409 -0.010492084 -0.013154525 0.007921777 0.0073922873
-0.00046090723 -0.027634053 -0.00914641 0.007262288 -0.014047418 0.011889108 -0.042662177 0.028265541
0.015532908 0.0040551396 -0.010887768 -0.0075355256 -0.030065197 0.0055273767 -0.00488126 -0.023762874
0.016394226 -0.01155976 -0.01643731 -0.03449113 -7.94819e-05 -0.020695148 -0.007023034 0.020107219
0.023995632 0.009147304 0.010259245 0.004928874 -0.0021603352 0.03407677 -0.0099769775 0.0060535898
-0.015381431 -0.010735431 0.012782317 -0.01702225 0.0046753935 -0.017157966 0.020673199 -0.03187568
-0.01964202 0.035708465 -0.010168236 0.010512311 0.0055488683 0.01893889 -0.006775652 0.001021198
-0.025282063 -0.010484484 0.00076487614 -0.008600073 -0.0093248 -0.00058209954 0.021017503 0.021983303
-0.0073630274 -0.0049831243 -0.0028063643 -0.006827836 0.029013222 -0.03941643 -0.012894752 0.006149665
0.024534859 -0.004507408 -0.03555064 0.0034100285 0.01220368 0.020005176 0.0021960172 0.0012835234
-0.008675963 0.01909163 -0.0056894743 0.00029479025 -0.009308287 -0.013252853 0.032686763 -0.012358325
-0.029959949 -0.006980458 -0.019942982 0.009374292 -0.020141667 -0.0069813137 -0.023591937 -0.011111395

fc1.bias f4 [128]
00000000: 979c eebb 12a2 2e3c 7660 013d a8fb 5abc
00000010: 3f7c ebbc 55ba 13bd bbd6 5c3c 0aaf ef3b
00000020: 3c26 a2bc aef0 7cbb bd7b 023a 48a0 65bb
00000030: da33 39bc 296d 8a3b a565 1e3c c590 fbbc
00000040: 861a 9bba f829 0fbc 36e4 813b 166c d6bb
00000050: d8e2 89bc 93cd 603c 66d3 503c 668a fe39
00000060: d4fc dc3c 1c0d 913c 7358 08bd 310f 77bc
00000070: d1a3 f33a 44be a0bc 1468 a2ba 8f12 3fb9
00000080: a494 a4bb d1e5 2d3c 527b 063b 5211 06ba
00000090: f38b 0e3d cdef e83a 668d 82ba 85c1 8fba
000000a0: 5d2d b13b 7f22 e3bc c1d0 a33c 34b0 863c
000000b0: 5cef f43c ac43 463c cdd3 e0bc 8fcd 0abb
000000c0: b440 883b 1865 933b 3c5f 563b 32de 22bc
000000d0: 65fd 9ebc 7cee 71bc 9dfb 923c 2ff2 b8bc
000000e0: f14d ab3a 0df8 443c 0e9d 5bbb 92d4 733c
000000f0: f39d 47bc 008d d0ba eee1 b7bc f36a e83c
00000100: 14b5 f4bc 2cff 9abc bdf2 c4bc 4313 55bc
00000110: 2962 c93a 2a32 a6bb 948a dfbc 24f1 f3bb
00000120: 8df2 a6bc 2629 6bbc b87a babb 8a14 0f3a
00000130: 8ca3 883c 3fdb 9bbc f14b 763c 3f89 6abc
00000140: 6000 f23b 29d9 323a b2cf fcbb 73c6 0fbc
00000150: a675 58bc 0de7 06bd 9cf2 bfbc ae08 6fbc
00000160: bdd6 05bc dc3f e8ba 1aad d63c 6d6b 95bc
00000170: 8f0d 36bb a422 8c3b 14e5 f3ba 31e6 543c
00000180: 6d5f ddbc 66b0 72bb acc9 d03c 14ba 8e3c
00000190: 2c2a d53b 0a1c 523c 6117 e43b fbd1 dfbb
000001a0: ecdd e4bc f654 503c 8016 c5bc d237 b1bb
000001b0: 80af 60ba c06b 453c 7496 5b3c b812 15ba
000001c0: 664c e43b 8572 a1bc c87e f63c d838 243d
000001d0: 2566 b7bb 63d4 803c b1a1 903c 1a52 1f3b
000001e0: daa6 be3c 6344 693c 80a0 d93c 6c21 98bc
000001f0: 3bd2 15bb b479 a2bc 68b7 db3b 1c33 553b
-0.0072818506 0.010658758 0.031586133 -0.013365664 -0.028745769 -0.036066372 0.01347893 0.0073145675
-0.019793622 -0.0038595605 0.0004977545 -0.0035038162 -0.011303866 0.0042244387 0.009667789 -0.03070868
-0.0011833466 -0.0087380335 0.0039639724 -0.0065436466 -0.0168318 0.013720888 0.012745714 0.0004854977
0.026976027 0.017706446 -0.033287477 -0.0150793055 0.001858825 -0.019621976 -0.0012390637 -0.00018222093
-0.005022602 0.0106138745 0.0020520282 -0.0005114275 0.034801435 0.0017771662 -0.0009960353 -0.0010967707
0.005407019 -0.02772641 0.019997003 0.016441442 0.029899292 0.012101095 -0.027444744 -0.0021179651
0.004158104 0.0044981353 0.0032710573 -0.009940671 -0.019407937 -0.014766332 0.017942244 -0.02257642
0.0013069493 0.012022031 -0.003351036 0.014882224 -0.012183654 -0.0015911162 -0.022446599 0.02837131
-0.029871501 -0.018920504 -0.024041528 -0.013005081 0.0015364337 -0.005071898 -0.027287759 -0.0074445177
-0.02037933 -0.014353072 -0.0056908987 0.00054580776 0.016679548 -0.019025443 0.015032754 -0.014314949
0.0073852986 0.00068225205 -0.007715189 -0.008775341 -0.013211643 -0.03293519 -0.023431115 -0.014589472
-0.008168873 -0.0017719227 0.026205588 -0.018239701 -0.0027779078 0.0042765904 -0.0018607699 0.012994335
-0.027023042 -0.0037031411 0.02548679 0.017422713 0.0065052714 0.012824068 0.006960795 -0.0068304515
-0.027937852 0.012715569 -0.02405858 -0.0054082656 -0.00085710734 0.012049615 0.01340257 -0.0005686688
0.006967115 -0.019707927 0.03008975 0.040093273 -0.0055968934 0.015726274 0.017655225 0.002431041
0.02327292 0.014237496 0.02656579 -0.018570624 -0.0022860903 -0.019833423 0.0067052133 0.0032531684

fc2.weight f4 [64, 128]
00000000: f3eb 48bb 9d4a e7ba 334c c3ba e814 9a3b
00000010: 524c e63b 3b01 3abb b357 4ebc a6d2 193b
00000020: f1b3 72bb a445 98bc 71f9 37bc 5756 1f3c
00000030: 1f10 ae3b 5f1e 963c 0a2a 86ba 4f45 a7bb
00000040: 768f 5fba 899e e4bb da8b 333c 52c6 b53a
00000050: e3da bc3b d79e a7ba 7ede 07bc b848 13bb
00000060: a6a5 02bc cb94 233c 2c2b 353c da6f 9f3c
00000070: dff5 c83a c831 f9ba d6b5 2b3c a017 44bc
00000080: a9dd e9ba af3b dcba 45eb 26bc 2165 cd3b
00000090: a414 3539 b8a8 1ebc e3ca 193b fdc5 e8bb
000000a0: d71c c4bc 70a0 813b 0cd2 4dbc 1f23 a639
000000b0: 7de6 143c a423 04bc ed10 553c 31e7 91ba
000000c0: a63e 32bb 2906 c5ba f7f3 513b 63f4 83bc
000000d0: 1aab ea3a 22e4 20bb 0342 c23b 52e3 113b
000000e0: 3412 463c 8833 4fbc 9a69 90ba e929 a83a
000000f0: d609 f1bb 16ab 803c 1cdf 6a3b a0df 44bc
00000100: c873 b3bc ba6b 8cbc 9b85 5c3c bdb9 60bb
00000110: 1858 a23b 9dba c6ba ea63 03bc cc90 90bc
00000120: ca0c 8e3b 9f04 523a 6cef afbb 8001 213a
00000130: 5f72 a83c c3b2 4fbb a448 1abc da66 413c
00000140: acec d43b d698 1ebb 684d 8b3c 11d9 bebc
00000150: e59f edba 2f9f 45bc ca13 203c 8de4 243b
00000160: d69c f53b b653 c6bb 76dc 653c 7b24 20bc
00000170: 86a6 e43b ec9e 683c d347 043c 93c2 03bb
00000180: d884 863a 5680 a13c f603 f439 63bb d73b
00000190: 7bbe d2bb b66b 4e3c a9a2 77bc 5268 a2b9
000001a0: 142e fc3a e13a 9cb9 d1d2 a7bb 6fa0 c03b
000001b0: 465c 80bc 0073 543c b7de 6dbb 6317 13bc
000001c0: 6ee8 a4bc 9844 d8bb e039 583c c03f 2c3c
000001d0: 09e3 acbc 6af1 b13b e44d fcba f88b 263c
000001e0: 2a1d 38bc df4a d8bb 2057 ca3c 86b4 bd3b
000001f0: d7bb ae3a 3e6d 87bc 8166 a93b e19e 453b
00000200: b368 903a 00be 7cbb 8a49 48bc 0e1b 0abb
00000210: 3bb8 4abc a420 723a 96f7 d83b 5393 05bc
00000220: 0ca8 c4bb 64bd adbb c407 83bc a6c5 6ebb
00000230: c5d0 2d3c d73f b73c d691 153b b029 a1bb
00000240: f65b 84bc cceb 483b e188 cf3b 660b 44bc
00000250: b7dc b6bb a13f 9bbb 5206 2a39 e64e 4dbc
00000260: 14ea 9f39 4f5f 71bb 46d0 15bb 03c0 0d3c
00000270: c67b c93b f10a 2dba 1c39 f9bb 546d 25bc
00000280: cd35 cabb 76bf 9e3c fa2a 90bb da1e 4bbc
00000290: 3bca a8bb a971 bb3b b4b5 d5bc c2c9 8cbb
000002a0: 0310 e93b b80c 393a 939c d9bb df40 083c
000002b0: 3dbc 9cbb bdc1 2dbb 80d5 943b df71 2f3b
000002c0: afb8 43bc 2e92 e03b bde9 643c 804e aabb
000002d0: 4a33 143c 8ac8 7bbc 85f9 2d3b e9f0 ba3a
000002e0: 80d1 2aba 5ce7 bc37 f3af 6e3b 18bc 8ebb
000002f0: e634 563b 458a 2cbc f4ba 00bc a413 57bb
00000300: a98a 3d3c 113c 83bc e4e8 263c 385d 333c
00000310: 1593 8dbb d329 e83b 13b6 31bb 2690 95bb
00000320: 4959 86bb 5a0e 0a3b 164e 00bc 7fc5 5ebb
00000330: 6389 5e3c 6d23 c23a 715e 8dbb 4d59 633c
00000340: 213b d03b 6e28 48ba 58ff 473b 1d95 79bb
00000350: 1bf3 843b 4a5e a53a 5321 243b f342 aeba
00000360: b4a8 16bb 0ac2 fc3a cc9f aa3b 5adb 283c
00000370: 08d2 edbb c4d7 8cbb 0cd9 1f3c df35 79bc
00000380: 496f 273c f727 0dbc 634f 493c 852c 0abc
00000390: e0bf 22bb 3c11 1b3c 1220 603c 3466 223c
000003a0: 18ae e03b da5c 823b 57aa dd3a e97a bc3b
000003b0: 43b7 2d3c 5240 313a ec45 c2bc b3de f43b
000003c0: 025c 10bc ae87 07b9 dca2 923a 2a96 193b
000003d0: d455 263c ccb5 5abc eebb 8dbb 3740 953b
000003e0: 4f75 25bc bbf1 20bc a60d 4d3b c415 a4bb
000003f0: e681 89bc fb45 89bc d7ff e0bc a1e7 dc3a
-0.0030658215 -0.0017646138 -0.0014900028 0.0047021993 0.007028141 -0.002838208 -0.012594151 0.0023471504
-0.0037033523 -0.018587895 -0.011228905 0.009725175 0.0053119804 0.018325029 -0.0010235917 -0.005104698
-0.0008528152 -0.0069769067 0.010958636 0.0013868308 0.005763398 -0.0012788427 -0.008292792 -0.0022473764
-0.007974064 0.0099842055 0.011057656 0.019462515 0.0015332064 -0.0019012028 0.010480365 -0.011968523
-0.0017842549 -0.0016802455 -0.010187929 0.006268159 0.00017269194 -0.00968378 0.0023466877 -0.00710368
-0.023939533 0.003955893 -0.012562286 0.00031688155 0.009088156 -0.008065138 0.013004524 -0.0011131522
-0.0027197986 -0.0015031743 0.0032036284 -0.016107744 0.0017903775 -0.002455004 0.0059282794 0.0022260738
0.012089301 -0.012646563 -0.00110178 0.0012829873 -0.007355909 0.01570658 0.003583855 -0.012016207
-0.021905795 -0.017141212 0.013459588 -0.0034290396 0.0049543492 -0.0015161816 -0.008019427 -0.01764717
0.0043350207 0.0008011553 -0.0053691175 0.0006141886 0.020562349 -0.0031692244 -0.009416733 0.011804307
0.00649794 -0.0024199984 0.017004684 -0.023296865 -0.0018129317 -0.012061878 0.009770343 0.002516064
0.007495503 -0.0060524596 0.014029613 -0.009774323 0.006977859 0.014198046 0.008073765 -0.002010499
0.0010262979 0.019714516 0.00046542258 0.0065836175 -0.0064313984 0.0125989225 -0.015114465 -0.00030976773
0.0019239807 -0.00029798507 -0.005121567 0.0058785 -0.015669 0.012966871 -0.0036296078 -0.008977744
-0.020130362 -0.006599974 0.013197392 0.010513246 -0.021104353 0.00543039 -0.0019249287 0.010165207
-0.011237422 -0.006600722 0.024699748 0.0057893423 0.0013331127 -0.016531583 0.00516969 0.0030154514
0.0011017531 -0.0038565397 -0.012224564 -0.0021073255 -0.0123730255 0.0009236431 0.0066213114 -0.008152801
-0.006001478 -0.005302118 -0.015994914 -0.0036433726 0.010608857 0.022369308 0.002282252 -0.0049182996
-0.016157132 0.0030658124 0.006333456 -0.011965608 -0.0055805105 -0.0047378098 0.00016214818 -0.012531018
0.00030501245 -0.003683049 -0.0022859736 0.008651736 0.006148788 -0.00066010567 -0.007605685 -0.010096867
-0.0061709643 0.019378405 -0.0043996545 -0.012397492 -0.005151061 0.0057203365 -0.02608762 -0.0042965123
0.0071125044 0.0007059085 -0.0066409796 0.008316248 -0.004783182 -0.0026513182 0.0045420527 0.0026770753
-0.0119458875 0.0068533635 0.013971743 -0.005197346 0.009045431 -0.015367636 0.002654643 0.0014262471
-0.0006516203 2.2519082e-05 0.0036420792 -0.0043559186 0.0032685339 -0.010531013 -0.007857073 -0.0032818103
0.011568704 -0.016019853 0.010187361 0.010947518 -0.004320512 0.007085064 -0.0027116581 -0.004564303
-0.004099999 0.0021065683 -0.007831117 -0.0033992229 0.01358256 0.0014811583 -0.004314237 0.013876271
0.006354705 -0.0007635419 0.0030517187 -0.0038083263 0.0040573007 0.0012616601 0.0025044277 -0.0013295099
-0.0022988738 0.0019283902 0.0052070376 0.010306204 -0.0072577037 -0.004298182 0.009756338 -0.015210598
0.010219404 -0.008615485 0.012286994 -0.008433466 -0.0024833605 0.009464558 0.013679521 0.009912062
0.006856691 0.003978354 0.0016911727 0.0057519567 0.010602775 0.00067615986 -0.023714982 0.007472837
-0.008810999 -0.00012925148 0.0011187452 0.0023435452 0.010152299 -0.013349008 -0.0043253815 0.004554774
-0.010098769 -0.009823258 0.0031288653 -0.0050074775 -0.016785573 -0.016757002 -0.027465744 0.0016853699

fc2.bias f4 [64]
00000000: 48f9 79b9 bc89 013c 1329 813b bb63 2f3b
00000010: ae0b 18bc 687f d03b f600 bf3a 1461 f2bb
00000020: 6e6d 6dbc 0a92 dbbb 650f 77bc 6cc3 a8bb
00000030: 1fd2 bcbb a878 c33b 3872 b7bb e9fe 8b3c
00000040: f6ee 93b9 1abc bfba 5cb7 76b9 941c 7bbc
00000050: 3be4 333c 05bc d8bb d7a2 273c aa50 943b
00000060: e93d 31bc a8f8 193c 4d24 92ba 14ca 58bc
00000070: 7803 69bb 919a 0abc c30e 583a d407 59bc
00000080: cd67 4ebb ef64 b6ba 541e 3bbb 2e85 ae3a
00000090: 4d74 aaba 3c40 cabc 9bcf c73b 1b31 40bb
000000a0: bfee 7d3c a551 273c d75d e43b bd58 ca3a
000000b0: 07dd 9b3c 4815 0f39 f153 f33b d6db 92bc
000000c0: ba28 513c 0e61 263c d0ba 83bc 51a5 523c
000000d0: a308 82bb f197 6bbb 2e9f 94bc af5c a2bb
000000e0: 1b6a 9fbb 3367 7dbc ff7b 80bc 7b14 bbbc
000000f0: ffed 98bb f496 7a3c f681 323c e5ad 5ab9
-0.00023839355 0.007906374 0.003941664 0.0026762325 -0.009280128 0.0063628443 0.001457243 -0.0073968265
-0.014491422 -0.006700759 -0.015079354 -0.005150249 -0.005762353 0.005965311 -0.0055983327 0.017089324
-0.00028216065 -0.0014628202 -0.00023528695 -0.015326638 0.010979707 -0.0066142105 0.010231695 0.0045262175
-0.010817983 0.009397663 -0.0011149734 -0.013231773 -0.0035555046 -0.008459703 0.0008241946 -0.013246495
-0.0031494976 -0.0013915579 -0.0028552013 0.0013314837 -0.0013004631 -0.024688832 0.0060977465 -0.0029326144
0.015498816 0.010212337 0.0069691944 0.0015437823 0.019026292 0.0001364547 0.007425778 -0.017927092
0.012766058 0.010154976 -0.01608029 0.012856797 -0.0039683147 -0.0035948718 -0.018142309 -0.0049548964
-0.0048649437 -0.015466499 -0.015684126 -0.022836914 -0.004667043 0.015294779 0.010895243 -0.00020854881

fc3.weight f4 [10, 64]
00000000: b6f9 683c fd61 9c3c 7aaf c63c 918e cebc
00000010: 3de3 163c d7a7 fcbb b28c 97bc 039d 86bb
00000020: 4ade 7a3c 1764 d7bb e15f 3e3c 9a45 c6b9
00000030: 360b 8ebc 556c 00bc a5ac 93bb bb86 babb
00000040: 9455 803b dd45 813b 06ea f2bc e1ca c3b8
00000050: 8dda 023c f469 d1bb 4e1e 41bd 295d 2f3b
00000060: 0397 323c f326 3c3c bb38 39bc f1e0 44bb
00000070: c871 553b 94a6 423c 2098 83bc 0fa6 c8bc
00000080: b74e 8bbc cf05 b9bc 4a8d 653b 5fea 203c
00000090: 527b a83c dafd 3cbc d7ea d43b 5ac1 a5ba
000000a0: c962 b53c e13d 7cbc 72f7 8c3c d33a 993b
000000b0: ee57 433c 8830 3abc fdf9 8c3b 7c71 f63b
000000c0: 9da0 9dbc ecc6 9b3c b8c4 603c 5ca7 14b9
000000d0: 5b46 883c 76bb 3c3c bfd7 8a3b 4af3 bbbc
000000e0: 0040 b4b7 2fbd e2bb 433d b4bb 181b 8a3c
000000f0: 930c 953b 0469 cc3b 851b 573c 1f46 783b
00000100: 96bb 503c 84af abbc ecc7 f6ba 7bbe b53c
00000110: ae7a 543b 9c4f 38bb 44c7 3ebc a5b2 fa3b
00000120: 07aa 03bc ff29 cf3c 34e0 92bc a414 123c
00000130: ec05 6bbb fb19 243c 8f6d 8f3a 2433 963b
00000140: 9a5e 063c ef14 063d bbc9 0b3d fafe bd3b
00000150: 89fa 80bc 9ae0 c33c 32ea 843c dc6e 43bc
00000160: 785b 803c 4d27 763c a9c2 803c 1ad4 89bb
00000170: 4fe5 5bbc 1c86 ba3c da08 7dbb cb39 9a3b
00000180: 72ff ebbb a15f 84bc 84bf 24bc b71f c3bc
00000190: d5bf a0bc 0dcd 7abc ad8f 12bd 3890 f63c
000001a0: 518f d4bc ec2b b63b dc7d 99bc bb79 c2bc
000001b0: e6e9 0ebb c3ac 503b d7a3 7537 4f36 93bc
000001c0: 611d dfbc 5cbb 803c 7caa ecbb 8f20 7abc
000001d0: 006d 2bbd f1d7 643d 59a1 0c3d 6623 6f3c
000001e0: 9626 02bd dcaa 0bbc 4da9 2bbc a66d f8bc
000001f0: a110 c83c 5666 93bc 5a80 873c 1ada 5ebc
00000200: 45aa fcbc 29ef 2f3c 0090 433b 1fbb 54bc
00000210: ace1 3a3a 5f64 233c ef5c 79bc d754 3ebb
00000220: 0482 05bc 8ea3 8b3b 2f20 89bc b1d8 b73c
00000230: c044 2cbc 71d6 01bc bd45 12bd ff4a f53b
00000240: 96a0 d3bb e35a cabb d42a 7abb 33cb 523a
00000250: c76b 0a3c 28f9 b43b ae3f 35bb f643 2cbc
00000260: 763b 8e3c e108 a6bc 1a09 a93a 3d0a 0bb6
00000270: 58ff 2d3c ccbd bd3b d806 db3b 9f2e 963b
00000280: 97fa 2a3b 923c da3b 8eca c2bc 2205 163c
00000290: fda5 14bd 8348 873c 1188 28bc bdfa 49bb
000002a0: 8563 3fb9 3357 ef3a 7834 98bc 2f38 3abc
000002b0: bcc6 ca3c c87f 4ebc 1878 01bc e196 7dba
000002c0: 4a07 053c 6c83 7d3b f605 5cba e476 0a3c
000002d0: 259e f6bc e375 c43b 9487 debc 38d0 c03c
000002e0: f651 2b3b bada 80bc 261b ccbb 3227 8e3c
000002f0: b875 59ba 4603 87bc f9d8 08bc 403a 51bb
00000300: 4acc dd3b a49a 823c 1797 5fbb 0503 3d3c
00000310: 13d1 2dbc a39a 013c 927e 3d3b ca14 513c
00000320: 4aed 20bc 71c3 ff39 7cff 823c 4558 abba
00000330: e44a af3c 34fe 8fbc 1c3b 30bb 6106 fc3c
00000340: 2396 e43c 7ffe 08bc 6cef 653b d789 bd3a
00000350: cd6a 10ba dfdb b43c 8124 363c e125 d7bc
00000360: c126 19bb 8a03 7c3c 7beb 643c 374d c03b
00000370: 5af7 dbba 7f24 2d3d 5411 d6bc 61b6 dcbb
00000380: 6979 333b 7a3d 943c 8391 843c 12af 213c
00000390: 8d42 453c 2697 61bb 5d71 113c a1d7 f13a
000003a0: 3c7a 92bb 0013 11bc e07a 86bb 8f96 4cba
000003b0: 380c 06bb 132b fcbb 6c0d 2b3c 5751 e7bb
000003c0: df64 71bc 3fef efbb 0fb7 b73a 3386 d33a
000003d0: da71 b2bc 24e0 82bc 1db3 8d3c 0f6a 213b
000003e0: 0f30 d13c d4fe 4f3c c3fa 4fbc 2310 0b3c
000003f0: bc82 f73c 2458 8ebc 4823 2cbc 40ba b83c
0.014219692 0.019089693 0.024253596 -0.025214465 0.009209451 -0.0077104378 -0.018499706 -0.0041080727
0.015311787 -0.006573211 0.011619539 -0.0003781736 -0.01733933 -0.007838328 -0.004506665 -0.0056923307
0.0039164517 0.003945096 -0.029652607 -9.336114e-05 0.007986677 -0.0063908044 -0.04714804 0.0026758409
0.010900262 0.011483896 -0.0113050295 -0.0030041302 0.003256904 0.011880536 -0.01606375 -0.024493245
-0.017005308 -0.022585778 0.0035026842 0.009821503 0.020566616 -0.011535132 0.0064977217 -0.0012646124
0.022141831 -0.015395612 0.017207835 0.004676202 0.01192282 -0.01136411 0.004302262 0.0075208526
-0.019241625 0.019015752 0.013718776 -0.00014176726 0.01663511 0.011519304 0.0042371447 -0.022943158
-2.1487474e-05 -0.006919525 -0.005500467 0.016858622 0.004548618 0.006238105 0.01312912 0.0037883592
0.0127400365 -0.020957716 -0.0018827892 0.022185555 0.0032421756 -0.0028123623 -0.011644188 0.0076506906
-0.008036143 0.02528858 -0.017929174 0.008916054 -0.0035861684 0.01001596 0.0010942685 0.004583733
0.008201266 0.032734808 0.034127932 0.005798218 -0.015744464 0.02391081 0.016224954 -0.011928286
0.015668616 0.0150240185 0.015717821 -0.0042061927 -0.013421371 0.022769026 -0.0038610012 0.0047065965
-0.0072020823 -0.01615888 -0.0100554265 -0.023818834 -0.019622723 -0.015307677 -0.03578155 0.030098066
-0.025947245 0.005559435 -0.018736772 -0.023739686 -0.0021806895 0.0031841255 1.4641285e-05 -0.017970232
-0.027235689 0.01571434 -0.0072224718 -0.015266552 -0.041851997 0.05587 0.03433356 0.014595842
-0.03177508 -0.008524623 -0.010477376 -0.030325722 0.024421992 -0.017993134 0.016540695 -0.013601804
-0.03084291 0.010738173 0.002984047 -0.012984066 0.00071289646 0.009972661 -0.015219911 -0.0029042268
-0.008148674 0.0042614406 -0.01673898 0.022442194 -0.010514438 -0.007924662 -0.03571104 0.007485747
-0.0064583523 -0.0061753853 -0.00381725 0.00080411433 0.008448548 0.005522866 -0.0027656364 -0.01051425
0.017362338 -0.020267906 0.0012896389 -2.0718574e-06 0.010619961 0.005790448 0.0066841654 0.0045831944
0.0026089305 0.0066600526 -0.023778226 0.009156497 -0.03629111 0.016514068 -0.010286347 -0.0030819618
-0.00018252253 0.001826024 -0.018579707 -0.011365934 0.024752967 -0.012603708 -0.007902168 -0.0009673667
0.008119414 0.003868307 -0.0008393222 0.008451197 -0.030104706 0.0059954985 -0.027164258 0.023536786
0.0026141382 -0.015729297 -0.0062288223 0.017352674 -0.00082954345 -0.016481053 -0.008352512 -0.003192559
0.006768738 0.015942879 -0.0034117156 0.011536364 -0.010608929 0.007910403 0.0028914553 0.012761304
-0.009822199 0.00048783005 0.015990965 -0.0013072571 0.021398015 -0.017577268 -0.00268907 0.03076476
0.027903622 -0.008361458 0.0035085334 0.0014460635 -0.00055090786 0.022077499 0.011117102 -0.02626318
-0.0023369046 0.015381703 0.013972159 0.0058685797 -0.001678209 0.042271134 -0.02613131 -0.0067356084
0.0027385599 0.01809572 0.016182667 0.0098684 0.012039793 -0.0034422367 0.008877126 0.0018451103
-0.004470138 -0.008854628 -0.0041040033 -0.00078044174 -0.002045406 -0.0076955645 0.010440212 -0.007059257
-0.014733522 -0.0073222215 0.0014016348 0.0016138017 -0.021782804 -0.01597602 0.017297322 0.0024629866
0.025535611 0.012695033 -0.012694064 0.008487734 0.030213706 -0.017376013 -0.010506459 0.022549748

fc3.bias f4 [10]
00000000: a9cb 413b 60b8 89bc b239 8ebc 2032 c0bb
00000010: 464d 9c3c f35f 0b3c aeab 22bc 05cf 633c
00000020: a43b 853c 9abc 9d3b
0.0029570854 -0.01681155 -0.017361496 -0.0058653504 0.019079816 0.008506763 -0.009928627 0.013904338
0.01626379 0.004813743
