models/DQN_Fed_AggPer_1.pth (torch, 64043 bytes, 6 tensors)

fc1.weight f4 [128, 50]
000000 8a 4f 9a bd 12 ad 21 bd 2d 18 00 bd 3e ca 07 bd
       -0.07534702 -0.039471693 -0.031273056 -0.033151858
000010 ff f3 56 bd 91 db b6 bb 5d 56 91 bc 60 ed a5 bc
       -0.052478787 -0.0055803736 -0.017741377 -0.02025479
000020 49 b3 1b bc 8d bd 73 bc b2 6d 2a bc 31 b2 9c 3c
       -0.009503194 -0.014876735 -0.01040213 0.019127937
000030 dd 6f 8b bb c3 b5 09 3c ce 26 71 3d cb 33 91 3d
       -0.0042552785 0.008405152 0.058874898 0.07089957
000040 b3 00 55 3d b3 c9 2e bc bd 93 81 bc f8 ec 0d 3d
       0.05200262 -0.010668206 -0.015817517 0.03464982
000050 8a 7a 5b bc 07 f2 22 3d 93 c2 58 3c 3d 8f 9d bb
       -0.013395915 0.039781597 0.013229984 -0.004808335
000060 86 ec e1 3b 08 52 9e 3c fc d5 93 ba ae c3 dd 3c
       0.006894651 0.019326225 -0.0011278982 0.027070846
000070 5d 4a 19 3d 94 b5 39 3c 1d 4d b9 3c 8a 2d 67 3d
       0.037424434 0.0113347955 0.022619778 0.056439914
000080 fc cf 19 3d 6e ca 38 3d 41 8b cf 3c 8a 05 f5 3c
       0.037551865 0.045114927 0.025334956 0.029909868
000090 88 78 a8 3c c0 f9 2c 3d 17 cb 13 3d 91 c8 df 3c
       0.020565286 0.042230368 0.036082353 0.027317317
0000a0 24 1e b0 3c 4c 27 65 3d 06 39 8d 3c e1 fb 7e 3c
       0.021498747 0.05594568 0.017239105 0.015562982
0000b0 1c 6d 06 3d a8 06 c2 bb 38 6d 82 3d 17 33 88 3c
       0.0328189 -0.0059212036 0.06368488 0.016625924
0000c0 05 4d 45 3d 0a 65 87 3c 52 ce c8 bc 9d 73 b1 bc
       0.048169155 0.016527671 -0.024512444 -0.021661574
0000d0 a6 44 f0 3c dd 04 97 bc c8 22 7a 3b 4f 93 ba 3c
       0.02932961 -0.018434936 0.0038167704 0.02277532
0000e0 4c 26 a3 ba d6 f0 9d bb 51 04 77 ba 8a a8 ff bc
       -0.0012447326 -0.0048199696 -0.00094229454 -0.031208295
0000f0 9d c5 0d 3c 71 f8 08 bd bb 4f 10 3b 1f b6 36 ba
       0.008653072 -0.033440057 0.002202018 -0.0006969887
000100 c9 8d 62 3c 31 a2 0c bb 29 8e df 3b 66 fd f4 bc
       0.0138277495 -0.0021458978 0.0068223667 -0.029905986
000110 73 93 98 bc 8f 92 86 3c 0d cf 86 bc b6 a0 f6 bc
       -0.018624997 0.016427306 -0.016456151 -0.03010593
000120 9b b7 06 bd 68 93 9e bc 83 b9 60 3c bf ed 0b bb
       -0.032889944 -0.019357398 0.013716104 -0.0021351425
000130 a6 b0 c3 3c 11 2b bd bc a6 d8 3f bc ee bf f0 bc
       0.023887943 -0.023091825 -0.011709368 -0.029388394
000140 e5 f8 04 bc 9a 2b 47 39 85 8e 27 bd bf a5 e7 3c
       -0.008115982 0.00018994362 -0.0409074 0.028277276
000150 86 2b b8 bc 9c a5 a9 3c 12 08 88 3c b3 ae 24 3d
       -0.022481691 0.020708852 0.01660541 0.04020567
000160 f2 a1 1d 3d 53 30 8c bc c9 28 c9 3c 56 7f 3d 3c
       0.03848452 -0.017112887 0.02455558 0.011566004
000170 52 0f c4 3c 88 0b a8 3c b3 ef 9a 3c 34 8a eb bb
       0.023933087 0.020513311 0.018913126 -0.007188106
000180 1a 1a b1 3c c6 72 26 3b f1 78 2a 3a 12 31 53 bd
       0.021618892 0.0025398 0.0006503007 -0.05156047
000190 a6 a3 6e 3c dc 44 27 bb 0c 14 2c bb d7 6e 12 3d
       0.014565384 -0.002552322 -0.0026257066 0.035750236
0001a0 53 79 73 3c 2f 39 3d 3b 86 a9 5f bc f8 0b ae bc
       0.014860469 0.0028873195 -0.013651257 -0.021245942
0001b0 01 fa 00 bd 1c e7 bc bc 7b e9 08 bb 4f 06 e4 bc
       -0.031488422 -0.02305942 -0.0020891118 -0.02783504
0001c0 86 ae 09 bc c9 a2 83 3c df 82 57 bc ae a5 f8 3c
       -0.008403426 0.016068833 -0.013153761 0.03035244
0001d0 12 e6 2d 3b fb 54 50 3d 29 45 4a 3d c6 b1 85 3d
       0.0026534838 0.050862294 0.049382363 0.06528048
0001e0 5c af b3 3d 00 df 25 3d e1 03 6e 3d e1 e1 29 3d
       0.087736815 0.040495872 0.058109168 0.04147518
0001f0 2c b3 34 3d aa 0c 4f 3d 7f 33 91 3d 1c 69 6e 3d
       0.044116184 0.050549187 0.070899 0.05820571
000200 3f 74 8d 3d 04 f9 5b 3d 96 3d 7c 3d 0e d8 9e 3d
       0.06906938 0.053704277 0.06158217 0.07756053
000210 4d 40 a2 3d c6 2c d4 3d d6 23 8a 3d fc b1 8e 3d
       0.07922421 0.10360102 0.067451164 0.069675416
000220 26 9d a5 3d ed 1e 85 3d 67 e3 9f 3d d2 26 92 3d
       0.08086614 0.06500039 0.078070454 0.07136311
000230 7d 52 b2 3d cc 8b 9f 3d 52 4d 6d 3d 34 03 91 3d
       0.0870714 0.07790336 0.057935067 0.07080689
000240 25 80 a5 3d a0 6c a7 3d bb 25 fd 3c 60 68 95 3d
       0.08081082 0.081750154 0.03090178 0.072952986
000250 cf 24 44 3d fa 62 9a 3d 3e d6 15 3c da 38 34 bb
       0.047886666 0.075384095 0.009145318 -0.0027499706
000260 61 34 3c 3c 85 2a bf bb 3d 41 20 bc 98 02 96 bc
       0.0114870975 -0.005833926 -0.009781179 -0.018311784
000270 ad 9e a7 bc cc 15 89 bb ca d0 53 3c 57 82 5a 3c
       -0.020461405 -0.0041835066 0.012928197 0.0133367395
000280 33 94 49 bc 9f 74 6c 3c 9c ec f9 3c b1 34 89 bc
       -0.0123034 0.0144321015 0.030508332 -0.016748758
000290 6e a3 a4 bb 4a cc 2d bc b2 a1 66 bc 0e 37 08 3c
       -0.005024365 -0.010607788 -0.014076637 0.008313907
0002a0 a6 69 d3 3b 5a 2a 20 bc 89 07 3f 3c d4 4f 74 3c
       0.0064518033 -0.009775722 0.011659511 0.014911611
0002b0 36 fc e0 3a a8 cb 1f 3c fb 7e d1 bc 00 9d c2 3c
       0.0017165008 0.009753145 -0.025573244 0.023756504
0002c0 e1 d6 9f 3c e4 52 74 3b ea 2f c3 bb 91 ce 04 bb
       0.019511642 0.0037280852 -0.0059566395 -0.0020264725
0002d0 94 19 7c bc b3 01 52 3c 6a 1d 8f 3b b8 20 b5 bc
       -0.015386958 0.012817788 0.00436752 -0.022110328
0002e0 41 17 84 3c f7 b5 5c 3b 43 3b 39 b8 0f 68 d9 bb
       0.01612437 0.0033677795 -4.416263e-05 -0.006634719
0002f0 4e e5 8a 3b 9a 04 37 3b fb b8 17 3c e6 5e fd 3c
       0.004238761 0.0027926327 0.009260411 0.03092904
000300 56 65 db 3c 8e f1 89 3c 86 ee 83 3c b5 6e 80 3c
       0.02678172 0.016838815 0.016104948 0.01567779
000310 8c c4 76 3c ff fd 35 3d 72 0b 9a 3b 11 a6 9e 3c
       0.015061509 0.044431683 0.0047010714 0.019366296
000320 fc 9b f1 ba 0a 07 9e 3a df f5 c0 3c ac e0 9b bb
       -0.0018433328 0.0012056541 0.02355474 -0.0047570076
000330 31 b2 7d 3c f6 a8 1a bc 6c 5c f1 3c 20 ab 98 bc
       0.015484379 -0.0094396975 0.029463015 -0.018636286
000340 d4 0b 2e bc c0 7b 31 3d ea 3b 82 bb e0 10 86 3c
       -0.010622937 0.043330908 -0.0039744275 0.016365469
000350 12 94 71 3c 52 0f e2 3c e5 9d d9 3b ee 93 8d 3c
       0.014744775 0.027595196 0.006641137 0.017282452
000360 2c dd 19 3c 3b 0d 39 bd 34 b7 10 bd 5c 41 40 bd
       0.00939111 -0.045178633 -0.035330966 -0.04693733
000370 da 80 4a bd 5a 0c 84 bc ca e7 46 3d e3 8d 1b 3c
       -0.04943929 -0.016119171 0.048560895 0.009494278
000380 69 2f 6d bd 12 d7 8b bd f3 cb 8c bc 33 65 2c bd
       -0.057906542 -0.06828131 -0.017187094 -0.0420887
000390 6f 0c 46 3d 78 19 ae bd 1a 5e 45 bd fd be 2c bd
       0.0483517 -0.085009515 -0.048185445 -0.042174328
0003a0 ec 3f 68 3d 65 08 35 3d 9a 20 25 bc 4f dc 0c 3c
       0.056701586 0.04419746 -0.010078574 0.008597448
0003b0 dc 3b 64 3c ff 71 2f 3c c1 af 41 3b 31 22 1c bc
       0.013930287 0.010708331 0.002955422 -0.009529636
0003c0 f2 3d e7 bc 65 a5 8d 3c fb 93 6f bc f6 a1 63 bb
       -0.02822778 0.01729078 -0.014622684 -0.0034733987
0003d0 3f 8d 22 bc e1 c7 00 bd 86 aa 95 3d a6 b3 49 3c
       -0.009921371 -0.03144062 0.073079154 0.012310898
0003e0 78 65 5a bc f1 4c 98 ba 6e e6 ba bc d3 73 0a 3c
       -0.013329856 -0.001161961 -0.022814956 0.008450466
0003f0 99 70 88 bc 1f 74 ad 3a f7 56 45 bc 41 7e 0b 3b
       -0.016655253 0.0013233459 -0.01204466 0.002128497

fc1.bias f4 [128]
000000 f8 eb 77 3e 9b 63 ec 3e ad 77 23 3f 54 6c 0b 3f
       0.24211109 0.46169743 0.63854486 0.5446217
000010 af 8e 29 3f cd 83 b8 3e 3f 87 df 3e 4e 9f 98 3e
       0.6623334 0.36038056 0.43657872 0.2980904
000020 7d 4e 2b 3e dd 9b 3b 3e 3b f8 d3 3e c2 0d 8c 3e
       0.1672916 0.18321176 0.41400322 0.27354246
000030 0d 49 87 3e 64 e0 d2 3e 26 0e f3 3e 20 c2 15 3f
       0.2642292 0.4118682 0.47471732 0.58499336
000040 db 1e 6f 3e 8a cc 99 3e e1 80 d3 3e ca 20 a7 3e
       0.23351614 0.30038863 0.41309264 0.32642204
000050 86 3e 79 3e 4d 73 fa 3e 40 5f fb 3e 7d 7f d8 3e
       0.24340257 0.48916093 0.49096107 0.42284766
000060 c5 5a e2 3e e1 bb a0 3e 8f 06 30 3e a9 bd c4 3d
       0.44209877 0.3139334 0.17190002 0.09606487
000070 73 d4 52 3e 54 d9 e0 3d dd da 68 3e f6 b6 dd 3e
       0.20588855 0.10978952 0.2273974 0.4330365
000080 3a 9d 0b 3f 71 f5 78 3e 3d 91 b9 3e e6 6f 5b 3f
       0.54536784 0.24312378 0.3624362 0.8571762
000090 40 76 a7 3e a9 15 ed 3e e6 26 e9 3e 2c 21 cc 3e
       0.32707405 0.46305588 0.4553749 0.39869058
0000a0 57 0e f8 3e 64 b2 f3 3e b6 93 08 3f 76 85 f9 3e
       0.4844844 0.4759704 0.5335039 0.48734635
0000b0 97 ff e7 3e b6 59 05 3f 16 34 1b 3f 76 5a dc 3e
       0.45312187 0.52090013 0.6062635 0.43037766
0000c0 f8 e6 cc 3e a9 45 ee 3e 38 ec 51 3f 4a b3 02 3f
       0.40019965 0.4653752 0.82001066 0.51054823
0000d0 aa 76 d5 3e 5b 8e 29 3e 93 ad 62 3f 1c bd 56 3e
       0.41692096 0.1655821 0.88546103 0.20970577
0000e0 0f 72 e8 3e 1c 15 8a 3e ec f6 7d 3e 48 8c e8 3e
       0.4539952 0.2696923 0.24801224 0.45419526
0000f0 ba 1e 04 3f 33 a9 cf 3e e6 14 a5 3e b0 5f a0 3e
       0.51609385 0.40558776 0.32242507 0.31323004
000100 cd 85 8a 3e 8e 63 3b 3e 63 48 e1 3e cf 77 e5 3e
       0.27055207 0.18299696 0.4400054 0.4481797
000110 21 90 dc 3e 36 e8 da 3e ed 16 8d 3e 9b a6 93 3e
       0.43078712 0.42755288 0.27556553 0.28838047
000120 49 df 00 3f 5c 2a e0 3e 45 54 fe 3e 1d c7 3d 3e
       0.50340706 0.43782318 0.49673668 0.18532987
000130 1d 5f b5 3e 8e 55 ab 3e e6 8f 1c 3e 61 6a 0b 3f
       0.35424128 0.3346371 0.15289268 0.54459196
000140 16 f9 05 3f 76 85 a4 3e 5f 4d db 3e 92 e6 85 3e
       0.523332 0.32133073 0.42832467 0.26152474
000150 e9 d8 a5 3e 6c 19 38 3e 15 0e 93 3e 43 b4 ad 3e
       0.32392052 0.17978448 0.2872168 0.3392659
000160 41 90 aa 3e 9e 64 92 3e 91 63 b8 3e 29 88 e2 3e
       0.33313182 0.2859239 0.36013463 0.44244507
000170 5b d8 42 3f a9 79 3a 3e 3a 9a 0c 3e 68 4e 04 3f
       0.7611138 0.18210472 0.13730708 0.5168214
000180 71 1e 88 3e 73 0e e1 3e 8f 96 c2 3e f6 f6 e6 3e
       0.26585725 0.43956336 0.38005492 0.4511029
000190 ae bb b0 3e c9 ae 0d 3f 61 7f f3 3e 9c 6f bf 3d
       0.34518188 0.55344826 0.4755812 0.0934746
0001a0 06 a8 97 3e cf eb ef 3e 2e 62 69 3e 17 67 29 3f
       0.2962038 0.46859595 0.22791359 0.6617293
0001b0 7f 5c 60 3e 80 ef ff 3e e9 51 c5 3e 0d 0d ef 3e
       0.21910284 0.49987411 0.38539055 0.46689644
0001c0 9b 48 ab 3e 44 62 91 3e 20 cd 85 3e cd 7c fd 3e
       0.3345383 0.28395283 0.2613306 0.49509278
0001d0 6c 11 e0 3e 45 4b cf 3e 9a c5 fc 3e 34 3e d1 3e
       0.43763292 0.40487114 0.49369508 0.4086777
0001e0 d3 2e df 3e 91 bc f5 3e 12 67 76 3e 23 c6 a7 3e
       0.43590412 0.47995427 0.24062756 0.32768354
0001f0 57 89 ee 3e e6 91 ec 3e 31 45 ec 3e e8 3a 88 3e
       0.46589157 0.46205062 0.4614654 0.26607442

fc2.weight f4 [64, 128]
000000 e1 79 f0 bb 01 9b bb bb 31 91 d7 bb 21 0d 04 b9
       -0.007338748 -0.005725265 -0.0065785875 -0.00012593392
000010 5b af 3b 3b b1 6a 97 bb c1 f2 7b bc 51 0b a0 bb
       0.0028638456 -0.004620873 -0.015377701 -0.0048841615
000020 98 1c 07 bc 61 ed cb bc 31 79 4c bc 4f 92 60 3b
       -0.008246563 -0.024893465 -0.012480066 0.0034266894
000030 cf 70 aa 3a cf 73 5b 3c 18 29 84 39 60 89 ff bb
       0.001300359 0.01339431 0.0002520762 -0.007798359
000040 e1 1c a5 bb 91 be 50 bc 30 16 19 3c 10 07 85 bb
       -0.005038843 -0.012740747 0.009343669 -0.00405968
000050 31 8d 31 39 91 27 a5 bb c6 14 13 bc e1 b5 c3 bb
       0.00016932633 -0.005040117 -0.008977121 -0.0059726094
000060 71 90 27 bc 8f 49 92 3b ae dc 77 3b 0f ae 70 3c
       -0.010227309 0.0044643353 0.0037820744 0.014689936
000070 f1 5a be bb 59 67 10 bc c0 ae a1 3b 40 d2 55 bc
       -0.005809181 -0.0088137025 0.004934162 -0.013050616
000080 20 e7 2e bb 31 3a c0 bb 21 c9 79 bc cf e5 36 3a
       -0.0026688054 -0.005866312 -0.015245707 0.0006976993
000090 a1 47 c3 bb a1 92 60 bc 40 8c ac 3a e1 19 54 bc
       -0.0059594666 -0.013706834 0.0013164356 -0.012945623
0000a0 20 97 c8 bc 87 e9 06 3b 31 69 6b bc 0f 59 35 bb
       -0.024486125 0.002058597 -0.014368341 -0.0027671491
0000b0 df fd bb 3b df a6 11 bc 71 0c 43 3c cf c4 f1 ba
       0.005737051 -0.008889883 0.011904822 -0.0018445494
0000c0 71 94 ff bb e0 36 5b bb 71 79 86 ba 91 45 af bc
       -0.007799678 -0.0033449456 -0.0010259581 -0.021395477
0000d0 40 05 4f 39 d1 98 0f bc 11 da 95 ba d1 84 9e bb
       0.00019743014 -0.008764462 -0.0011432787 -0.0048376103
0000e0 3a 21 1a 3c e1 35 91 bc 12 f4 fe bb e0 51 e0 b7
       0.009407336 -0.017725887 -0.0077805603 -2.6741007e-05
0000f0 e0 07 cc bb 2f 97 5c 3c 71 53 d9 ba e1 ca 8d bc
       -0.0062265247 0.013463779 -0.0016580654 -0.017308654
000100 4f 41 e0 bc 31 ce b9 bc 60 85 43 3c e0 a5 29 bb
       -0.027374892 -0.022681328 0.011933655 -0.0025886223
000110 5f 11 1a 3a b1 3a a9 bb 40 fc 51 bc 01 bd c3 bc
       0.0005877222 -0.0051644673 -0.012816489 -0.023893835
000120 e0 e9 91 38 b1 e6 5c ba 98 88 1c bc a1 b6 98 bb
       6.9577014e-05 -0.00084267097 -0.009554051 -0.004660443
000130 31 f7 7f 3c 91 84 ca bb 21 e5 3f bc 60 b6 47 3c
       0.0156229 -0.006180354 -0.011712343 0.012189478
000140 80 e9 65 3b 01 48 f7 bb 4f ed 63 3c 8f a5 ea bc
       0.0035081804 -0.0075464253 0.013911559 -0.028643398
000150 f1 2d c1 bb 40 5a 8f bc cf 48 3f 3b 59 91 82 bb
       -0.005895369 -0.01749909 0.0029187684 -0.003984612
000160 77 af 86 3b f1 4d 20 bc 7f 62 ff 3b a0 99 45 bc
       0.0041102725 -0.009784208 0.007793724 -0.012060553
000170 40 4e b3 3a 97 37 0c 3c df 02 f1 3a a1 98 8f bb
       0.0013679937 0.0085581755 0.0018387696 -0.0043822085
000180 41 74 7a bb f7 62 85 3c 11 8d db bb 1d 53 90 3b
       -0.0038216265 0.016282542 -0.006700166 0.004404439
000190 31 62 4d bc e0 e1 50 3c f1 29 9e bc e1 83 c1 bb
       -0.012535618 0.012749165 -0.019307109 -0.005905614
0001a0 f1 3d 65 bb f1 0a 72 bb 40 7d 36 bc a1 54 ad 3b
       -0.0034979547 -0.003693279 -0.01113826 0.0052896296
0001b0 40 8c ae bc 28 3c 07 3c 91 04 b9 bb d2 e4 68 bc
       -0.02130711 0.008254088 -0.0056462963 -0.014214711
0001c0 80 c0 d6 bc 88 9c 0d bc 08 40 0c 3c 31 93 ac 3b
       -0.026214838 -0.008643277 0.008560188 0.00526657
0001d0 00 0c ad bc c0 7b 0a 3b cf e5 f9 ba 2f 1b de 3b
       -0.021123886 0.002113089 -0.0019065681 0.006778143
0001e0 31 9f 49 bc 41 00 19 bc 2f 2a 98 3c 2f bc 8b 3b
       -0.012306021 -0.009338439 0.018574802 0.0042643766
0001f0 8a 3f 1a 3a b1 c4 a2 bc 5a 7c 15 3b 01 9f 4c bb
       0.0005884102 -0.01986918 0.0022809715 -0.0031222703
000200 17 96 cf bc 52 a8 fc 3d 3a 23 b1 3d e9 89 9a 3e
       -0.025340123 0.12336792 0.08649297 0.30183342
000210 31 85 73 3e 48 a3 46 3d 94 7b ba 3d 1a 36 92 3c
       0.23781277 0.04849556 0.09105602 0.017848063
000220 ec 9a d6 bc f6 00 eb bc 3f bd 08 3d 1d 04 35 bd
       -0.02619692 -0.028686982 0.033383604 -0.044193376
000230 83 f2 97 bc 7a c9 e2 3d 6e c3 9e 3d 00 ac 94 3d
       -0.018548256 0.11073585 0.07752119 0.07259369
000240 a0 f6 8e bd 2c ed 24 3d 58 e2 9d 3d 7d e4 e6 3c
       -0.06980634 0.040265247 0.07709187 0.028185124
000250 2c 22 91 bc 58 53 89 3d 09 2a 59 3d 97 c2 66 3d
       -0.01771649 0.0670535 0.053018603 0.05633792
000260 b0 7d 84 3d 13 59 41 3c 49 92 9f bc 0f ed 2c bd
       0.064692855 0.011801022 -0.019478934 -0.042218264
000270 fb d0 74 bc a6 a8 04 bd a9 eb 12 bd 84 72 9d 3d
       -0.014942403 -0.0323874 -0.035869274 0.07687858
000280 18 6e eb bb cc 86 36 3c 2e c1 d2 3d 0d fa ca 3e
       -0.007184755 0.0111405365 0.10290752 0.396439
000290 40 d1 a0 3c 05 45 ff 3d 09 a9 26 3d 01 16 9b 3d
       0.019631028 0.12464336 0.04068855 0.07572556
0002a0 df d8 a6 3d a8 2c 0c 3e d7 58 b7 3d 5c 3a d5 3d
       0.08146834 0.1368891 0.08952492 0.10411522
0002b0 a4 16 df 3d 8a bb 20 3e a3 b8 9f 3d 13 0d a2 3d
       0.1089299 0.1569654 0.077988885 0.0791265
0002c0 e2 6d 85 3d ef ce c9 3d 9d 8b f2 3e d1 a2 81 3e
       0.06515099 0.098539226 0.4737214 0.25319532
0002d0 bd 46 12 3e b2 54 25 bd 7d 23 01 3f 14 b7 87 bc
       0.14284797 -0.040363975 0.50444776 -0.01656679
0002e0 26 70 2d 3e 14 dc c7 bc f1 b8 f0 bb cf 3b 3f 3d
       0.16937312 -0.024396934 -0.0073462655 0.046687897
0002f0 93 8c ce 3d 5d ec 10 3d bb 84 5a 3d 4d b7 62 bc
       0.10085406 0.035381664 0.053349238 -0.013837648
000300 2e 29 04 3d 20 da 32 bd f8 d3 e4 3c c0 1c 4e 3e
       0.032265835 -0.04366505 0.027933106 0.20128155
000310 f3 67 55 3d 37 3c 02 3e fb 5f cf 3c df 34 cc 3c
       0.052101087 0.12718283 0.025314322 0.024927555
000320 08 64 02 3e 24 0b 56 3c 08 a5 70 3e e6 ff f1 bc
       0.12733471 0.01306418 0.23500454 -0.029540967
000330 89 6e ac 3d dc f9 50 3d 92 05 48 bd 6f a4 be 3d
       0.084195204 0.051019534 -0.048833437 0.09308707
000340 81 0b 4c 3e 6c 60 2d 3d 93 3d 9d 3d 71 21 22 bd
       0.19926263 0.042328283 0.0767776 -0.039582673
000350 06 e4 8c 3d 53 aa dc bc 52 e1 50 3d 14 72 5b 3d
       0.068794295 -0.026936686 0.050996132 0.05357559
000360 d4 64 38 3d d7 83 bb 3a a9 2c 44 3d 96 8f c1 3d
       0.045018032 0.0014306259 0.047894154 0.09451215
000370 2e 4d ce 3e 31 66 1e bd c4 ce cd bc 1a ee 82 3d
       0.40293258 -0.038671676 -0.025123008 0.063930705
000380 c0 a1 d2 3c e4 b2 b5 3d 24 cc 6d 3d f7 ad 0b bd
       0.025711894 0.08872011 0.05805601 -0.034101453
000390 0c 57 23 3d fd 74 f3 3d 36 cf 3c 3e 0d d6 ee bc
       0.039877936 0.11887548 0.1843842 -0.029154802
0003a0 1a dd 31 3d 84 38 15 3e 77 f1 d9 bb ca 35 10 3e
       0.04342375 0.1457234 -0.0066510993 0.14083019
0003b0 a5 37 61 bc 54 ea 41 3e 49 a5 91 3c 6f fb 24 3e
       -0.013746177 0.18937045 0.01777901 0.1611154
0003c0 e9 05 f8 3c 3b a2 ca 3c 48 8f da bc ea 14 1e 3e
       0.030276256 0.02473556 -0.02667965 0.15437666
0003d0 e1 ee e2 3d 69 d3 5e 3d c6 69 8a 3d 4d 11 65 3d
       0.11080719 0.054400835 0.06758456 0.055924702
0003e0 56 59 88 3c 04 18 d2 3d f4 2b 42 bc 3f 4f 6e 3c
       0.016644161 0.10258487 -0.0118513 0.014545261
0003f0 5a ab 9f 3d 7b 58 6f 3d 0d 38 c1 3d 36 33 b4 bc
       0.077963546 0.05843399 0.09434519 -0.021997076

fc2.bias f4 [64]
000000 00 1f b8 bb a8 7d 9e 3e 2d 89 96 3e 21 77 8d 3e
       -0.00561893 0.30955243 0.29401532 0.2762995
000010 3d 4d 9a 3e 11 02 a0 3e f6 03 d7 3e c9 33 9b 3e
       0.30137053 0.31251577 0.4199521 0.30312946
000020 cf 49 95 3e c1 4b 5f bc 4d 30 c5 3e 51 0a d6 bb
       0.29157874 -0.013628901 0.38513413 -0.0065319915
000030 57 fb a2 3e 4d e4 ad 3e 8a 44 a6 3e c4 dd 9f 3e
       0.31832382 0.33963242 0.32474166 0.3122388
000040 40 9e bc 3e 01 27 c3 bb ea 34 9c 3e f6 8c b0 3e
       0.36839485 -0.0059555774 0.3050912 0.34482545
000050 ac 40 c0 3e 88 4d af 3e 65 ba b5 3e 6f ec db 39
       0.3754934 0.3423884 0.3549377 0.00041947092
000060 2f 8a 96 3e df 00 b9 3e a0 04 b8 bb 00 59 89 bc
       0.294023 0.36133477 -0.0056157857 -0.016766071
000070 73 5d 95 3e f9 9c 09 bc ca ac a1 3e b3 f9 ec 3e
       0.2917286 -0.008399242 0.3157714 0.46284255
000080 52 05 95 3e 44 dc 9f 3e e3 5f 9d 3e 58 e3 90 3e
       0.29105622 0.31222737 0.30737218 0.2829845
000090 c5 1b a4 3e c5 e2 9b 3e 00 f5 93 3e f1 bb 25 bc
       0.32052436 0.3044645 0.28897858 -0.0101156095
0000a0 fc 8e 98 3e 8f f7 c4 3b 48 ad a7 3e 3d 01 c6 3e
       0.29796588 0.0060109566 0.3274939 0.3867282
0000b0 86 a7 9a 3e a4 2e aa 3e a1 c3 ee 3b 64 58 9f 3e
       0.30205935 0.3323871 0.0072865044 0.31122124
0000c0 b4 9e 98 3e c0 1f f6 3b 63 bc 82 bc 9a e9 93 3e
       0.2980858 0.007511109 -0.01595897 0.2888916
0000d0 ae f1 a7 3e f7 3f a3 3e 43 84 a7 bc 63 2a 1c bc
       0.32801574 0.3188474 -0.02044881 -0.00953159
0000e0 91 98 bb bb ec 26 90 3e a1 89 ba 3e 21 e9 c4 bc
       -0.0057249744 0.28154695 0.36433128 -0.024036946
0000f0 f3 86 ab 3e c3 8b b3 3e 61 21 b5 3e 59 f1 9b 3e
       0.33501396 0.35067567 0.3537703 0.3045757

fc3.weight f4 [10, 64]
000000 36 09 a7 3c 98 86 48 3e 6c 30 4c 3e 33 a6 25 3e
       0.020390134 0.19582593 0.19940346 0.16176681
000010 29 ac 4d 3e aa 2f 61 3e aa 0c 10 3e 3d 33 69 3e
       0.20085205 0.21990839 0.14067331 0.22773452
000020 5b ce 56 3e e1 df d3 3a b3 8a 63 3e cf 4a fb 3a
       0.20977156 0.0016164744 0.22220878 0.0019172075
000030 1c 56 71 3e 37 48 86 3e d4 44 97 3e 3a 2a 49 3e
       0.23568004 0.2622697 0.295447 0.19645014
000040 b1 71 6a 3e d1 09 43 3c 81 ed 52 3e 4f c9 70 3e
       0.22894932 0.011904196 0.20598413 0.23514293
000050 58 3e 79 3e 3b 52 92 3e 46 ad 5b 3e a1 5a 40 3c
       0.24340189 0.28578362 0.21452817 0.011740358
000060 d2 5b 39 3e a4 57 b3 3e bb 25 ba bb 52 8f 7c 3a
       0.18101433 0.35027802 -0.0056807674 0.00096343935
000070 94 85 37 3e 40 4e 5e 3c 9d a8 78 3e 7a 90 38 3e
       0.1792205 0.013568461 0.24283071 0.18023863
000080 43 cf 24 3e 76 26 5d 3e c3 e9 59 3e 1f 13 50 3e
       0.16094689 0.21596703 0.2128058 0.20319794
000090 9b 06 91 3e c3 25 7f 3e b6 20 2c 3e f1 d4 a6 3b
       0.28325352 0.24916749 0.16809353 0.0050913026
0000a0 73 b2 40 3e 8f c7 fc bb a5 c4 86 3e 8f 8a 7d 3e
       0.18818073 -0.007714219 0.26321903 0.24759887
0000b0 ea 30 3f 3e 34 e8 7f 3e 61 cb 74 3c 74 d7 08 3e
       0.18671003 0.24990922 0.014941067 0.13363439
0000c0 05 77 2d 3e 0f 1d da 3c 8f 8e 4f 3c 68 f8 3a 3e
       0.16939934 0.026625184 0.012668266 0.18258822
0000d0 72 9b 88 3e 97 ac 89 3e 21 0c de 3b ef 52 84 bc
       0.26681095 0.26889488 0.006776348 -0.016152827
0000e0 b1 e7 eb 3a d7 5c 33 3e 08 ba 84 3e 31 99 95 3c
       0.0017998127 0.17515884 0.2592318 0.018261524
0000f0 04 01 62 3e 3b 18 88 3e b4 99 8d 3e f1 a6 59 3e
       0.220707 0.26580986 0.2765633 0.2125509
000100 0f b2 67 3c 30 d8 a1 bc 00 50 fc b9 ef f1 bd 3c
       0.014141574 -0.019756407 -0.0004812479 0.023186652
000110 c0 9a 91 3b af 29 d3 ba 6f 60 2e bc c1 4f 14 3c
       0.0044434965 -0.0016110445 -0.010643109 0.009052218
000120 b1 f6 df bb 4f 01 d9 3c df 08 89 bc 8f 7b 22 3c
       -0.006834828 0.026489882 -0.016727863 0.009917154
000130 2f 4b 1c bb 91 c8 37 3c af 90 23 3b 31 3f d1 3b
       -0.0023848524 0.011217252 0.0024958064 0.006385707
000140 41 0d 1a 3c 89 00 0b 3d 71 11 0f 3d 0f 0b f9 3b
       0.009402574 0.033936057 0.034928743 0.0076001952
000150 6e 46 6e bc b1 ff d0 3c 81 c1 8e 3c 2f c0 2f bc
       -0.014543159 0.025512548 0.017426254 -0.0107269725
000160 9d 7a 8d 3c e3 8e 86 3c 29 52 87 3c af 2b 5f bb
       0.01727038 0.016425556 0.01651867 -0.0034053137
000170 8f 7e 4b bc 51 5d c4 3c ff 2e 21 bb c0 45 d5 3b
       -0.012420311 0.023970278 -0.0024594662 0.006508559
000180 80 12 be bb e0 c8 71 bc e3 10 11 bc 6f 48 b9 bc
       -0.005800545 -0.014757365 -0.008854124 -0.022617547
000190 9f 44 95 bc 9f d6 63 bc 30 2e 0b bd b1 05 01 3d
       -0.018221198 -0.01390615 -0.033979595 0.03149957
0001a0 f6 5b cc bc 4f 89 dd 3b 4f ee 92 bc 85 fe b6 bc
       -0.024946194 0.006760753 -0.0179359 -0.022338161
0001b0 8f 9c 9a ba c1 b3 8f 3b 61 dd d3 3a c7 a6 8c bc
       -0.0011795926 0.004385442 0.0016163999 -0.01716937
0001c0 cf 31 da bc b1 92 8a 3c 4f 6c d2 bb 8f 01 6d bc
       -0.026635079 0.016915651 -0.006421603 -0.014465704
0001d0 36 f7 28 bd 60 67 6b 3d 19 e9 0f 3d 21 8a 7f 3c
       -0.041251384 0.057471633 0.03513441 0.015596897
0001e0 df 19 fc bc df 68 e9 bb df b2 14 bc ee 25 f5 bc
       -0.030774055 -0.0071230973 -0.009075849 -0.029925313
0001f0 cf 8b d3 3c 00 8f 89 bc 91 fb 92 3c 0f bb 51 bc
       0.025823502 -0.01679182 0.017942222 -0.012800946
000200 ee 76 f4 bc 0e 59 47 3e 0e 4b 32 3e a6 1e 35 3e
       -0.029841866 0.19467565 0.17411444 0.17687473
000210 2c 1f 4b 3e 8a fa 6b 3e ea d5 88 3e 25 5e 3a 3e
       0.1983611 0.23044792 0.26725703 0.18199976
000220 8a 76 48 3e 51 71 ac 3b 08 a6 6b 3e 21 0c c0 3c
       0.19576469 0.005262532 0.23012555 0.023443284
000230 9c ca 50 3e 72 b9 56 3e 8f db 5b 3e c4 45 47 3e
       0.2038979 0.2096918 0.21470474 0.19460207
000240 a1 85 62 3e 0f 8d a9 bb 0d 1b 5c 3e 4d 4d 69 3e
       0.22121288 -0.005174286 0.21494694 0.22783394
000250 f6 f9 78 3e 81 e1 71 3e cc 56 5d 3e 4f 95 18 bc
       0.24314103 0.23621179 0.21615142 -0.009312942
000260 4f a9 3b 3e b0 25 82 3e 31 20 16 3b d9 f1 82 3a
       0.18326305 0.25419378 0.0022907371 0.0009990289
000270 b7 05 35 3e f1 fb d7 3b a6 7f 56 3e 94 92 13 3e
       0.17677961 0.006591313 0.20947132 0.14411384
000280 41 5f 3c 3e 36 c8 4f 3e ee 06 3a 3e bd 8b 46 3e
       0.18395711 0.20291218 0.18166706 0.19389243
000290 f1 42 3b 3e 8a 95 6b 3e f7 c4 15 3e 4f 03 c2 ba
       0.18287255 0.23006263 0.14625917 -0.0014802011
0002a0 8a 85 2f 3e 31 47 39 3b 1d aa 44 3e e3 80 6e 3e
       0.17140785 0.0028271193 0.19205518 0.23291354
0002b0 61 7c 51 3e 9d ec 54 3e 6f 22 e2 bb c8 05 5f 3e
       0.20457603 0.20793386 -0.0069010775 0.21779549
0002c0 37 04 43 3e 81 8f 9f 3b b1 ca bd 39 2f 6f 43 3e
       0.19044577 0.004869402 0.00036199906 0.19085382
0002d0 04 58 36 3e 76 71 6f 3e ef 9b d9 bc 71 9a ce 3c
       0.17807013 0.23383126 -0.026563613 0.025220128
0002e0 e8 95 83 3b 5a 7f 1c 3e e4 23 67 3e 68 a2 99 3c
       0.004015673 0.15282956 0.22572285 0.0187542
0002f0 0c b6 4c 3e c6 3c 5d 3e bf 90 64 3e 2e 95 49 3e
       0.1999132 0.21605214 0.22320841 0.19685814
000300 c1 fb 12 3c 5d c8 4b 3e cd 4a 14 3e 08 c7 2e 3e
       0.008971156 0.19900651 0.14481659 0.17068112
000310 d8 26 1b 3e 68 80 37 3e 36 6b 94 3e 3f 9c 4a 3e
       0.15151536 0.17920077 0.28988045 0.19786166
000320 ed 63 2d 3e 4f 15 a6 3b 91 90 a0 3e d1 73 04 3b
       0.1693265 0.005068458 0.31360295 0.0020210634
000330 85 71 58 3e 78 c7 29 3e 54 06 3a 3e 89 4c 56 3e
       0.21137054 0.16579998 0.18166476 0.20927633
000340 24 61 90 3e a9 85 8c bb b8 0f 43 3e dd e4 84 3e
       0.28199112 -0.0042883945 0.19048965 0.2595586
000350 a9 c8 75 3e a1 8e 66 3e 51 d9 62 3e 6f 35 9b bc
       0.24002327 0.22515346 0.22153212 -0.018946378
000360 23 a7 23 3e 00 58 65 3e 80 80 84 3c 71 8b fb 3b
       0.15981726 0.2239685 0.016174555 0.007676535
000370 2a 07 22 3e 80 59 35 3d ca 33 28 3e c0 2f 4f 3e
       0.15823045 0.044274807 0.16426006 0.20233059
000380 03 83 34 3e 46 10 57 3e e0 ef 43 3e 1c ee 3b 3e
       0.17628102 0.21002302 0.19134474 0.1835255
000390 03 dc 36 3e 0d 81 4c 3e b8 d7 2d 3e 61 28 92 3b
       0.17857365 0.19971104 0.16976821 0.00446038
0003a0 00 d6 1e 3e ff 83 bd bb 69 bb 2d 3e 88 1c 51 3e
       0.15511322 -0.0057835574 0.16966023 0.2042104
0003b0 3c 91 18 3e dc bb 4d 3e 29 e8 8f 3c 53 77 95 3e
       0.14899153 0.20091194 0.017566757 0.291926
0003c0 d2 ef 1c 3e 7b 4a 62 bb 71 c1 99 3b b7 24 31 3e
       0.15325859 -0.0034529257 0.0046922495 0.17299162
0003d0 91 c7 13 3e 52 3a 18 3e 51 a1 a4 3c b1 ca b0 3b
       0.14431597 0.14865997 0.020096453 0.0053952564
0003e0 b1 8d e4 3c 46 52 27 3e d7 76 7b 3e 51 4e 25 3c
       0.027899595 0.16339979 0.24557053 0.010089473
0003f0 71 d5 70 3e c5 3a 2e 3e 8c f9 57 3e fa be 42 3e
       0.23518921 0.17014606 0.21091288 0.19018164

fc3.bias f4 [10]
000000 81 ae ed 3e ef a2 72 bc 6e be 7b 3e f7 6c 10 3e
       0.46422198 -0.014809354 0.24584362 0.14104067
000010 66 08 98 3e f1 72 76 3e 36 3e e4 3e 0e 35 c6 3d
       0.29693907 0.24067284 0.44578713 0.09678088
000020 96 5d ca 3e 4d c3 db 3e
       0.39524525 0.4292244
