models/DQN_Fed_AggPer_10.pth (torch, 64043 bytes, 6 tensors)

fc1.weight f4 [128, 50]
00000000: 0317 50bd 0892 083c bfad 9d3c 135b 6f3c
00000010: d757 36bc fbc2 ef3c 4d76 5a3c 4660 bb3b
00000020: fe87 0e3c 7813 8dbb 44d0 04bc 8cc2 223c
00000030: 5fe5 bfbc 6e6f 04bd 5372 163b 9baa 823a
00000040: a6a6 ffb9 68e4 89bd ea0a 5cbd 9f07 c8bc
00000050: 40ef 9ebd 9f9b 82bc 9822 0ebd ad1d 9abd
00000060: 377e 51bd 6899 1cbd 4d74 2ebd 52c5 d1bc
00000070: e650 77bd bb2a 14bd 43b6 4bbd 9bfe e9bb
00000080: f3c7 0dbd adc6 1c3d fdca 91b9 df0b 6dbb
00000090: 2c68 3539 b845 4b3c 9782 073b b23d 5ebb
000000a0: ac65 c7bc e1dd fb3c 8c99 61bc 05bc 7039
000000b0: 1b4a ce3c 496d dbbd 54b4 0e3d 835f a2bc
000000c0: 432f a33c 1415 14bc 939a 64bd d73e 98bc
000000d0: 9155 0c3d 0a26 62bc a619 fe3b 6a3f ca3c
000000e0: 4d23 c839 5836 14bc 3015 15bb a1f7 09bd
000000f0: ffc5 263c 9d02 fabc 3002 123b 2c7d a7bb
00000100: 3816 1c3c 9185 6cbc ba3f ccbc 5381 89ba
00000110: e686 b83d 262d b03d 535d 9d3d df2b 03bc
00000120: a99f 12bd ee78 913d 6096 80bc 63fc 1f3d
00000130: 4051 a53d 1d12 8cbc 8ad1 a4bc 24b0 1aba
00000140: 8510 3fbd 217d 8cbd bbad f8bd bbcb 4bbd
00000150: bb93 88bc 0364 f23d 469d 373d b6e4 103e
00000160: 054b 9fbc cca8 cabd fd39 883d 0581 42be
00000170: 5b52 c33c ae16 263c ad1b abbd f16e 3fbd
00000180: 2d96 863a 8f16 b3bd a90f 39be 8c1e 58be
00000190: c1dd 84bd 3d5c bdbc d116 59bc 7648 d03c
000001a0: e110 023b 06f3 16bc f847 79bc c345 b4bb
000001b0: edac 44bc 81e6 2a3b bfbd be3c 3b19 0cbb
000001c0: 3da6 da3b 766f 9d3c b749 e7bb 743c 443c
000001d0: 83d9 c4bd 6e06 e7bc b6b1 e5bc 3bd9 223d
000001e0: 5f45 d93c 7fad 12bc bf07 133d 267d 173d
000001f0: 2859 693c 1633 17bd 148a e93c d787 913c
00000200: a310 4b3b 3b31 efbc a116 ee3c 136a d83c
00000210: 933b 933b 2adc 4c3d 45d4 04be e503 6cbd
00000220: c113 243d 566c 46bd ca30 d9bd da82 94bc
00000230: 53ca 383c 813c 02bd 6c06 f9bd 7701 603c
00000240: 9616 f0bc dd21 00bd dba2 40be 8df1 d0bd
00000250: 661e 0bbe c3da 403c 12f7 4ebd 4734 8dbc
00000260: 697e 393c 4c62 bbbb 685e ccbb cd70 41bc
00000270: 4535 8bbc 320a 63bb 7445 8c3c dffb 433c
00000280: 61f4 4cbc ea9b 1c3c 2cae ca3c 2da1 c2bc
00000290: 1113 06bc 9144 88bc ea07 39bd 942e 483d
000002a0: 0893 95bc 8340 16be aadf 20be a881 3b3d
000002b0: d3aa 15be f466 903d 2100 34bc a5df e13d
000002c0: 9f89 e73c 8e11 593d f883 a3ba e0ee 0c3d
000002d0: b337 82bc c9bd b4bd 4cdf 983b 08ea 49bd
000002e0: 189c c33d 0ed9 21bd cae6 9fbe ced5 b2be
000002f0: ecee 093d a5c2 a0be 4811 b23d 6885 6a3d
00000300: 7f33 2c3e ad69 153d 7f13 e13d bd7e 083d
00000310: a57e ab3d 89a9 2b3d e611 abbe 9451 a53d
00000320: ebb6 09bd 242a 54bc 1d6e 2d3c bfaa c6bc
00000330: 366a a93a 38e2 6dbc e012 da3c 4ff6 debc
00000340: aa8b 74bc 601f c93c 7c22 ccbc b847 50bb
00000350: cf01 c4bb 2ec6 9eb8 338e 81bc dd1f 81bc
00000360: 4c85 0cbd 1d6a 30be 88b6 9a3d 8316 58bb
00000370: 5d3c 0abd bb57 37bd 8a9c b03c a13d bc3d
00000380: df56 7a3d 45f0 dabc 6cca 433b eaa0 e4bd
00000390: ba14 a23c f268 173d 806c d7bd 3dfe 44bd
000003a0: 6d18 b03c b822 33bd fa47 44be 1f6d ab3d
000003b0: b63e 073d 6139 65bc d75b f8bd 7d64 d9bb
000003c0: 7ac6 413d 7b08 ee3d 5f1f 20bd 6623 19bd
000003d0: aa17 0fbe 8fa2 debc a0a4 393e f3aa 2fbe
000003e0: f712 48be ec8c 9fbd d689 bfbd 3ba0 a1bd
000003f0: 69e9 e1bd 1327 b3bd c48a babd 3c66 85bd
-0.050803196 0.008335598 0.019247888 0.014609116 -0.011129341 0.029267779 0.013333869 0.005718264
0.008699415 -0.0043052994 -0.008106295 0.009934079 -0.023424802 -0.03233283 0.0022956326 0.0009969057
-0.00048761553 -0.06733018 -0.053721346 -0.024417697 -0.07760477 -0.015943347 -0.03470096 -0.075251915
-0.05114576 -0.038232237 -0.04259138 -0.025606785 -0.060379885 -0.036173563 -0.049734365 -0.007140947
-0.034614515 0.03827541 -0.00027807793 -0.0036170406 0.00017300312 0.012406759 0.0020677203 -0.0033911285
-0.024340473 0.030745449 -0.013769519 0.00022958226 0.02518182 -0.10714204 0.034839943 -0.019820934
0.019919997 -0.009038229 -0.055811476 -0.018584652 0.03426129 -0.0138030145 0.0077545224 0.024688441
0.00038173274 -0.00904616 -0.0022748224 -0.033683423 0.010179042 -0.030518824 0.0022279136 -0.005111357
0.009526782 -0.014436142 -0.024932731 -0.0010490812 0.09010105 0.086023614 0.07683816 -0.008006065
-0.035796795 0.07103144 -0.015696704 0.039059054 0.08072138 -0.01709848 -0.020119447 -0.0005900881
-0.046646614 -0.06859804 -0.121425115 -0.04975484 -0.016672006 0.11835482 0.044827722 0.14149746
-0.019444952 -0.09895477 0.066516854 -0.1899453 0.023842981 0.010137243 -0.08354888 -0.04673666
0.0010268145 -0.08744537 -0.1807238 -0.21105403 -0.06487609 -0.023115272 -0.013250069 0.025425177
0.0019846486 -0.009213215 -0.015214913 -0.0055014803 -0.012004119 0.0026077332 0.023283837 -0.0021377343
0.006672649 0.019218188 -0.007058348 0.011977304 -0.096117996 -0.028201308 -0.02803884 0.03975795
0.026522337 -0.0089524975 0.03589606 0.036984585 0.014242448 -0.036913954 0.028508224 0.017764969
0.0030985258 -0.02919828 0.029063525 0.026417768 0.004493186 0.050014652 -0.129716 -0.0576209
0.0400579 -0.04844316 -0.10605009 -0.018128801 0.011278707 -0.031795982 -0.12159428 0.013672224
-0.029307645 -0.031282295 -0.18812124 -0.10202322 -0.13585815 0.011770907 -0.050528593 -0.017236842
0.011321642 -0.005718505 -0.00623684 -0.011806679 -0.016993174 -0.0034643528 0.017122962 0.011961906
-0.012509436 0.009558657 0.024741255 -0.023758495 -0.008183257 -0.016634258 -0.045173563 0.048872545
-0.018258587 -0.14673047 -0.15710321 0.045777947 -0.14615946 0.07050887 -0.010986359 0.11028985
0.028263865 0.052995257 -0.0012475243 0.034407496 -0.0158957 -0.08825261 0.004665291 -0.049295455
0.09551257 -0.03951364 -0.31230766 -0.34928745 0.03367512 -0.31398502 0.086947024 0.057256132
0.16816519 0.036477733 0.10990047 0.033323992 0.08373765 0.04190973 -0.33412093 0.080722004
-0.03362171 -0.0129495 0.010585335 -0.02425134 0.001292533 -0.014519267 0.026620328 -0.027217058
-0.014925877 0.024551094 -0.024918787 -0.003178103 -0.005981661 -7.570941e-05 -0.015814876 -0.015762264
-0.03430681 -0.17227979 0.07554346 -0.0032972402 -0.033748973 -0.0447614 0.021559019 0.09191442
0.061118003 -0.026725898 0.0029875292 -0.111635044 0.019785274 0.036965318 -0.105187416 -0.048094023
0.021496022 -0.043734282 -0.19168082 0.083704226 0.03301879 -0.013990731 -0.12126892 -0.0066342936
0.047308423 0.11622711 -0.039092418 -0.037387274 -0.13973871 -0.027177123 0.18129206 -0.17155056
-0.19538485 -0.077905506 -0.09352462 -0.0789189 -0.110308476 -0.08747687 -0.09108499 -0.0651364

fc1.bias f4 [128]
00000000: f14c 683f 6980 723f 3862 a93f 88d6 7b3f
00000010: 4865 3c3f cc5c 363f 43a1 933f 61dd 8e3f
00000020: a989 583f 73f0 813f d8c3 533f 0628 863f
00000030: 3654 673f b331 6d3f 00d9 3e3f 31c0 873f
00000040: 403d 503f 274d 853f 8817 653f 84c2 843f
00000050: 14bf 793f e6a3 643f 4fb9 4a3f 210b 5e3f
00000060: 5430 653f a3d0 883f fbe2 303f 3ddf 1f3f
00000070: 69f2 903f fa58 893f b76b 873f c5e7 753f
00000080: 45c4 3e3f 34f9 913f 4f38 753f fd43 703f
00000090: 94ce 963f c19d 503f db33 983f df4e 6d3f
000000a0: e9a5 7e3f 363d 313f aaec 6c3f 08b6 963f
000000b0: f8c0 713f 72b2 a33f 3b1d 393f 4a3a 6f3f
000000c0: ddf9 853f 8184 483f ddcc 833f e9d0 593f
000000d0: 3124 363f 899c 823f fbcd 7d3f ee52 293f
000000e0: 3d86 523f 7369 6f3f 72a9 823f 89ab 633f
000000f0: aeff 393f 3d44 483f 3680 7d3f 5cf7 933f
00000100: 45c3 253f 8a59 7f3f 3200 333f ac98 373f
00000110: 84d9 343f 932c 483f 66c3 773f 772f 713f
00000120: 167c 5a3f d47d 423f 03d6 563f 36ed 743f
00000130: bc6a 913f e1dc 353f 972d 793f 5b19 293f
00000140: 739e 8b3f 632c 8b3f 363a 723f d7e8 7e3f
00000150: 1740 593f ed31 1f3f 1d63 7c3f 5e93 813f
00000160: fb9e 8d3f 5fa0 5b3f 9d9c 893f f4f7 4b3f
00000170: da14 4c3f 6ddc 823f d343 833f d1d4 713f
00000180: 408c 8e3f b419 543f 5895 8f3f 6e24 453f
00000190: 882c 7e3f 84ad 823f 1b63 583f 8177 813f
000001a0: 734a 853f 2aa5 6b3f cc45 063f ae37 9a3f
000001b0: 8011 543f 069f 7c3f dcb7 623f fd04 5e3f
000001c0: 1154 8c3f 2575 8a3f 5279 953f fdec 943f
000001d0: fa3b 713f 4495 5e3f 6624 713f e1cb 323f
000001e0: 80c1 413f 143c 7d3f c9fe 8d3f bcb9 1f3f
000001f0: b616 8e3f f8e9 413f 7bdf 593f b312 813f
0.90742403 0.9472719 1.3233099 0.98374224 0.7359204 0.71235347 1.1533588 1.116131
0.8458505 1.0151504 0.8272071 1.0480964 0.9036287 0.9265396 0.74549866 1.0605527
0.8134346 1.041417 0.8948903 1.0371861 0.9755719 0.8931259 0.7918901 0.8673573
0.8952687 1.0688671 0.69096345 0.6245001 1.1323978 1.0730278 1.0579747 0.9605678
0.74518234 1.1404176 0.95789045 0.9385374 1.1781793 0.81490713 1.1890825 0.9269847
0.9947191 0.69234025 0.9254862 1.1774302 0.9443507 1.2788832 0.7231023 0.9344832
1.0466877 0.78327185 1.0296894 0.85084397 0.71148974 1.0204021 0.99142426 0.66142166
0.8223608 0.9352028 1.0207961 0.88933617 0.7265576 0.78229123 0.9902376 1.1559863
0.6475108 0.99746 0.69922173 0.71717334 0.706444 0.78193015 0.9678253 0.9421305
0.8534559 0.7597325 0.83920306 0.95674455 1.1360698 0.7104016 0.9733519 0.66054314
1.090773 1.0872921 0.9462007 0.99574035 0.8486342 0.62185556 0.98588735 1.0123098
1.1064142 0.8579158 1.075092 0.7967522 0.79719317 1.0223519 1.0255073 0.9446536
1.1136551 0.8285172 1.1217451 0.7700871 0.992867 1.0209203 0.8452622 1.0114595
1.0413345 0.92048895 0.5245025 1.2048242 0.828392 0.9868015 0.885618 0.8672636
1.0963155 1.0817 1.1677649 1.1634823 0.9423214 0.8694651 0.94196165 0.69842345
0.7568588 0.98919797 1.1093379 0.62392783 1.1100681 0.75747633 0.8510663 1.0083832

fc2.weight f4 [64, 128]
00000000: 0030 f5bb 11b5 bfbb 002c e4bb bf29 c639
00000010: bf6b 393b f646 6abb f68d 75bc 2140 afbb
00000020: c3b2 09bc 6078 d0bc f194 50bc b1b3 713b
00000030: efdc bb3a 91f4 5f3c 80f1 8b38 4f9b f4bb
00000040: 8316 a1bb ef55 59bc 18bb 193c 235e 9abb
00000050: b17c eb39 1fa8 aebb c9d2 0cbc a1e6 d1bb
00000060: 5fb5 1cbc 987e 823b 41d0 613b 4172 703c
00000070: 1bad bbbb 4394 18bc 2f64 963b 0fb6 50bc
00000080: fbdd 29bb 1b5c c5bb cf02 73bc 8f10 403a
00000090: 2102 c4bb bfa6 64bc 0f97 733a 8f77 53bc
000000a0: cf5d d0bc 7d0b 0c3b 7fc8 66bc 4126 0dbb
000000b0: 1188 bc3b 489a 0ebc 1f8c 5a3c 519e 03bb
000000c0: 4970 04bc 7fb3 4ebb 28d2 81ba 2fb3 b0bc
000000d0: 27d0 0bba e0b2 0ebc 4a38 aeba f654 b5bb
000000e0: d011 1f3c 63ab 97bc 8f32 05bc 71c4 363a
000000f0: 76b8 c8bb 91e0 5f3c dd6a 14bb 29dc 8bbc
00000100: 3191 dfbc a159 bcbc c0b3 433c 81ce 45bb
00000110: af03 453a 0937 8fbb 7f28 57bc 7f7c c8bc
00000120: 4f24 5939 8f4c 54ba 5075 1bbc 2bae 9abb
00000130: 21b5 7e3c a65b c8bb 4120 40bc 71d0 353c
00000140: 8f21 5a3b 6e54 f5bb 5b52 5c3c e193 eabc
00000150: cff6 e3bb 00f8 92bc 800c 1b3b 9d03 84bb
00000160: 2ea5 753b 5da8 24bc 9239 ee3b 3114 3abc
00000170: cf3b c83a d1e2 0e3c ddbe 0a3b 3fe2 64bb
00000180: f728 86bb 5dba 843c d265 ebbb 71be 973b
00000190: 0594 56bc ff3c 503c db3f 9bbc 9bd2 c1bb
000001a0: b62f 99bb 40d1 63bb e18a 35bc bb56 b93b
000001b0: 611e acbc 29e5 043c d18b d3bb 0ac6 64bc
000001c0: 8fde d4bc cf01 09bc 1d58 023c 6fed a33b
000001d0: 0103 b4bc a3b0 1c3b 4a2c 31bb 2aa2 c83b
000001e0: 91cd 44bc 28c1 16bc 4ffc 973c 6ffe 993b
000001f0: 8f74 653a 31ee a0bc 1fce 173b 4551 4cbb
00000200: 122b e53c 7391 373e 57d2 a83e f4fc 123e
00000210: d2ed ff3d b199 243e 0f37 733e 111b 643d
00000220: 57db 2e3b 0639 dc3c d7a1 483e fdd3 063d
00000230: 3da5 0e3c b8f7 e73d d56a 93bc 0c6a 8b3e
00000240: 831b 253c 3637 263d 4d76 a53e 0896 c33c
00000250: 69dc f63c 524b 1c3e f1ec 243e 60f4 993e
00000260: 04a8 5b3e 84c2 f43c cf8e b5bd 37f6 b13c
00000270: 0a42 b03d 2480 2e3d 7318 1a3d 9157 2a3c
00000280: 00fb 1e3e e147 043e 0136 ba3c dda4 003e
00000290: 85be b03d 6a6e d93c fffb 803e 9d0c a23c
000002a0: 03e8 8e3e 0035 633e 4575 3d3e 9b2d 5a3e
000002b0: 3206 3a3b 0531 193f cf99 793e a619 083e
000002c0: 4cb2 0f3d 6125 0c3e 06ac 163e 6e17 173e
000002d0: 63fe 2c3c 18ad d63c 0ea1 a63c a62d c1bd
000002e0: 69c3 ef3d 0fb6 933c aca5 5d3d eaf7 343e
000002f0: 9dae fb3d 9fd3 a63d dc40 983c aa29 923d
00000300: 9a53 d2bd f6b3 0e3c fb60 303b d4ac 873d
00000310: bdfe 0c3d cc16 eb3d ff32 e63c 0f70 28bc
00000320: 941c dd3d e1f2 d7bc 286b 0c3e 0044 aa3c
00000330: 51ea b43d da7d 203e c3c5 bc3c 0db0 2f3e
00000340: d1c3 323e 170b 5a3d f3c0 403e 1418 ba3c
00000350: dd46 083e 38a3 00be 4397 033d fc0f 103d
00000360: 71d2 a83d a475 5eba dce0 163d 6645 00b8
00000370: 92e3 293e 5a65 143d 8a54 283d 5fae 743e
00000380: e3b3 f13d 7349 253e e4b3 833d 404a 2cbd
00000390: bb8e 083d 1c3c 873e 4a5b 773d 7b60 2c3d
000003a0: 8555 813d cd19 413e 1a92 c23c 013f d13e
000003b0: 648d 723d 4df0 183e bde9 af3d 26ad 273e
000003c0: 93f6 123d 0f89 a33d 8444 bd3d 03fc b33d
000003d0: 65c1 3a3e 36dc 343e 8573 4c3e 662c 0f3d
000003e0: 8842 063d f861 293e d658 593d a950 04ba
000003f0: 16d6 173e 9402 f23d f84f f93c c865 cd3c
-0.0074825287 -0.005850442 -0.006963253 0.00037796606 0.0028292981 -0.0035747862 -0.014987459 -0.005348221
-0.0084044365 -0.025448024 -0.012730823 0.0036880786 0.0014332811 0.013669149 6.6730194e-05 -0.0074648033
-0.0049160137 -0.013265117 0.0093829855 -0.004710929 0.00044915595 -0.0053301 -0.008595177 -0.006405667
-0.009564727 0.0039823763 0.0034456404 0.014675678 -0.005727423 -0.009312692 0.0045895795 -0.012738719
-0.0025919664 -0.0060229427 -0.014832213 0.0007326686 -0.005981699 -0.013955771 0.0009292224 -0.012906923
-0.025435356 0.0021369152 -0.014085888 -0.0021537694 0.005753525 -0.008703776 0.013339072 -0.0020083378
-0.0080834115 -0.0031540093 -0.000990455 -0.021569816 -0.00053334463 -0.008709639 -0.0013291922 -0.00553381
0.009708837 -0.01851434 -0.00812973 0.0006972021 -0.006125505 0.013664381 -0.0022646703 -0.017072754
-0.027290912 -0.022991957 0.011944711 -0.00301829 0.00075155025 -0.0043705744 -0.013132214 -0.024473427
0.00020708259 -0.00080985663 -0.009488419 -0.0047204695 0.015546114 -0.006114441 -0.01172644 0.01109706
0.0033284163 -0.0074868714 0.013447369 -0.028634967 -0.006956912 -0.017940521 0.0023658574 -0.004028751
0.0037482488 -0.010049907 0.0072700465 -0.011357353 0.0015276613 0.008721069 0.0021170892 -0.0034924892
-0.004094239 0.016202146 -0.007183769 0.0046308567 -0.013096814 0.012709855 -0.018951347 -0.0059149987
-0.004674877 -0.0034762174 -0.011080475 0.005656091 -0.02101058 0.008111277 -0.0064558764 -0.013963232
-0.02598503 -0.008362248 0.007955578 0.0050026695 -0.021974089 0.0023908995 -0.0027034455 0.006122847
-0.0120119015 -0.0092013255 0.018552927 0.0046995203 0.00087530253 -0.019644829 0.002316363 -0.003117637
0.02797464 0.17926578 0.32972977 0.14354306 0.124965325 0.16074254 0.23751472 0.055689875
0.002668103 0.02688266 0.19592987 0.03291701 0.008706388 0.113265455 -0.017995277 0.27229345
0.01007736 0.040579997 0.3231682 0.023875251 0.030134397 0.15263107 0.16106011 0.30069256
0.21450812 0.029877909 -0.08865129 0.02172385 0.08606346 0.042602673 0.037620973 0.010396854
0.15525436 0.12918045 0.02273083 0.1256289 0.08630089 0.026541907 0.25192258 0.019781405
0.27911386 0.22188187 0.18501766 0.2130646 0.002838504 0.5984042 0.2437508 0.13291034
0.035082147 0.13686134 0.14714059 0.14755031 0.010558697 0.026205584 0.020340469 -0.09432535
0.117071934 0.018031148 0.054113075 0.17672697 0.12289164 0.08145832 0.018585615 0.07136853
-0.10269852 0.008709898 0.0026913274 0.06624761 0.034422625 0.114789575 0.028100489 -0.010280623
0.107964665 -0.02636093 0.13712752 0.020784378 0.08833755 0.15673009 0.023043519 0.17157002
0.1745751 0.053233232 0.18823604 0.02271656 0.13308282 -0.12562263 0.032126676 0.035171494
0.082432635 -0.0008486158 0.036835536 -3.058221e-05 0.16590717 0.03622947 0.041096248 0.23894642
0.11801889 0.161413 0.06430796 -0.042062998 0.033339243 0.26413047 0.060389794 0.0420842
0.0631514 0.18857498 0.023751307 0.4086838 0.05921687 0.14935417 0.08589504 0.16374645
0.035879683 0.07985126 0.09241584 0.08788302 0.18237837 0.17662129 0.19965942 0.03495445
0.032778293 0.16541278 0.053063236 -0.00050474197 0.14827761 0.11816898 0.03043364 0.025072947

fc2.bias f4 [64]
00000000: 9161 bfbb 66ef 8b3f ada9 8d3f 3b0d 683f
00000010: fc63 863f 9fc7 793f c544 023f 33bd 833f
00000020: db45 843f 3b1d 4ebc fd65 7d3f bf39 19bc
00000030: d806 6d3f f356 863f 3ea6 843f e3ed 8b3f
00000040: 97f7 7f3f b6d5 cfbb 1624 713f e96f 7a3f
00000050: df5a 813f 4c2a 873f da84 5d3f f16a 9e3a
00000060: b47a 8c3f 8176 943f 1c06 d13d af78 89bc
00000070: 1616 873f 777d 8e3f 4c1d 8b3f 149b cf3e
00000080: 385f 7e3f e941 803f 8a44 873f c0f4 743f
00000090: af6c 8d3f d790 7d3f 2321 883f dc89 29bc
000000a0: 71df 883f 014a d03b 5cd1 8e3f f3da 833f
000000b0: 470a 843f 2622 7b3f 0c3e 7e3f 21ef 8cbc
000000c0: b30d 733f dc32 833f 6302 88bc e687 7c3f
000000d0: 9384 903f e548 8c3f efbc 063f 6c68 923f
000000e0: ca2a 50bf 720b 803f 14fb 6d3f 2f78 ddbc
000000f0: 5e2a 8e3f 0450 833f 5350 8f3f c194 873f
-0.0058404882 1.0932434 1.1067406 0.9064519 1.0499263 0.9757022 0.50886184 1.0292114
1.0333818 -0.012580211 0.98983747 -0.009352147 0.9258857 1.0495285 1.0363233 1.0931972
0.9998717 -0.006342615 0.9419569 0.9782701 1.0105857 1.0559783 0.8653084 0.0012086314
1.0974946 1.1598665 0.102062434 -0.01678118 1.0553615 1.1132039 1.0868316 0.40548003
0.9936404 1.0020114 1.0567791 0.9568596 1.1048793 0.99049133 1.0635113 -0.01034781
1.0693189 0.006356478 1.1157641 1.0301193 1.0315636 0.9809898 0.99313426 -0.01720387
0.9494278 1.0249896 -0.0166027 0.98644865 1.1290458 1.0959746 0.5263204 1.1438117
-0.8131529 1.0003493 0.9296124 -0.027034847 1.110668 1.0258794 1.1196388 1.0592271

fc3.weight f4 [10, 64]
00000000: b6d2 a73c a552 133e 1c7b 383e a368 af3d
00000010: ae31 0b3e 4a62 bb3d bd25 eebd 80ac fe3d
00000020: 987d 043e df32 f03a 92ad d73d 610b c0ba
00000030: bdcb 963d 0353 eb3d 3351 ef3d 4aa9 073e
00000040: 9f96 b53d 80ad 093c 8c66 a13d a3d3 a63d
00000050: b2ab b63d 24cb f13d 6ffa 1e3d 2f42 433c
00000060: 7189 243e 51f8 1d3e 58ca 8cbc 0a06 3d3b
00000070: ee91 133e 9ce1 ee3d c11a 013e 582e 89bd
00000080: daac d73d 2986 c73d f8b2 073e cfbd e93d
00000090: 8abd 243e ae7c c03d 4e5c 263e d791 d43b
000000a0: b70f 203e 3b88 d4bb 728f 1f3e dc22 d73d
000000b0: 1880 0e3e 8107 b63d 8ab9 8f3d 6fcb 0a3c
000000c0: 097b cb3d b936 8b3d 01a5 923c 4856 f43d
000000d0: 86bf 3b3e 31a3 123e 110b 83bd dbdd 9c3d
000000e0: c5bf cbbd fba4 033e 618c 683d 5186 613c
000000f0: d2f9 063e 84e8 ea3d a130 0e3e fa85 123e
00000100: df22 683c e151 9c3d d15e dd3d 9119 d93d
00000110: e001 b63d 6115 903d 015d fa3b bf10 d63d
00000120: 81ce 893d b147 de3c b15d 703d b153 813b
00000130: 6802 863d c0d2 c23d e336 973d 51fc d13d
00000140: 2632 a93d 9800 0b3d 417c f13d 3855 9b3d
00000150: 6139 453d 4043 f73d 0f36 bb3d 7a60 22bc
00000160: a3bd 063e 4030 e23d 2f25 8dbd ef17 12bb
00000170: d1ef bc3d 61cd f33d f165 c53d 618b e03c
00000180: f6f9 a33d 2180 863d 31d7 8a3d 71c5 743d
00000190: 8f48 963d 5956 803d 635d 823d bf05 013d
000001a0: 5d12 953d 0137 e73b 5a8f a23d bbdb 333d
000001b0: c064 c33d af0c a43d 762b b13d b9a6 8cbc
000001c0: b6ac 713d 52a5 e83d af44 d1bb 110e 9b3d
000001d0: 414d 813d eaa1 1b3e 3d02 0aba cafb 133e
000001e0: af32 3d3d bf6e be3d 11eb 3b3d 431b 05bd
000001f0: 775e 043e f18d 753d 9112 d43d b1c6 a03d
00000200: d276 f4bc 6fc5 d03d c06a d33d ff6b 713d
00000210: 8ab9 a33d 8589 aa3d 91a3 253d 7fea ac3d
00000220: ef86 883d 71ca ac3b af62 5e3d 4f5c a63c
00000230: 4f1a 4d3d 80ca 953d e351 203d 2fac cb3d
00000240: 77bf 883d 0f8d a9bb e0e9 953d a01b 953d
00000250: a05c 953d fb88 c13d 771d 853d 3f95 18bc
00000260: 3f30 fc3d 56b7 9b3d 31e9 7fbd d9f1 823a
00000270: 7fbc dc3d ee48 f93d bfe7 c63d 0705 0b3d
00000280: 05eb ae3d 0fc9 b23d 6e7b 693d c5fb aa3d
00000290: f12c 463d 6020 b83d efdc af3d 4a03 c2ba
000002a0: 1f15 b53d 4f47 393b 8702 913d af48 4b3d
000002b0: 80eb e53d cadb 683d 6062 bf3d 7b55 b0ba
000002c0: af47 aa3d cff0 ee3d d187 c439 c0ce b73d
000002d0: c837 813d 20fd c23d 20e1 193c 5ab4 2b3e
000002e0: 8708 893d 6fca 9a3d 8a8f 7d3d c183 ab3c
000002f0: f10d cd3d 6e1e 573d e018 a43d 8136 a83d
00000300: f1fc 203c f1fe e03d 012f a53d 2484 aa3d
00000310: 2001 763d 1195 9e3d 9fa6 bb3c 6c39 c43d
00000320: 0c27 933d caba 9d3b d4d2 b33d d1cf 9c38
00000330: 231b ab3d 66d7 7e3d 1d3f 933d 6654 f13d
00000340: d613 df3d 5a92 a8bb d458 ac3d bb64 993d
00000350: ed42 983d 8002 d93d 64ad ad3d 31c2 a2bc
00000360: ed0a bc3d 5719 cf3d 868d 7fbd fb6d 273c
00000370: cf93 b13d 1c2e 223e e5c3 6f3d 6054 413d
00000380: 7be3 a73d 8839 cf3d 5c66 bb3d b68a b03d
00000390: e41b ac3d 3cdc 8e3d e59a c33d 630e a43b
000003a0: ac41 a23d 008e 96bb ba90 a53d 1b51 3d3d
000003b0: cfaa 9d3d e5d3 8f3d 6974 fe3d a014 89bb
000003c0: 6c47 723d bf64 d33d 2094 a33b 6dfc a83d
000003d0: e414 5b3d 1b89 863d a322 143c 9cc2 ea3d
000003e0: 21b3 ed3d 5ff3 ad3d 523b 6b3d 3164 473c
000003f0: c629 053e e3e8 553d 5819 a33d 3db6 d43d
0.020486217 0.14386995 0.18015712 0.0856488 0.1359317 0.091496065 -0.11628292 0.124352455
0.12938535 0.0018325708 0.10531153 -0.0014651829 0.07363079 0.114904426 0.116854094 0.13248172
0.08866619 0.008403182 0.078808874 0.08145835 0.08919467 0.11806324 0.03881305 0.011917635
0.16068055 0.15426756 -0.017186329 0.002884271 0.14411137 0.11664125 0.12607862 -0.066982925
0.10531016 0.09742386 0.13251865 0.11413156 0.16087928 0.09398781 0.16246149 0.006487112
0.15630995 -0.0064859665 0.15582064 0.10504696 0.13916051 0.0888815 0.07017811 0.008471354
0.099355765 0.06797547 0.017900946 0.11930519 0.18334779 0.14320065 -0.06398595 0.07659503
-0.099486865 0.12855904 0.0567745 0.013764934 0.13181236 0.1147013 0.13885738 0.1430892
0.01416847 0.07632805 0.108091004 0.106005795 0.088870764 0.07035328 0.0076404815 0.10452413
0.067288406 0.027133795 0.0586831 0.0039467444 0.06543428 0.095128536 0.07383516 0.10253204
0.08261518 0.033936113 0.11791278 0.075846136 0.048150424 0.12073374 0.0914117 -0.009910697
0.13158278 0.11044359 -0.06891858 -0.0022292098 0.09225429 0.11904407 0.096385844 0.027410211
0.08006661 0.065674074 0.06779326 0.059758607 0.07338058 0.062664695 0.06365468 0.03149962
0.07278893 0.0070561175 0.079374984 0.043910723 0.09540701 0.08010232 0.08650868 -0.017169343
0.0590026 0.11359657 -0.0063863616 0.07571042 0.06313563 0.15198484 -0.0005264616 0.14451519
0.046190914 0.09298467 0.045878474 -0.032496702 0.1292666 0.05994982 0.10355104 0.078503974
-0.029841814 0.101939075 0.10323095 0.058940884 0.07994373 0.08327011 0.040439192 0.08443164
0.066663615 0.0052731563 0.05429333 0.020307688 0.050073918 0.073140144 0.039140593 0.09944951
0.06677144 -0.005174286 0.07319999 0.0728066 0.072930574 0.09449955 0.064997606 -0.009312927
0.1231389 0.07603328 -0.062478248 0.0009990289 0.1077814 0.12172113 0.09712171 0.03394034
0.0854092 0.08729755 0.057002477 0.083488025 0.048382703 0.0899055 0.085870616 -0.0014802006
0.08841919 0.0028271263 0.0708056 0.049629863 0.11226559 0.056850232 0.093449354 -0.001345321
0.08314454 0.11667024 0.00037485224 0.08974981 0.063094676 0.09520936 0.009392053 0.16768017
0.066910796 0.075581424 0.061904468 0.020936849 0.10012425 0.052519254 0.08012557 0.08213521
0.009825931 0.10986126 0.08065606 0.08325985 0.060059667 0.07743276 0.0229066 0.09581265
0.07185182 0.0048135268 0.08780447 7.4773685e-05 0.08354785 0.06221714 0.07189772 0.11783676
0.10892455 -0.0051443996 0.0841538 0.07489916 0.0743464 0.1059618 0.08480337 -0.019867988
0.091817714 0.10112255 -0.062390827 0.0102190925 0.086707704 0.15837902 0.05853643 0.047199607
0.08197685 0.10118395 0.09150383 0.08620207 0.08403757 0.069756 0.09551028 0.005006598
0.07922682 -0.0045945644 0.08084245 0.046219926 0.07698595 0.070228375 0.12424547 -0.004183367
0.059150144 0.1032195 0.004992023 0.082512714 0.05348672 0.065691195 0.009041461 0.114629
0.11606432 0.08493685 0.05742962 0.012169884 0.13004217 0.05222405 0.07963818 0.10386322

fc3.bias f4 [10]
00000000: b7df b33f fa3b df3e 5f2a e23e 241a 823e
00000010: 46bf f63e c3f4 9f3e cec9 af3e 23d0 a93c
00000020: 2475 0e3f f623 c73e
1.4052647 0.43600446 0.44172952 0.2541057 0.48192805 0.31241426 0.34333652 0.02072913
0.5564749 0.38894624
