models/DQN_dist.pth (torch, 64043 bytes, 6 tensors)

fc1.weight f4 [128, 50]
000000 e4 33 9e be e8 2b 6a be cf 0d cc be 5a 58 43 be
       -0.30898964 -0.22868311 -0.39854285 -0.19076672
000010 e2 46 94 be f3 3b 3d be 9c 31 cf bd e8 93 8f be
       -0.2896033 -0.184799 -0.10116884 -0.2804253
000020 66 03 e2 be 2d 44 44 be f2 ef 1d be 4e bb 11 be
       -0.44143218 -0.19166632 -0.15423563 -0.14231607
000030 2b b5 0f bd 70 7c 8a bd 11 55 22 3d e4 8b 04 3e
       -0.035084885 -0.06762016 0.039631907 0.12943989
000040 2e 3e 5f 3d 1f aa 00 3d 29 31 9a be 3f c9 50 3e
       0.05450266 0.03141224 -0.3011563 0.2038927
000050 a2 9d 51 3e f2 ea 78 3d da 3a 43 bd fb 51 3b be
       0.20470288 0.060770936 -0.047663547 -0.18292992
000060 4e 3b 87 3d 92 8d bb 3c c2 10 2f be 05 35 f3 3c
       0.06603108 0.022894654 -0.17096236 0.029688368
000070 e9 90 53 3e 1b 63 5f 3c bc 7e 0b be 02 f1 07 be
       0.20660748 0.013634468 -0.13622564 -0.13275531
000080 92 e9 c9 be 82 c6 8f bc f9 28 9f 3d 82 8f ae 3b
       -0.39436013 -0.01755071 0.07771487 0.005327166
000090 74 03 58 bb a2 c8 25 be 4a 51 3a bc f9 77 79 bd
       -0.0032961043 -0.16189817 -0.01137192 -0.06090543
0000a0 cd 98 48 3d fc b7 cb bd 56 97 bb bc 4d e7 83 bd
       0.048973847 -0.099472016 -0.022899311 -0.064406015
0000b0 59 04 25 be 56 91 03 be 1c 90 32 bd 36 00 c5 bd
       -0.1611494 -0.1284841 -0.043594465 -0.09619181
0000c0 c9 61 89 be 55 79 86 be d6 9f 02 be 33 34 1e bd
       -0.26832417 -0.26264444 -0.12756285 -0.038624
0000d0 b2 5a 22 bd 9b a4 22 be 83 43 9e 3d 78 24 8f bd
       -0.039637275 -0.15883105 0.077277206 -0.06989378
0000e0 8d 9a 68 bd 2a bf fc bd 91 be ed 3d 59 73 78 bd
       -0.056788016 -0.12341149 0.11608613 -0.06065688
0000f0 9c bd 8b 3d 9a b1 9d bd 7c ff e6 bd cb dc 29 bc
       0.068232745 -0.076998904 -0.112791985 -0.010367583
000100 40 82 e6 bd bb bb 27 3d fa fb a9 bd 17 ab 4d bd
       -0.11255312 0.040950518 -0.08300014 -0.050211992
000110 d4 7c 8e 3e 18 90 13 3d f5 d1 e1 3d 6a 66 6e bc
       0.2782961 0.03602609 0.11026374 -0.014550785
000120 0f 1a 0b bd 44 72 03 be 33 97 31 bd c6 52 c0 bd
       -0.0339604 -0.12836558 -0.043357085 -0.09390788
000130 6e dd 63 bc 81 0f 53 3d 0e cd 0e 3d 1e 1f a6 bd
       -0.013907773 0.051528458 0.034863524 -0.08111404
000140 39 2e cc 3d 8f 67 33 3d 61 13 1c 3e a6 01 7d bd
       0.09969754 0.043799933 0.15241767 -0.06176915
000150 5b ed dc bd 6a 7c 25 3d 39 e5 21 3d b4 ff 82 bd
       -0.107874595 0.040401854 0.039525244 -0.06396428
000160 59 5d de 3c ef 87 1d 3e 00 ee 61 3d e6 c0 2f 3d
       0.027144121 0.15383886 0.055158615 0.04290857
000170 f6 ab 48 3d 7d 77 83 bc 79 16 4c 3e 5d b2 5f be
       0.04899212 -0.016048187 0.19930448 -0.21845384
000180 02 bf b7 3d 88 2a b2 3d 76 19 f9 bc 82 ef 11 bf
       0.08971979 0.086995184 -0.030407649 -0.57006085
000190 66 6d 3b 3d 9e ac 9b bd 01 79 f9 3d 0d 54 8a bd
       0.045758627 -0.076012835 0.12181283 -0.06754313
0001a0 9d b0 7e bc 01 6e 15 3d 77 a8 e5 3c b6 d0 92 bc
       -0.015545038 0.03648186 0.028034432 -0.017921787
0001b0 ec e2 2e bd fd af a1 3d 6a 35 83 bd bd c8 38 bc
       -0.04269688 0.07894895 -0.06406672 -0.0112783285
0001c0 62 4a b6 bb 98 7b 0c 3d 7a 30 55 bc 1a ae fa 3c
       -0.0055630663 0.034297556 -0.013012046 0.030600596
0001d0 52 2c 6e bf 99 d3 83 bd 04 90 e8 be c2 d0 30 bf
       -0.9303638 -0.064368434 -0.45422375 -0.6906854
0001e0 c7 50 fb be e3 3a 61 bf 17 fd dd 3d 82 ac 35 bf
       -0.49085066 -0.8798048 0.10839289 -0.7096635
0001f0 e0 fa e3 be c8 9c 54 bf bf c7 4f be 46 f1 87 bf
       -0.4452734 -0.8305173 -0.20291041 -1.0620506
000200 d8 4b ac be 89 3b 79 be d4 1c 06 bf 14 d0 93 bf
       -0.33651614 -0.24339117 -0.5238774 -1.1547875
000210 ab f7 fc be d3 06 83 be ba 07 60 bd 64 a5 ab bd
       -0.49407706 -0.25591144 -0.05469487 -0.08381155
000220 a3 d4 99 be a0 ff b6 3c 7d bd 3c be 29 57 34 be
       -0.3004504 0.022338688 -0.18431659 -0.17611374
000230 53 f4 a7 3c 36 ce d5 bc 61 e5 c7 bc cc f2 2f bc
       0.020502245 -0.026099306 -0.024401369 -0.01073904
000240 9d 47 15 3d a0 32 c2 3d ed db eb bd 2f 55 da 3d
       0.03644525 0.09482312 -0.11516557 0.10660779
000250 7b 22 ab be d5 4f 3a be 71 c3 29 bd df 60 82 bc
       -0.33424744 -0.18194516 -0.041446153 -0.015915332
000260 36 32 92 bd 75 76 fb bd cb 1c 6d bd 95 ae f4 bd
       -0.07138483 -0.12278453 -0.057888787 -0.119473614
000270 ed aa 33 be 4c a7 84 bd 86 33 93 3d 24 94 75 3d
       -0.17545672 -0.06477222 0.07187562 0.05995573
000280 ef f2 1d bd 2e d0 d2 bd 4b ed b4 3d 6f a5 a9 bd
       -0.038561758 -0.102936134 0.088343225 -0.08283507
000290 9f da 09 3e e5 9f 86 3d af 53 0f bc f3 bc 5b 3d
       0.13462304 0.06573466 -0.008747979 0.053646993
0002a0 2c 1b 8b 3d 12 8f 6d be 33 e3 f6 3d 26 2f 86 bd
       0.06792292 -0.23199108 0.120550536 -0.065519616
0002b0 9b 30 fc bc 15 4f d3 bd aa 29 42 be fc c9 1b 3d
       -0.030784896 -0.10317818 -0.18961206 0.038034424
0002c0 7f 61 81 bd b1 c5 eb bd 4a 6d 08 be 78 93 b8 3d
       -0.06317424 -0.11512316 -0.1332294 0.090125024
0002d0 8b 0e 53 3e 10 f8 df 3d 45 3c e0 bc 24 c4 c3 bc
       0.20611016 0.10935986 -0.027372489 -0.023897238
0002e0 06 93 d9 ba 6d 9f 3b 3d e6 e5 29 be 79 10 cf bd
       -0.0016599603 0.045806337 -0.16591606 -0.10110564
0002f0 be 42 43 bd 38 c5 d2 3b 2c 03 15 3e 97 e9 9a 3d
       -0.047671072 0.0064322017 0.14551991 0.07564085
000300 fa 73 56 be 58 0e ab bd d3 77 73 be 80 30 85 3b
       -0.20942679 -0.08352345 -0.23776178 0.0040646195
000310 af 88 f3 3d e3 6c 09 bd 40 f8 b5 bd f3 59 d0 bd
       0.11891305 -0.033551108 -0.088852406 -0.101734065
000320 f8 1b 04 be c2 f7 e7 bd 3e 4b 37 bd ad c7 48 bd
       -0.12901294 -0.11326553 -0.04474949 -0.04901855
000330 a6 9b 4b bd 85 4b 9c bd 7e d4 31 be 41 24 8c be
       -0.049708985 -0.07631592 -0.17366216 -0.2737141
000340 a4 c5 dc bd d9 22 7a 3d a5 95 1d be e5 d7 1a bd
       -0.107798845 0.06106839 -0.15389116 -0.03780355
000350 ad d8 05 be ce 7e 0c bc d1 2c f6 bd 3f 50 51 bb
       -0.13070937 -0.0085751545 -0.12020267 -0.00319387
000360 60 e2 1e be f4 e9 3d 3d 85 51 55 3a cd be 25 be
       -0.15516043 0.046365693 0.00081374525 -0.16186066
000370 b7 22 7c bd 67 95 1d bc aa 69 fc bb db f2 d1 bd
       -0.061556544 -0.00961814 -0.007703026 -0.10251399
000380 aa f6 0e 3e 56 33 6e bb 3b ef 81 3d 73 bd 9e 3d
       0.13961282 -0.0036346517 0.06344458 0.07750978
000390 76 b2 96 3a 1b 03 6e be 54 49 2f 3e 3f 99 b1 3d
       0.0011497277 -0.23243372 0.17117816 0.086718075
0003a0 b3 71 11 be 02 02 3a 3e 15 16 d3 bd c8 25 96 3c
       -0.14203529 0.18164828 -0.10306946 0.018328562
0003b0 34 06 97 bd c4 26 bf 3d 62 98 33 3c 7b ff a6 3d
       -0.0737423 0.09333566 0.010961624 0.08154198
0003c0 a8 22 4c bd 75 b2 44 be a2 e2 43 3d 42 d0 e2 3d
       -0.04983774 -0.19208701 0.047823556 0.11074878
0003d0 ce 1e db 3c ee be 26 3e ff e3 71 3e 31 2e cf 3d
       0.026748087 0.16283771 0.2362213 0.10116232
0003e0 e6 15 3c be 21 d4 ed 3d f3 12 01 3c 43 81 4b be
       -0.18367729 0.11612726 0.007878053 -0.19873528
0003f0 07 f1 57 bd b8 93 7b 3c 09 fd 3f bd 42 21 d4 bb
       -0.052720096 0.015355043 -0.046872173 -0.006473691

fc1.bias f4 [128]
000000 9a 27 fe 3e fd 05 5a 3f 91 b5 30 3f d9 87 0a 3f
       0.4963959 0.8516539 0.6902705 0.5411354
000010 12 b6 44 3f 0c 9d b0 3e bc e7 cd 3e 10 cd 4f 3f
       0.7684032 0.34494817 0.40215862 0.81172276
000020 1f a6 db 3e f7 bb 51 3f a4 80 18 3f 20 c9 e5 3e
       0.42900178 0.81927437 0.5957129 0.4488001
000030 9f 91 81 be 2f c7 6b 3f de e9 43 3f 13 71 f5 bd
       -0.25306413 0.92100805 0.7652873 -0.11984458
000040 d8 bd ac 3e bb 5a 12 3f 05 12 a4 bd 92 9b 3d 3f
       0.3373859 0.57169694 -0.080112495 0.74065506
000050 e3 a4 85 3f 8f 58 40 3f 30 e6 48 3f 34 10 91 3e
       1.0440944 0.7513513 0.7847624 0.28332675
000060 a4 d1 30 3f d9 69 10 3f 1f ff 00 3f 6f cb 5e 3f
       0.69069886 0.5641151 0.50389284 0.87029165
000070 ab 72 7b be e9 b1 d4 bd 99 23 d6 be 9c f7 07 3f
       -0.24555461 -0.10385496 -0.41824034 0.53112197
000080 a5 5d 00 bf 4e 25 bf 3e 2a 61 11 3f 8e dd 58 3f
       -0.5014289 0.3733315 0.56788886 0.84713066
000090 9e d0 ab 3e a9 86 5e 3f 8e f8 2d bf 41 6c d3 3e
       0.335576 0.86924225 -0.6795739 0.4129353
0000a0 21 0f e9 3e 67 d1 70 3f a1 82 bd 3e 8c 21 51 3f
       0.45519355 0.9406952 0.37013724 0.81691813
0000b0 9f 45 87 bd 08 79 90 3e c8 dd dc 3e c1 45 31 bd
       -0.06605076 0.2821734 0.43137956 -0.043279413
0000c0 07 d6 b8 be 22 2f 4a 3f b5 f8 24 be fe a5 75 3f
       -0.3610079 0.7897817 -0.16110499 0.9595641
0000d0 0f e1 e5 3e 7e f8 e4 3e 12 ad 6d 3f 68 c1 14 3f
       0.4489827 0.44720834 0.9284221 0.58107615
0000e0 5c 68 50 3f 42 fd 4a 3f b8 55 f4 be 07 64 3f 3f
       0.8140924 0.7929269 -0.47721648 0.74762005
0000f0 06 8f 67 3f 28 6a 27 3e 70 69 84 3f 27 79 7a 3f
       0.9045261 0.16349089 1.0344677 0.97841114
000100 71 c8 dd 3e da e1 06 3f ba 7e 83 3f 2f 1f 91 be
       0.43316987 0.5268837 1.0273049 -0.28344104
000110 82 52 20 bf a0 43 f0 3d 72 ad 83 3e b9 fb 18 3f
       -0.62625897 0.117316484 0.25718266 0.597591
000120 a3 7f 79 3f ca 68 46 3f d0 42 1d 3f c1 c8 f2 be
       0.97460383 0.77503645 0.6143007 -0.47418788
000130 b6 fc 57 3d 9c 6a f4 3e 48 e3 69 3f f1 58 39 3f
       0.05273124 0.47737586 0.9136243 0.7240134
000140 60 ad 7f 3f bd 50 61 3f 15 6a d3 3e 17 35 10 3e
       0.99873924 0.8801382 0.41291872 0.14082752
000150 17 9d 7f bf 5d e5 50 3f 28 f9 33 3f ad 3c 81 3e
       -0.99849075 0.8159998 0.7030206 0.25241604
000160 2d 2c f4 bc ea b3 b1 3c 9f d9 df 3e cf 5d 2b 3f
       -0.02980622 0.021692235 0.4372072 0.66940016
000170 9c 7f 30 3d c8 f6 30 3f 2d 90 54 3f 86 bf e4 3e
       0.043090448 0.6912656 0.83032495 0.4467737
000180 70 bf 64 3f d1 e8 bb be 40 95 49 3f 3e 2d 1f 3f
       0.8935461 -0.36701062 0.7874336 0.6217841
000190 91 86 14 bd c7 8e 2c bf 7a f2 6c 3f eb 80 1d bf
       -0.036261145 -0.6740536 0.9255749 -0.6152484
0001a0 4f 2c 3f 3f 05 5c 65 3f 30 f4 87 3f 21 e3 d0 3e
       0.74676985 0.89593536 1.0621395 0.40798286
0001b0 a6 a8 72 3f 15 57 9f 3d 2a fd 51 3f f6 7e 4c 3f
       0.9478859 0.077802815 0.8202692 0.79881227
0001c0 d2 1d 71 be 85 42 5f 3f 91 6b 61 3f fb cb 44 3e
       -0.23546532 0.87210876 0.8805476 0.19218437
0001d0 c8 ec d2 3e 92 ac c6 be 17 b6 5b 3f b2 11 80 3f
       0.41196275 -0.38803536 0.8582472 1.00054
0001e0 c7 52 42 bf 02 53 97 be 6c 42 06 3f 93 79 48 3f
       -0.7590756 -0.29555517 0.524451 0.7831051
0001f0 9a 77 00 3f 17 12 78 3e 59 6e 73 3f 40 81 ff 3e
       0.501825 0.2422565 0.9509025 0.49903297

fc2.weight f4 [64, 128]
000000 e6 6d 8e 3e 56 49 b0 3d 44 2c 81 3e 80 63 06 bd
       0.2781822 0.08607738 0.25229084 -0.032809734
000010 05 47 83 3e 51 2a 02 bd b4 69 28 bd a0 b7 d7 3d
       0.2564012 -0.031778637 -0.04111643 0.105330706
000020 db b4 3e 3d 4c e4 1d 3d 1f 25 21 3e 37 59 7d bd
       0.046559196 0.0385478 0.15736817 -0.06185266
000030 bf bf 62 be 1f 5a 56 3d ef 1c 5d 3e 7d 59 cb bd
       -0.22143458 0.05233204 0.21593069 -0.09929178
000040 81 1b 15 3d 53 24 bc 3e 54 ce c0 3d 78 a8 34 3e
       0.036403183 0.36746463 0.09414354 0.1764239
000050 99 5d ef 3d 11 66 7c 3e e8 a5 19 3e 4e 6e 07 bd
       0.11687774 0.2464831 0.15004694 -0.03306418
000060 77 eb 8a 3d 26 eb 95 3b da c0 3f 3e e0 87 37 3e
       0.067831926 0.004575151 0.18725911 0.17922926
000070 af 8c 12 be a6 8d 29 3d fc ee b3 bd ed 4e a5 bd
       -0.14311479 0.041394852 -0.08785817 -0.080716945
000080 2e 58 0f be 72 23 41 3b 31 07 14 3d 98 da 25 3e
       -0.13998482 0.002947059 0.03613967 0.16196668
000090 e9 1a 82 bd 60 c2 8b 3c 19 02 ce 3d ad 23 af 3e
       -0.06352789 0.017060459 0.10058994 0.34206906
0000a0 59 c5 5b bd d6 6e fc 3d d6 65 29 bd 32 b3 3a bd
       -0.053655002 0.12325828 -0.041356884 -0.04558105
0000b0 f3 66 a8 3d 5d 89 a6 3e ad 99 3a 3e 7a de fa 3c
       0.08222761 0.32526675 0.18222685 0.030623663
0000c0 d5 64 2f bd 54 6a b1 bc 18 ad e3 bd 10 ff b5 3d
       -0.04282077 -0.021657147 -0.111169994 0.0888654
0000d0 27 2e 85 3e a8 3e 17 3e 03 cf f0 3d cb 44 5b bd
       0.26011774 0.14769995 0.11758234 -0.053532403
0000e0 57 21 a5 3e 84 b7 5f 3e b5 5e 46 3c 95 61 fb 3c
       0.32252 0.2184735 0.012107541 0.03068618
0000f0 63 7d f7 3c d8 70 ea 3d 8a 5f bc 3e 15 86 c4 3d
       0.030211156 0.114473045 0.3679164 0.095958866
000100 00 b0 e3 bd fd 87 5c 3e 2d 8d d4 3d f3 83 e5 bd
       -0.11117554 0.2153625 0.1037849 -0.11206808
000110 48 ca 7c 3b 09 90 d5 bc 60 56 19 bc fa f0 df 3e
       0.0038572717 -0.026069658 -0.009358972 0.43738538
000120 11 d1 4a 3e 4a 0f 01 3e b3 56 08 3d b2 0a 7b bd
       0.19806315 0.12603489 0.033285808 -0.061289497
000130 59 7a af bb 75 76 d9 3d bc 61 a7 bc 29 22 dd 3d
       -0.005355161 0.10618297 -0.020432346 0.10797531
000140 e4 b2 5e 3e 87 62 1f 3e dd 64 c1 3d 45 43 fe 3c
       0.21747929 0.15564929 0.09443066 0.031037936
000150 4b 4b 79 bd 57 2f 8a 3e db 7c 75 3d c2 b0 a1 39
       -0.06086282 0.26989242 0.059933525 0.00030840008
000160 92 28 8b 3c c9 cb 0c 3d 96 1d 48 bd 0f a6 a2 3d
       0.016987119 0.034374032 -0.04885634 0.079418294
000170 69 46 a0 bc d6 5b f8 3e bb 1e 41 bb 41 b0 ec 3d
       -0.019564824 0.48507565 -0.002946778 0.11557055
000180 09 a8 24 3e 71 51 eb 39 98 c6 0a 3e b1 e5 fb 3d
       0.16079725 0.0004488337 0.1355232 0.122996695
000190 c0 0b 4c 3c 65 55 b8 3b ce 57 3c b8 db 26 ec bc
       0.012453973 0.005625414 -4.4904467e-05 -0.028827121
0001a0 49 b8 07 3e d1 0b 40 3e 16 9e f0 3c 83 45 83 bd
       0.13253893 0.18754508 0.029372256 -0.06409743
0001b0 41 2d 00 3e 6e 09 c2 bd b4 3e b0 3c d8 d5 88 3b
       0.12517263 -0.09474455 0.021514274 0.004175883
0001c0 89 dd b3 3d 40 7f f8 3d c9 43 0a 3d 33 9c 50 bd
       0.08782489 0.12133646 0.03375605 -0.050930213
0001d0 3c 48 58 bb 5c 70 02 3c 4a 4b e9 3d 57 c1 6b 3e
       -0.003300204 0.007961359 0.113913134 0.23022972
0001e0 fb ad a4 bd e0 30 6f 3c 5d a9 03 3e f0 5c 1b 3e
       -0.08040997 0.014599055 0.12857576 0.15172172
0001f0 64 8d d7 3b 63 e4 e5 3d 3c cd 8e 3d 6c 19 33 bd
       0.0065781344 0.11225202 0.06972739 -0.043725416
000200 69 a7 41 bc 3a 81 8c bd 7c ae 1e 3e 97 cd fd 3c
       -0.011819699 -0.068605855 0.15496248 0.030981822
000210 83 dd d7 3d ac b2 c7 3d 84 7b 9b bd 78 2b 9d 3d
       0.10540297 0.09750876 -0.07591918 0.07674307
000220 59 02 c5 3d 22 4d 92 3c 27 96 2c 3e 73 7c 84 be
       0.096195884 0.017859045 0.16854154 -0.25876197
000230 92 8a 6b bd e5 75 4b 3d 93 34 15 3e c2 15 a9 bd
       -0.057505198 0.04967298 0.14570837 -0.08256103
000240 59 c3 b5 3c 3f 27 8c be 05 0b 97 39 32 5f 7e 3c
       0.022187876 -0.27373692 0.00028809175 0.015525626
000250 18 95 ca 3d ef b0 11 3e ab a6 75 3c 8a 10 24 be
       0.098917186 0.14227651 0.01499335 -0.16021934
000260 11 67 1e 3d e6 0e 50 bd 5a 36 db bc d0 71 bc 3d
       0.03867251 -0.05079546 -0.026759315 0.092013955
000270 4d 08 81 3c 2a 10 02 3e 53 3f 12 3d 1e 76 b3 bd
       0.015751028 0.12701479 0.035704922 -0.087627634
000280 65 75 b1 bb f1 c7 af 3d af 4a 47 bd b7 14 12 bc
       -0.005415606 0.08583058 -0.04865521 -0.008916072
000290 ee 6b 2a 3d 93 d9 0d 3e dc b8 ad bd c3 4a 10 be
       0.041606836 0.13852529 -0.08482525 -0.1409102
0002a0 1b 9c ef bd 85 6a dd bc 54 85 82 bd 5e 53 c2 3d
       -0.11699697 -0.027028332 -0.063730866 0.09488557
0002b0 66 46 2c 3d 96 29 a3 3d 70 6e bf bd a8 9f 3c 3e
       0.042059325 0.07966916 -0.09347236 0.18420279
0002c0 d3 fb 51 3d df e6 25 3e a0 a6 ce bd 34 3d 0a 3e
       0.05126555 0.16201352 -0.10090375 0.1349991
0002d0 75 77 09 be c5 d2 2c be 3e d9 fb 3d 82 87 08 3d
       -0.13424475 -0.16877277 0.12297295 0.033332355
0002e0 ff 45 ff bd 25 02 a8 3c 1b 8f 15 bd 48 90 93 3d
       -0.124645226 0.020508835 -0.03651343 0.07205254
0002f0 8b 9b 85 3d 66 2a 3f be 70 f5 06 3e 0a 07 75 3d
       0.06523808 -0.18668517 0.13179564 0.059821166
000300 3d c3 95 be 28 c2 44 bc b1 c0 20 3e 50 35 b3 bb
       -0.29250517 -0.012009181 0.15698506 -0.005469002
000310 fe 44 7b bc 16 e1 06 3c 2b bb 37 bd 5d ae b6 3e
       -0.015336273 0.008232376 -0.04485623 0.35679904
000320 f2 52 94 bc 8e a5 b3 3d ca 9c 5c 3d ac 71 91 bd
       -0.018105958 0.087718114 0.053860463 -0.07101759
000330 e5 cd 5d bd 9f 61 21 3e 95 a2 17 3c af b7 91 3e
       -0.054151434 0.15759896 0.009255071 0.28460452
000340 a4 a9 c6 3d 5f 83 b6 3d 39 1d 3f 3c 92 a2 66 bd
       0.09700325 0.08911776 0.011664682 -0.056307383
000350 1e 62 16 be f8 ed c7 3e 2f e1 e1 3d ee 5a c7 3d
       -0.14685866 0.39048743 0.110292785 0.0973414
000360 a4 f4 af bd 2f 31 5c bd 57 b4 af 3d 17 84 e2 bd
       -0.08591583 -0.053757843 0.08579319 -0.110603504
000370 5c 80 0d 3e 83 80 da be 96 b7 f4 3d b8 02 95 bd
       0.13818496 -0.42676172 0.11949079 -0.07275909
000380 34 d7 4a 3d 17 21 a1 3d 94 8b 10 3b da 43 85 3d
       0.04952164 0.078676395 0.0022055851 0.06507082
000390 ad 23 93 3d 2e 07 f2 3c 8b bd 7b bc 2a a7 9e bc
       0.07184539 0.02954444 -0.015365015 -0.01936682
0003a0 d4 0e f2 bd c3 ec ca 3d 57 ea 0a 3e 4e 13 e2 3d
       -0.118192345 0.0990844 0.13565956 0.11038838
0003b0 3b eb a7 3d 91 9c 81 bc 8c 13 3a be 00 a2 b9 3d
       0.081991635 -0.015821727 -0.18171519 0.09064102
0003c0 57 23 f4 3d 48 c2 41 bc 45 b3 7a 39 f0 7d f0 3d
       0.11920803 -0.011826105 0.00023908641 0.11742771
0003d0 86 e5 f5 bd 13 90 51 be b4 e5 1f 3d 0c e8 ce 3d
       -0.12006669 -0.20465116 0.03903742 0.10102853
0003e0 be d0 b6 3d 22 a7 8a 3d 6b 61 a4 ba 58 a6 2d be
       0.08926533 0.06770159 -0.001254124 -0.16957986
0003f0 dc df 9b be db 73 6e bc c4 7e 6d 3c 05 e6 24 be
       -0.3044423 -0.014553989 0.014495555 -0.1610337

fc2.bias f4 [64]
000000 3e cf 1e 3f 36 bd 08 3f 60 5f 3f 3f 41 c9 38 3f
       0.62034976 0.5341371 0.74754906 0.7218209
000010 05 b3 20 3d 64 95 85 bd 12 ea c6 bd 8c f4 97 bd
       0.039233226 -0.065226346 -0.09712614 -0.074196905
000020 44 57 39 be 77 1a 01 3f 02 dd d5 bd c7 1e fd 3e
       -0.18099695 0.5043101 -0.104425445 0.49437544
000030 52 ab 95 3e d1 c5 05 3f a9 09 b5 3e 81 4e 3a 3f
       0.2923227 0.5225497 0.35358933 0.7277604
000040 5f 79 0d 3f 30 9d 1c 3f 46 8f 0b 3f 28 02 fc 3e
       0.5526332 0.6117735 0.5451549 0.49220395
000050 07 42 01 3f 24 16 ff 3e 6b 26 ba bd 63 16 25 3f
       0.50491375 0.4982158 -0.09089359 0.64487284
000060 9f 4c 15 3f 1c 2f 2c 3f 99 9c 07 3f af 63 5e bd
       0.5832004 0.67259383 0.52973324 -0.054294284
000070 0c 42 ad 3e fe dd 42 3f 01 05 22 3f 17 87 c2 bd
       0.33839452 0.76119983 0.63288885 -0.094984226
000080 33 fb 53 3f 55 12 e9 3b 33 bf 1f 3f 33 72 34 3f
       0.82805175 0.007112781 0.6240112 0.70486754
000090 a7 be fa 3e 25 66 0f 3f c3 2a 25 3f ab 56 1b 3f
       0.4897358 0.56015235 0.64518374 0.6067912
0000a0 a1 67 fb 3d 23 31 b3 3e dd de 94 bd ec b2 38 3f
       0.12275625 0.34998426 -0.0726907 0.72148013
0000b0 44 ab 02 3e 8e 94 fa 3e 40 7d f3 3e 6e 2b 07 3f
       0.12760645 0.48941463 0.47556496 0.52800643
0000c0 d6 bf 31 3f 50 21 c3 bc cd d9 07 3f 68 99 00 3f
       0.69433343 -0.023819596 0.5306671 0.5023408
0000d0 b0 b1 60 3d c1 41 0f 3f f7 91 dc bd 21 6d 22 3f
       0.054856956 0.5595971 -0.10770028 0.6344777
0000e0 7f d7 42 3f b3 78 2c 3d ef 15 1c 3f 38 bf 47 3f
       0.7611007 0.042107295 0.6097097 0.7802615
0000f0 a4 a8 25 3f 6b e2 07 3f 65 5b 95 3e 0c f7 1a 3f
       0.6471045 0.5307986 0.2917129 0.60533214

fc3.weight f4 [10, 64]
000000 e8 d2 35 3e 20 19 4f 3e 66 f2 8a 3e 30 a8 3e 3e
       0.17756236 0.20224428 0.2713806 0.18618846
000010 da 57 34 3b 46 62 95 3d ce 41 37 bd 1e 23 bf be
       0.0027518184 0.07294135 -0.04474049 -0.3733148
000020 22 9d 96 3d 58 ee dc 3d 52 19 dd bd 51 c4 a1 3d
       0.073541895 0.10787648 -0.10795845 0.078987725
000030 3c 95 51 3e 6e 89 3f 3d 5d 00 58 be 45 0d 1a 3e
       0.20467085 0.046761923 -0.21093889 0.15044124
000040 70 d2 14 ba da 78 39 3e d1 7e 7d 3d 0c 32 60 3e
       -0.00056771096 0.18112507 0.06188852 0.21894091
000050 e6 c0 d5 3c f4 9d 5e 3e 63 ab 45 bd 85 78 4a 3e
       0.026092958 0.21739942 -0.04825915 0.19772537
000060 81 89 6e 3e b1 a0 ae 3e c4 c4 e3 bc 7d 6a cb 3e
       0.23294641 0.34106973 -0.027803786 0.39729682
000070 40 53 33 3d 88 04 f8 3d ad a8 d3 3d 67 69 d7 3c
       0.043780565 0.12110239 0.10334907 0.026295377
000080 73 2e a4 3e 2d 51 d6 3d 70 a1 39 3e 47 cd 53 3e
       0.32066688 0.10464702 0.1812799 0.20683776
000090 ef 7f 0a 3e 0b 23 48 3e ba e6 3c 3e d7 03 6d 3e
       0.13525365 0.19544618 0.1844739 0.23145996
0000a0 76 84 44 be 3f 41 32 be e8 c6 11 bd 93 4b 6d 3e
       -0.19191155 -0.17407702 -0.035590082 0.2317336
0000b0 aa 2b 55 3d 39 38 39 3e e1 bc 2c 3e 1e d2 8d 3d
       0.052043594 0.18087853 0.16868927 0.06924842
0000c0 b0 93 f0 3d 84 cb 9a bd 32 c9 0c 3e d4 9e eb 3d
       0.11746919 -0.07558349 0.13748625 0.115049034
0000d0 96 dc 97 be b6 d9 24 3e ea e9 d1 3d 38 05 35 bd
       -0.2966048 0.16098675 0.10249694 -0.04419443
0000e0 f1 9d 88 3e 57 64 ab 3d d3 4e 4d 3e 39 1e 02 3f
       0.26683 0.08368748 0.200496 0.50827366
0000f0 b6 8c 1e bd e5 dc f5 3d 92 45 44 bd 1a 92 f8 3d
       -0.03870841 0.12005023 -0.04791791 0.12137242
000100 82 f9 c0 3d 61 e2 e0 3d f1 de f8 3d 68 ad 27 3e
       0.0942259 0.10980678 0.12151898 0.16374743
000110 38 02 4c 3d f2 62 5a be af 67 4c 3d 33 bd 10 3c
       0.049806803 -0.21326807 0.049903568 0.008834171
000120 1e 5e 7d be 40 26 32 3e 50 c1 44 3d 50 41 08 3e
       -0.24742934 0.17397404 0.04803592 0.13306165
000130 3e 8a a9 3e c5 41 f4 3d dd 92 e2 be 2a 0c 78 3e
       0.33113283 0.11926607 -0.44252673 0.2422339
000140 0e 4b 00 3e a4 d1 4b 3e 09 67 5f 3e 9f f8 2e 3e
       0.12528631 0.1990419 0.21816649 0.17087029
000150 fc 74 92 3d 5c 6f 4f 3e f4 dd fc 3d 55 34 f7 3d
       0.07151219 0.20257324 0.12347022 0.120705284
000160 c5 3c 82 3e 76 39 f4 3e 2f 89 46 3e 1f 54 1c bf
       0.25436988 0.4770009 0.19388269 -0.6106586
000170 72 5e 25 bd 0b 04 99 3d 6b 00 7b bd 7b ee 7b 3d
       -0.040373273 0.07471474 -0.061279695 0.06150673
000180 aa 8d 9c 3e 8e 5d cb be db 2d ba 3d 07 a8 21 3f
       0.3057683 -0.39719814 0.090907775 0.63147014
000190 81 cf 83 3d f1 15 46 3e f3 24 a2 3d b8 2a 2b 3e
       0.064360626 0.19344307 0.07917204 0.16715515
0001a0 e9 5f a6 be 4d 73 71 3d 4c 40 63 bd 9d d7 c6 3c
       -0.3249505 0.05894785 -0.05548124 0.024272734
0001b0 e5 d2 1e 3f 08 80 f6 3d a2 c9 25 3e e9 65 1e 3e
       0.6204055 0.12036139 0.16190198 0.15468563
0001c0 0e 2e 0c 3e 8e 49 e0 3b 13 49 31 3e ae c4 05 3e
       0.13689443 0.006844706 0.17313032 0.13063309
0001d0 61 1a 07 bf a9 17 10 3e 26 6a f5 3d 6c cd 93 3e
       -0.52774626 0.14071526 0.11983137 0.28867662
0001e0 dd 03 73 3c cf c9 9c 3c d0 a0 a4 3e f0 8e 02 3f
       0.014832464 0.019139199 0.3215394 0.50999355
0001f0 fe 25 33 3e 1f 66 69 3d 15 89 14 3d b3 fa 58 3d
       0.17494962 0.056982156 0.036263544 0.05297346
000200 66 65 37 3d 30 d9 9e 3d 09 38 37 3d 40 ee 8c 3e
       0.044774435 0.07756269 0.044731174 0.2752552
000210 ee 18 16 bd db c7 98 bd b3 74 63 bd b5 52 9b 3d
       -0.03664487 -0.074599944 -0.055531215 0.075841345
000220 bb 7d f4 b9 22 e6 47 3e 50 8c 97 bc 1c 90 35 3e
       -0.00046632983 0.19521382 -0.018499523 0.17730755
000230 45 06 1d bf f5 4f 2a 3e 85 4a 7a be 0f 67 9c 3b
       -0.6133769 0.16632064 -0.2444249 0.0047730277
000240 1a 91 83 3e db be 34 3e 6b 61 fe 3d bc aa 30 3e
       0.2569664 0.1765093 0.12420925 0.1725263
000250 0e b3 34 3e b1 14 b9 3d f9 3e 55 3b 27 91 e9 3d
       0.17646429 0.0903715 0.0032538755 0.11404639
000260 ae 02 23 3e de 7e 61 3e 1f 88 e6 3d 77 e7 1e 3e
       0.15918991 0.22021052 0.11256432 0.15517984
000270 f0 18 01 3e 0a 6c f3 3d d9 48 cf 3c db e3 b0 bd
       0.12607169 0.11885841 0.025303291 -0.0863721
000280 cf 0c c7 3d af a7 40 be 1e 0a 89 3d 61 4f 8c 3e
       0.0971924 -0.18813966 0.06691383 0.2740431
000290 d5 68 b3 3d d5 8d 04 3d 92 d3 11 3e 1e 69 9c 3e
       0.087602295 0.032361824 0.14240864 0.30548948
0002a0 16 9e 4d 3e 67 3a 25 3d a6 8a 51 bd cc fb f2 3c
       0.20079836 0.0403389 -0.051157616 0.029661082
0002b0 7d 2a 60 be 62 ff 20 3e 1d ca 21 3e 35 a1 06 3e
       -0.21891208 0.15722421 0.15799756 0.13147433
0002c0 6b 98 fa 3d f3 ee dc bd 5c 2b 1d 3e f3 da 01 3e
       0.12236103 -0.107877634 0.15348572 0.12681179
0002d0 3f 19 2d be 72 ae 13 3e e6 29 7a bd 43 55 47 3e
       -0.16904162 0.14422014 -0.061075114 0.19466119
0002e0 9b 71 82 3d 11 ea c2 bd a3 11 89 3e 9f 82 ec 3e
       0.06369325 -0.09517301 0.26771268 0.46193406
0002f0 d5 6a 07 3d 46 b6 3e 3e b6 f3 20 3e bd ae 16 3e
       0.033060867 0.1862422 0.15717968 0.14715095
000300 23 b5 49 3e 8b e8 cc 3d 57 b1 9b 3e d6 7f 4e 3e
       0.19698004 0.100052916 0.30408737 0.20165953
000310 d1 97 ab bd 7b f2 cd 3b 26 25 22 3d 85 5a d1 be
       -0.08378566 0.0062850094 0.03958621 -0.40889373
000320 37 a3 2d be 8e 68 15 3d 6d e6 1a 3d 88 f4 35 3e
       -0.16956793 0.036476664 0.037817407 0.17769063
000330 b2 bb 90 3d df d6 26 3e 93 b2 de be 15 d1 25 3e
       0.0706705 0.16292904 -0.43495616 0.1619304
000340 60 90 8d 3e dc 63 65 3e a3 20 29 3e 43 d4 0d 3e
       0.27649212 0.22401375 0.16516356 0.13850503
000350 83 16 26 3e 8d bd b5 3d a7 ea 19 bd 50 63 5c 3e
       0.16219525 0.088740446 -0.037577298 0.2152226
000360 f8 53 6d 3d 1b ba 38 3e 39 71 f8 bc be b4 a9 be
       0.057941407 0.18039744 -0.030327426 -0.33145708
000370 0f 4d 13 3e 03 3f 84 3e 45 4a 58 3e af 49 6f 3d
       0.14384864 0.25829324 0.21122082 0.05841988
000380 06 4a 42 3e 13 bd 2c 3e 33 78 1f bd 7c 94 ce 3e
       0.1897355 0.16869001 -0.03893299 0.4034766
000390 ce 72 11 3e 74 94 2d bd 27 63 28 3e 78 2e 76 3e
       0.14203951 -0.042377904 0.16444074 0.24041164
0003a0 a0 f6 ae be 39 18 2e bb c6 c9 8c bd fd 0f 1d 3e
       -0.34172535 -0.002656473 -0.06874423 0.1533813
0003b0 30 da b2 3d 61 86 ed bc 83 26 45 bc 72 97 09 3e
       0.08733022 -0.02899474 -0.012033108 0.13436678
0003c0 92 ae eb 3d 2e 2c f8 3b 64 51 0a 3b 7d 7e 30 3e
       0.11507906 0.007573626 0.0021105641 0.17235751
0003d0 56 6b 75 3e 45 40 22 3d 26 bc 89 bd 9c 1f 4e 3e
       0.23966727 0.039612073 -0.067253396 0.20129246
0003e0 85 da 28 3e cc 90 b1 3d 92 27 00 3f 03 8f 34 3e
       0.16489609 0.08670196 0.5006038 0.1763268
0003f0 c0 94 08 3e 20 95 42 3e fc 99 f8 3d 6e 6e 0c 3e
       0.13337994 0.19002199 0.12138745 0.13714

fc3.bias f4 [10]
000000 55 45 0b 3f c6 34 07 3f 6d 81 1b 3e da 6c da 3e
       0.5440267 0.528149 0.15186091 0.42661172
000010 c3 95 b2 3e 81 d4 40 3e 89 6c 01 3e eb ea e3 3e
       0.34879884 0.18831064 0.12639059 0.44515166
000020 e7 7b b7 3e 41 13 72 3e
       0.35836717 0.23640157
